{"modelTopology":{"class_name":"Model","config":{"name":"policy-model","layers":[{"name":"policy-model_tankInput","class_name":"InputLayer","config":{"batch_input_shape":[null,10],"dtype":"float32","sparse":false,"name":"policy-model_tankInput"},"inbound_nodes":[]},{"name":"policy-model_tankInput_tokProj","class_name":"Dense","config":{"units":16,"activation":"linear","use_bias":false,"kernel_initializer":{"class_name":"VarianceScaling","config":{"scale":1,"mode":"fan_avg","distribution":"normal","seed":null}},"bias_initializer":{"class_name":"Zeros","config":{}},"kernel_regularizer":null,"bias_regularizer":null,"activity_regularizer":null,"kernel_constraint":null,"bias_constraint":null,"name":"policy-model_tankInput_tokProj","trainable":true},"inbound_nodes":[[["policy-model_tankInput",0,0,{}]]]},{"name":"policy-model_bulletsInput","class_name":"InputLayer","config":{"batch_input_shape":[null,8,4],"dtype":"float32","sparse":false,"name":"policy-model_bulletsInput"},"inbound_nodes":[]},{"name":"policy-model_tankInput_tokProj/policy-model_tankInput_tokProj_typeEmbedding","class_name":"VariableLayer","config":{"name":"policy-model_tankInput_tokProj/policy-model_tankInput_tokProj_typeEmbedding","trainable":true,"shape":[16],"initializer":{"class_name":"VarianceScaling","config":{"scale":1,"mode":"fan_avg","distribution":"normal","seed":null}}},"inbound_nodes":[[["policy-model_tankInput_tokProj",0,0,{}]]]},{"name":"policy-model_alliesInput","class_name":"InputLayer","config":{"batch_input_shape":[null,3,10],"dtype":"float32","sparse":false,"name":"policy-model_alliesInput"},"inbound_nodes":[]},{"name":"policy-model_enemiesInput","class_name":"InputLayer","config":{"batch_input_shape":[null,3,10],"dtype":"float32","sparse":false,"name":"policy-model_enemiesInput"},"inbound_nodes":[]},{"name":"policy-model_bulletsInput_tokProj","class_name":"Dense","config":{"units":16,"activation":"linear","use_bias":false,"kernel_initializer":{"class_name":"VarianceScaling","config":{"scale":1,"mode":"fan_avg","distribution":"normal","seed":null}},"bias_initializer":{"class_name":"Zeros","config":{}},"kernel_regularizer":null,"bias_regularizer":null,"activity_regularizer":null,"kernel_constraint":null,"bias_constraint":null,"name":"policy-model_bulletsInput_tokProj","trainable":true},"inbound_nodes":[[["policy-model_bulletsInput",0,0,{}]]]},{"name":"policy-model_tankInput_tokProj/policy-model_tankInput_tokProj_withTypeEmbedding","class_name":"Add","config":{"name":"policy-model_tankInput_tokProj/policy-model_tankInput_tokProj_withTypeEmbedding","trainable":true},"inbound_nodes":[[["policy-model_tankInput_tokProj",0,0,{}],["policy-model_tankInput_tokProj/policy-model_tankInput_tokProj_typeEmbedding",0,0,{}]]]},{"name":"policy-model_alliesInput_tokProj","class_name":"Dense","config":{"units":16,"activation":"linear","use_bias":false,"kernel_initializer":{"class_name":"VarianceScaling","config":{"scale":1,"mode":"fan_avg","distribution":"normal","seed":null}},"bias_initializer":{"class_name":"Zeros","config":{}},"kernel_regularizer":null,"bias_regularizer":null,"activity_regularizer":null,"kernel_constraint":null,"bias_constraint":null,"name":"policy-model_alliesInput_tokProj","trainable":true},"inbound_nodes":[[["policy-model_alliesInput",0,0,{}]]]},{"name":"policy-model_enemiesInput_tokProj","class_name":"Dense","config":{"units":16,"activation":"linear","use_bias":false,"kernel_initializer":{"class_name":"VarianceScaling","config":{"scale":1,"mode":"fan_avg","distribution":"normal","seed":null}},"bias_initializer":{"class_name":"Zeros","config":{}},"kernel_regularizer":null,"bias_regularizer":null,"activity_regularizer":null,"kernel_constraint":null,"bias_constraint":null,"name":"policy-model_enemiesInput_tokProj","trainable":true},"inbound_nodes":[[["policy-model_enemiesInput",0,0,{}]]]},{"name":"policy-model_clsBulletsToken","class_name":"VariableLayer","config":{"name":"policy-model_clsBulletsToken","trainable":true,"shape":[1,16],"initializer":{"class_name":"TruncatedNormal","config":{"mean":0,"stddev":0.05,"seed":null}}},"inbound_nodes":[[["policy-model_bulletsInput_tokProj",0,0,{}]]]},{"name":"policy-model_tankInput_tokProj/policy-model_tankInput_tokProj_withTypeEmbedding/policy-model_tankInput_tokProj/policy-model_tankInput_tokProj_withTypeEmbedding_reshape","class_name":"Reshape","config":{"target_shape":[1,16],"name":"policy-model_tankInput_tokProj/policy-model_tankInput_tokProj_withTypeEmbedding/policy-model_tankInput_tokProj/policy-model_tankInput_tokProj_withTypeEmbedding_reshape","trainable":true},"inbound_nodes":[[["policy-model_tankInput_tokProj/policy-model_tankInput_tokProj_withTypeEmbedding",0,0,{}]]]},{"name":"policy-model_alliesInput_tokProj/policy-model_alliesInput_tokProj_typeEmbedding","class_name":"VariableLayer","config":{"name":"policy-model_alliesInput_tokProj/policy-model_alliesInput_tokProj_typeEmbedding","trainable":true,"shape":[16],"initializer":{"class_name":"VarianceScaling","config":{"scale":1,"mode":"fan_avg","distribution":"normal","seed":null}}},"inbound_nodes":[[["policy-model_alliesInput_tokProj",0,0,{}]]]},{"name":"policy-model_enemiesInput_tokProj/policy-model_enemiesInput_tokProj_typeEmbedding","class_name":"VariableLayer","config":{"name":"policy-model_enemiesInput_tokProj/policy-model_enemiesInput_tokProj_typeEmbedding","trainable":true,"shape":[16],"initializer":{"class_name":"VarianceScaling","config":{"scale":1,"mode":"fan_avg","distribution":"normal","seed":null}}},"inbound_nodes":[[["policy-model_enemiesInput_tokProj",0,0,{}]]]},{"name":"policy-model_clsBulletsToken/policy-model_clsBulletsToken_qMaskLike","class_name":"MaskLike","config":{"name":"policy-model_clsBulletsToken/policy-model_clsBulletsToken_qMaskLike","trainable":true},"inbound_nodes":[[["policy-model_clsBulletsToken",0,0,{}]]]},{"name":"policy-model_bulletsMaskInput","class_name":"InputLayer","config":{"batch_input_shape":[null,8],"dtype":"float32","sparse":false,"name":"policy-model_bulletsMaskInput"},"inbound_nodes":[]},{"name":"policy-model_clsToken","class_name":"VariableLayer","config":{"name":"policy-model_clsToken","trainable":true,"shape":[1,16],"initializer":{"class_name":"TruncatedNormal","config":{"mean":0,"stddev":0.05,"seed":null}}},"inbound_nodes":[[["policy-model_tankInput_tokProj/policy-model_tankInput_tokProj_withTypeEmbedding/policy-model_tankInput_tokProj/policy-model_tankInput_tokProj_withTypeEmbedding_reshape",0,0,{}]]]},{"name":"policy-model_alliesInput_tokProj/policy-model_alliesInput_tokProj_withTypeEmbedding","class_name":"Add","config":{"name":"policy-model_alliesInput_tokProj/policy-model_alliesInput_tokProj_withTypeEmbedding","trainable":true},"inbound_nodes":[[["policy-model_alliesInput_tokProj",0,0,{}],["policy-model_alliesInput_tokProj/policy-model_alliesInput_tokProj_typeEmbedding",0,0,{}]]]},{"name":"policy-model_enemiesInput_tokProj/policy-model_enemiesInput_tokProj_withTypeEmbedding","class_name":"Add","config":{"name":"policy-model_enemiesInput_tokProj/policy-model_enemiesInput_tokProj_withTypeEmbedding","trainable":true},"inbound_nodes":[[["policy-model_enemiesInput_tokProj",0,0,{}],["policy-model_enemiesInput_tokProj/policy-model_enemiesInput_tokProj_typeEmbedding",0,0,{}]]]},{"name":"policy-model_clsBulletsAttention_MultiHeadAttentionLayer","class_name":"MultiHeadAttention","config":{"name":"policy-model_clsBulletsAttention_MultiHeadAttentionLayer","trainable":true,"key_dim":16,"num_heads":1},"inbound_nodes":[[["policy-model_clsBulletsToken",0,0,{}],["policy-model_clsBulletsToken/policy-model_clsBulletsToken_qMaskLike",0,0,{}],["policy-model_bulletsInput_tokProj",0,0,{}],["policy-model_bulletsMaskInput",0,0,{}]]]},{"name":"policy-model_contextToken0","class_name":"Concatenate","config":{"axis":1,"name":"policy-model_contextToken0","trainable":true},"inbound_nodes":[[["policy-model_clsToken",0,0,{}],["policy-model_tankInput_tokProj/policy-model_tankInput_tokProj_withTypeEmbedding/policy-model_tankInput_tokProj/policy-model_tankInput_tokProj_withTypeEmbedding_reshape",0,0,{}],["policy-model_alliesInput_tokProj/policy-model_alliesInput_tokProj_withTypeEmbedding",0,0,{}],["policy-model_enemiesInput_tokProj/policy-model_enemiesInput_tokProj_withTypeEmbedding",0,0,{}],["policy-model_clsBulletsAttention_MultiHeadAttentionLayer",0,0,{}]]]},{"name":"policy-model_maskLike","class_name":"MaskLike","config":{"name":"policy-model_maskLike","trainable":true},"inbound_nodes":[[["policy-model_tankInput_tokProj/policy-model_tankInput_tokProj_withTypeEmbedding/policy-model_tankInput_tokProj/policy-model_tankInput_tokProj_withTypeEmbedding_reshape",0,0,{}]],[["policy-model_tankInput_tokProj/policy-model_tankInput_tokProj_withTypeEmbedding/policy-model_tankInput_tokProj/policy-model_tankInput_tokProj_withTypeEmbedding_reshape",0,0,{}]],[["policy-model_tankInput_tokProj/policy-model_tankInput_tokProj_withTypeEmbedding/policy-model_tankInput_tokProj/policy-model_tankInput_tokProj_withTypeEmbedding_reshape",0,0,{}]],[["policy-model_tankInput_tokProj/policy-model_tankInput_tokProj_withTypeEmbedding/policy-model_tankInput_tokProj/policy-model_tankInput_tokProj_withTypeEmbedding_reshape",0,0,{}]],[["policy-model_tankInput_tokProj/policy-model_tankInput_tokProj_withTypeEmbedding/policy-model_tankInput_tokProj/policy-model_tankInput_tokProj_withTypeEmbedding_reshape",0,0,{}]],[["policy-model_tankInput_tokProj/policy-model_tankInput_tokProj_withTypeEmbedding/policy-model_tankInput_tokProj/policy-model_tankInput_tokProj_withTypeEmbedding_reshape",0,0,{}]],[["policy-model_tankInput_tokProj/policy-model_tankInput_tokProj_withTypeEmbedding/policy-model_tankInput_tokProj/policy-model_tankInput_tokProj_withTypeEmbedding_reshape",0,0,{}]],[["policy-model_tankInput_tokProj/policy-model_tankInput_tokProj_withTypeEmbedding/policy-model_tankInput_tokProj/policy-model_tankInput_tokProj_withTypeEmbedding_reshape",0,0,{}]],[["policy-model_tankInput_tokProj/policy-model_tankInput_tokProj_withTypeEmbedding/policy-model_tankInput_tokProj/policy-model_tankInput_tokProj_withTypeEmbedding_reshape",0,0,{}]],[["policy-model_tankInput_tokProj/policy-model_tankInput_tokProj_withTypeEmbedding/policy-model_tankInput_tokProj/policy-model_tankInput_tokProj_withTypeEmbedding_reshape",0,0,{}]],[["policy-model_tankInput_tokProj/policy-model_tankInput_tokProj_withTypeEmbedding/policy-model_tankInput_tokProj/policy-model_tankInput_tokProj_withTypeEmbedding_reshape",0,0,{}]],[["policy-model_tankInput_tokProj/policy-model_tankInput_tokProj_withTypeEmbedding/policy-model_tankInput_tokProj/policy-model_tankInput_tokProj_withTypeEmbedding_reshape",0,0,{}]]]},{"name":"policy-model_alliesMaskInput","class_name":"InputLayer","config":{"batch_input_shape":[null,3],"dtype":"float32","sparse":false,"name":"policy-model_alliesMaskInput"},"inbound_nodes":[]},{"name":"policy-model_enemiesMaskInput","class_name":"InputLayer","config":{"batch_input_shape":[null,3],"dtype":"float32","sparse":false,"name":"policy-model_enemiesMaskInput"},"inbound_nodes":[]},{"name":"policy-model_maskSquash","class_name":"MaskSquashLayer","config":{"name":"policy-model_maskSquash","trainable":true},"inbound_nodes":[[["policy-model_bulletsMaskInput",0,0,{}]],[["policy-model_bulletsMaskInput",0,0,{}]],[["policy-model_bulletsMaskInput",0,0,{}]],[["policy-model_bulletsMaskInput",0,0,{}]],[["policy-model_bulletsMaskInput",0,0,{}]],[["policy-model_bulletsMaskInput",0,0,{}]],[["policy-model_bulletsMaskInput",0,0,{}]],[["policy-model_bulletsMaskInput",0,0,{}]],[["policy-model_bulletsMaskInput",0,0,{}]],[["policy-model_bulletsMaskInput",0,0,{}]],[["policy-model_bulletsMaskInput",0,0,{}]],[["policy-model_bulletsMaskInput",0,0,{}]]]},{"name":"policy-model_transformedTokens/depth0_QNorm_policy-model_contextToken0/policy-model_contextToken0","class_name":"RMSNormLayer","config":{"name":"policy-model_transformedTokens/depth0_QNorm_policy-model_contextToken0/policy-model_contextToken0","trainable":true,"axis":-1,"epsilon":0.000001,"scale":true},"inbound_nodes":[[["policy-model_contextToken0",0,0,{}]]]},{"name":"policy-model_contextTokenMask0","class_name":"Concatenate","config":{"axis":1,"name":"policy-model_contextTokenMask0","trainable":true},"inbound_nodes":[[["policy-model_maskLike",0,0,{}],["policy-model_maskLike",0,0,{}],["policy-model_alliesMaskInput",0,0,{}],["policy-model_enemiesMaskInput",0,0,{}],["policy-model_maskSquash",0,0,{}]]]},{"name":"policy-model_transformedTokens/depth0_KVNorm_policy-model_contextToken0/policy-model_contextToken0","class_name":"RMSNormLayer","config":{"name":"policy-model_transformedTokens/depth0_KVNorm_policy-model_contextToken0/policy-model_contextToken0","trainable":true,"axis":-1,"epsilon":0.000001,"scale":true},"inbound_nodes":[[["policy-model_contextToken0",0,0,{}]]]},{"name":"policy-model_transformedTokens/depth0_MultiHeadAttentionLayer","class_name":"MultiHeadAttention","config":{"name":"policy-model_transformedTokens/depth0_MultiHeadAttentionLayer","trainable":true,"key_dim":16,"num_heads":1},"inbound_nodes":[[["policy-model_transformedTokens/depth0_QNorm_policy-model_contextToken0/policy-model_contextToken0",0,0,{}],["policy-model_contextTokenMask0",0,0,{}],["policy-model_transformedTokens/depth0_KVNorm_policy-model_contextToken0/policy-model_contextToken0",0,0,{}],["policy-model_contextTokenMask0",0,0,{}]]]},{"name":"policy-model_transformedTokens/depth0_residual","class_name":"Add","config":{"name":"policy-model_transformedTokens/depth0_residual","trainable":true},"inbound_nodes":[[["policy-model_contextToken0",0,0,{}],["policy-model_transformedTokens/depth0_MultiHeadAttentionLayer",0,0,{}]]]},{"name":"policy-model_transformedTokens/depth0_ln2","class_name":"RMSNormLayer","config":{"name":"policy-model_transformedTokens/depth0_ln2","trainable":true,"axis":-1,"epsilon":0.000001,"scale":true},"inbound_nodes":[[["policy-model_transformedTokens/depth0_residual",0,0,{}]]]},{"name":"policy-model_transformedTokens/depth0_ffn1","class_name":"Dense","config":{"units":64,"activation":"relu","use_bias":false,"kernel_initializer":{"class_name":"VarianceScaling","config":{"scale":1,"mode":"fan_avg","distribution":"normal","seed":null}},"bias_initializer":{"class_name":"Zeros","config":{}},"kernel_regularizer":null,"bias_regularizer":null,"activity_regularizer":null,"kernel_constraint":null,"bias_constraint":null,"name":"policy-model_transformedTokens/depth0_ffn1","trainable":true},"inbound_nodes":[[["policy-model_transformedTokens/depth0_ln2",0,0,{}]]]},{"name":"policy-model_transformedTokens/depth0_ffn2","class_name":"Dense","config":{"units":16,"activation":"linear","use_bias":false,"kernel_initializer":{"class_name":"VarianceScaling","config":{"scale":1,"mode":"fan_avg","distribution":"normal","seed":null}},"bias_initializer":{"class_name":"Zeros","config":{}},"kernel_regularizer":null,"bias_regularizer":null,"activity_regularizer":null,"kernel_constraint":null,"bias_constraint":null,"name":"policy-model_transformedTokens/depth0_ffn2","trainable":true},"inbound_nodes":[[["policy-model_transformedTokens/depth0_ffn1",0,0,{}]]]},{"name":"policy-model_transformedTokens/depth0_ffnAdd","class_name":"Add","config":{"name":"policy-model_transformedTokens/depth0_ffnAdd","trainable":true},"inbound_nodes":[[["policy-model_transformedTokens/depth0_residual",0,0,{}],["policy-model_transformedTokens/depth0_ffn2",0,0,{}]]]},{"name":"policy-model_transformedTokens/depth1_QNorm_policy-model_transformedTokens/depth0_ffnAdd/policy-model_transformedTokens/depth0_ffnAdd","class_name":"RMSNormLayer","config":{"name":"policy-model_transformedTokens/depth1_QNorm_policy-model_transformedTokens/depth0_ffnAdd/policy-model_transformedTokens/depth0_ffnAdd","trainable":true,"axis":-1,"epsilon":0.000001,"scale":true},"inbound_nodes":[[["policy-model_transformedTokens/depth0_ffnAdd",0,0,{}]]]},{"name":"policy-model_contextTokenMask1","class_name":"Concatenate","config":{"axis":1,"name":"policy-model_contextTokenMask1","trainable":true},"inbound_nodes":[[["policy-model_maskLike",1,0,{}],["policy-model_maskLike",1,0,{}],["policy-model_alliesMaskInput",0,0,{}],["policy-model_enemiesMaskInput",0,0,{}],["policy-model_maskSquash",1,0,{}]]]},{"name":"policy-model_transformedTokens/depth1_KVNorm_policy-model_transformedTokens/depth0_ffnAdd/policy-model_transformedTokens/depth0_ffnAdd","class_name":"RMSNormLayer","config":{"name":"policy-model_transformedTokens/depth1_KVNorm_policy-model_transformedTokens/depth0_ffnAdd/policy-model_transformedTokens/depth0_ffnAdd","trainable":true,"axis":-1,"epsilon":0.000001,"scale":true},"inbound_nodes":[[["policy-model_transformedTokens/depth0_ffnAdd",0,0,{}]]]},{"name":"policy-model_transformedTokens/depth1_MultiHeadAttentionLayer","class_name":"MultiHeadAttention","config":{"name":"policy-model_transformedTokens/depth1_MultiHeadAttentionLayer","trainable":true,"key_dim":16,"num_heads":1},"inbound_nodes":[[["policy-model_transformedTokens/depth1_QNorm_policy-model_transformedTokens/depth0_ffnAdd/policy-model_transformedTokens/depth0_ffnAdd",0,0,{}],["policy-model_contextTokenMask1",0,0,{}],["policy-model_transformedTokens/depth1_KVNorm_policy-model_transformedTokens/depth0_ffnAdd/policy-model_transformedTokens/depth0_ffnAdd",0,0,{}],["policy-model_contextTokenMask1",0,0,{}]]]},{"name":"policy-model_transformedTokens/depth1_residual","class_name":"Add","config":{"name":"policy-model_transformedTokens/depth1_residual","trainable":true},"inbound_nodes":[[["policy-model_transformedTokens/depth0_ffnAdd",0,0,{}],["policy-model_transformedTokens/depth1_MultiHeadAttentionLayer",0,0,{}]]]},{"name":"policy-model_transformedTokens/depth1_ln2","class_name":"RMSNormLayer","config":{"name":"policy-model_transformedTokens/depth1_ln2","trainable":true,"axis":-1,"epsilon":0.000001,"scale":true},"inbound_nodes":[[["policy-model_transformedTokens/depth1_residual",0,0,{}]]]},{"name":"policy-model_transformedTokens/depth1_ffn1","class_name":"Dense","config":{"units":64,"activation":"relu","use_bias":false,"kernel_initializer":{"class_name":"VarianceScaling","config":{"scale":1,"mode":"fan_avg","distribution":"normal","seed":null}},"bias_initializer":{"class_name":"Zeros","config":{}},"kernel_regularizer":null,"bias_regularizer":null,"activity_regularizer":null,"kernel_constraint":null,"bias_constraint":null,"name":"policy-model_transformedTokens/depth1_ffn1","trainable":true},"inbound_nodes":[[["policy-model_transformedTokens/depth1_ln2",0,0,{}]]]},{"name":"policy-model_transformedTokens/depth1_ffn2","class_name":"Dense","config":{"units":16,"activation":"linear","use_bias":false,"kernel_initializer":{"class_name":"VarianceScaling","config":{"scale":1,"mode":"fan_avg","distribution":"normal","seed":null}},"bias_initializer":{"class_name":"Zeros","config":{}},"kernel_regularizer":null,"bias_regularizer":null,"activity_regularizer":null,"kernel_constraint":null,"bias_constraint":null,"name":"policy-model_transformedTokens/depth1_ffn2","trainable":true},"inbound_nodes":[[["policy-model_transformedTokens/depth1_ffn1",0,0,{}]]]},{"name":"policy-model_transformedTokens/depth1_ffnAdd","class_name":"Add","config":{"name":"policy-model_transformedTokens/depth1_ffnAdd","trainable":true},"inbound_nodes":[[["policy-model_transformedTokens/depth1_residual",0,0,{}],["policy-model_transformedTokens/depth1_ffn2",0,0,{}]]]},{"name":"policy-model_transformedTokens/depth2_QNorm_policy-model_transformedTokens/depth1_ffnAdd/policy-model_transformedTokens/depth1_ffnAdd","class_name":"RMSNormLayer","config":{"name":"policy-model_transformedTokens/depth2_QNorm_policy-model_transformedTokens/depth1_ffnAdd/policy-model_transformedTokens/depth1_ffnAdd","trainable":true,"axis":-1,"epsilon":0.000001,"scale":true},"inbound_nodes":[[["policy-model_transformedTokens/depth1_ffnAdd",0,0,{}]]]},{"name":"policy-model_contextTokenMask2","class_name":"Concatenate","config":{"axis":1,"name":"policy-model_contextTokenMask2","trainable":true},"inbound_nodes":[[["policy-model_maskLike",2,0,{}],["policy-model_maskLike",2,0,{}],["policy-model_alliesMaskInput",0,0,{}],["policy-model_enemiesMaskInput",0,0,{}],["policy-model_maskSquash",2,0,{}]]]},{"name":"policy-model_transformedTokens/depth2_KVNorm_policy-model_transformedTokens/depth1_ffnAdd/policy-model_transformedTokens/depth1_ffnAdd","class_name":"RMSNormLayer","config":{"name":"policy-model_transformedTokens/depth2_KVNorm_policy-model_transformedTokens/depth1_ffnAdd/policy-model_transformedTokens/depth1_ffnAdd","trainable":true,"axis":-1,"epsilon":0.000001,"scale":true},"inbound_nodes":[[["policy-model_transformedTokens/depth1_ffnAdd",0,0,{}]]]},{"name":"policy-model_transformedTokens/depth2_MultiHeadAttentionLayer","class_name":"MultiHeadAttention","config":{"name":"policy-model_transformedTokens/depth2_MultiHeadAttentionLayer","trainable":true,"key_dim":16,"num_heads":1},"inbound_nodes":[[["policy-model_transformedTokens/depth2_QNorm_policy-model_transformedTokens/depth1_ffnAdd/policy-model_transformedTokens/depth1_ffnAdd",0,0,{}],["policy-model_contextTokenMask2",0,0,{}],["policy-model_transformedTokens/depth2_KVNorm_policy-model_transformedTokens/depth1_ffnAdd/policy-model_transformedTokens/depth1_ffnAdd",0,0,{}],["policy-model_contextTokenMask2",0,0,{}]]]},{"name":"policy-model_transformedTokens/depth2_residual","class_name":"Add","config":{"name":"policy-model_transformedTokens/depth2_residual","trainable":true},"inbound_nodes":[[["policy-model_transformedTokens/depth1_ffnAdd",0,0,{}],["policy-model_transformedTokens/depth2_MultiHeadAttentionLayer",0,0,{}]]]},{"name":"policy-model_transformedTokens/depth2_ln2","class_name":"RMSNormLayer","config":{"name":"policy-model_transformedTokens/depth2_ln2","trainable":true,"axis":-1,"epsilon":0.000001,"scale":true},"inbound_nodes":[[["policy-model_transformedTokens/depth2_residual",0,0,{}]]]},{"name":"policy-model_transformedTokens/depth2_ffn1","class_name":"Dense","config":{"units":64,"activation":"relu","use_bias":false,"kernel_initializer":{"class_name":"VarianceScaling","config":{"scale":1,"mode":"fan_avg","distribution":"normal","seed":null}},"bias_initializer":{"class_name":"Zeros","config":{}},"kernel_regularizer":null,"bias_regularizer":null,"activity_regularizer":null,"kernel_constraint":null,"bias_constraint":null,"name":"policy-model_transformedTokens/depth2_ffn1","trainable":true},"inbound_nodes":[[["policy-model_transformedTokens/depth2_ln2",0,0,{}]]]},{"name":"policy-model_transformedTokens/depth2_ffn2","class_name":"Dense","config":{"units":16,"activation":"linear","use_bias":false,"kernel_initializer":{"class_name":"VarianceScaling","config":{"scale":1,"mode":"fan_avg","distribution":"normal","seed":null}},"bias_initializer":{"class_name":"Zeros","config":{}},"kernel_regularizer":null,"bias_regularizer":null,"activity_regularizer":null,"kernel_constraint":null,"bias_constraint":null,"name":"policy-model_transformedTokens/depth2_ffn2","trainable":true},"inbound_nodes":[[["policy-model_transformedTokens/depth2_ffn1",0,0,{}]]]},{"name":"policy-model_transformedTokens/depth2_ffnAdd","class_name":"Add","config":{"name":"policy-model_transformedTokens/depth2_ffnAdd","trainable":true},"inbound_nodes":[[["policy-model_transformedTokens/depth2_residual",0,0,{}],["policy-model_transformedTokens/depth2_ffn2",0,0,{}]]]},{"name":"policy-model_transformedTokens/depth3_QNorm_policy-model_transformedTokens/depth2_ffnAdd/policy-model_transformedTokens/depth2_ffnAdd","class_name":"RMSNormLayer","config":{"name":"policy-model_transformedTokens/depth3_QNorm_policy-model_transformedTokens/depth2_ffnAdd/policy-model_transformedTokens/depth2_ffnAdd","trainable":true,"axis":-1,"epsilon":0.000001,"scale":true},"inbound_nodes":[[["policy-model_transformedTokens/depth2_ffnAdd",0,0,{}]]]},{"name":"policy-model_contextTokenMask3","class_name":"Concatenate","config":{"axis":1,"name":"policy-model_contextTokenMask3","trainable":true},"inbound_nodes":[[["policy-model_maskLike",3,0,{}],["policy-model_maskLike",3,0,{}],["policy-model_alliesMaskInput",0,0,{}],["policy-model_enemiesMaskInput",0,0,{}],["policy-model_maskSquash",3,0,{}]]]},{"name":"policy-model_transformedTokens/depth3_KVNorm_policy-model_transformedTokens/depth2_ffnAdd/policy-model_transformedTokens/depth2_ffnAdd","class_name":"RMSNormLayer","config":{"name":"policy-model_transformedTokens/depth3_KVNorm_policy-model_transformedTokens/depth2_ffnAdd/policy-model_transformedTokens/depth2_ffnAdd","trainable":true,"axis":-1,"epsilon":0.000001,"scale":true},"inbound_nodes":[[["policy-model_transformedTokens/depth2_ffnAdd",0,0,{}]]]},{"name":"policy-model_transformedTokens/depth3_MultiHeadAttentionLayer","class_name":"MultiHeadAttention","config":{"name":"policy-model_transformedTokens/depth3_MultiHeadAttentionLayer","trainable":true,"key_dim":16,"num_heads":1},"inbound_nodes":[[["policy-model_transformedTokens/depth3_QNorm_policy-model_transformedTokens/depth2_ffnAdd/policy-model_transformedTokens/depth2_ffnAdd",0,0,{}],["policy-model_contextTokenMask3",0,0,{}],["policy-model_transformedTokens/depth3_KVNorm_policy-model_transformedTokens/depth2_ffnAdd/policy-model_transformedTokens/depth2_ffnAdd",0,0,{}],["policy-model_contextTokenMask3",0,0,{}]]]},{"name":"policy-model_transformedTokens/depth3_residual","class_name":"Add","config":{"name":"policy-model_transformedTokens/depth3_residual","trainable":true},"inbound_nodes":[[["policy-model_transformedTokens/depth2_ffnAdd",0,0,{}],["policy-model_transformedTokens/depth3_MultiHeadAttentionLayer",0,0,{}]]]},{"name":"policy-model_transformedTokens/depth3_ln2","class_name":"RMSNormLayer","config":{"name":"policy-model_transformedTokens/depth3_ln2","trainable":true,"axis":-1,"epsilon":0.000001,"scale":true},"inbound_nodes":[[["policy-model_transformedTokens/depth3_residual",0,0,{}]]]},{"name":"policy-model_transformedTokens/depth3_ffn1","class_name":"Dense","config":{"units":64,"activation":"relu","use_bias":false,"kernel_initializer":{"class_name":"VarianceScaling","config":{"scale":1,"mode":"fan_avg","distribution":"normal","seed":null}},"bias_initializer":{"class_name":"Zeros","config":{}},"kernel_regularizer":null,"bias_regularizer":null,"activity_regularizer":null,"kernel_constraint":null,"bias_constraint":null,"name":"policy-model_transformedTokens/depth3_ffn1","trainable":true},"inbound_nodes":[[["policy-model_transformedTokens/depth3_ln2",0,0,{}]]]},{"name":"policy-model_transformedTokens/depth3_ffn2","class_name":"Dense","config":{"units":16,"activation":"linear","use_bias":false,"kernel_initializer":{"class_name":"VarianceScaling","config":{"scale":1,"mode":"fan_avg","distribution":"normal","seed":null}},"bias_initializer":{"class_name":"Zeros","config":{}},"kernel_regularizer":null,"bias_regularizer":null,"activity_regularizer":null,"kernel_constraint":null,"bias_constraint":null,"name":"policy-model_transformedTokens/depth3_ffn2","trainable":true},"inbound_nodes":[[["policy-model_transformedTokens/depth3_ffn1",0,0,{}]]]},{"name":"policy-model_transformedTokens/depth3_ffnAdd","class_name":"Add","config":{"name":"policy-model_transformedTokens/depth3_ffnAdd","trainable":true},"inbound_nodes":[[["policy-model_transformedTokens/depth3_residual",0,0,{}],["policy-model_transformedTokens/depth3_ffn2",0,0,{}]]]},{"name":"policy-model_transformedTokens/depth4_QNorm_policy-model_transformedTokens/depth3_ffnAdd/policy-model_transformedTokens/depth3_ffnAdd","class_name":"RMSNormLayer","config":{"name":"policy-model_transformedTokens/depth4_QNorm_policy-model_transformedTokens/depth3_ffnAdd/policy-model_transformedTokens/depth3_ffnAdd","trainable":true,"axis":-1,"epsilon":0.000001,"scale":true},"inbound_nodes":[[["policy-model_transformedTokens/depth3_ffnAdd",0,0,{}]]]},{"name":"policy-model_contextTokenMask4","class_name":"Concatenate","config":{"axis":1,"name":"policy-model_contextTokenMask4","trainable":true},"inbound_nodes":[[["policy-model_maskLike",4,0,{}],["policy-model_maskLike",4,0,{}],["policy-model_alliesMaskInput",0,0,{}],["policy-model_enemiesMaskInput",0,0,{}],["policy-model_maskSquash",4,0,{}]]]},{"name":"policy-model_transformedTokens/depth4_KVNorm_policy-model_transformedTokens/depth3_ffnAdd/policy-model_transformedTokens/depth3_ffnAdd","class_name":"RMSNormLayer","config":{"name":"policy-model_transformedTokens/depth4_KVNorm_policy-model_transformedTokens/depth3_ffnAdd/policy-model_transformedTokens/depth3_ffnAdd","trainable":true,"axis":-1,"epsilon":0.000001,"scale":true},"inbound_nodes":[[["policy-model_transformedTokens/depth3_ffnAdd",0,0,{}]]]},{"name":"policy-model_transformedTokens/depth4_MultiHeadAttentionLayer","class_name":"MultiHeadAttention","config":{"name":"policy-model_transformedTokens/depth4_MultiHeadAttentionLayer","trainable":true,"key_dim":16,"num_heads":1},"inbound_nodes":[[["policy-model_transformedTokens/depth4_QNorm_policy-model_transformedTokens/depth3_ffnAdd/policy-model_transformedTokens/depth3_ffnAdd",0,0,{}],["policy-model_contextTokenMask4",0,0,{}],["policy-model_transformedTokens/depth4_KVNorm_policy-model_transformedTokens/depth3_ffnAdd/policy-model_transformedTokens/depth3_ffnAdd",0,0,{}],["policy-model_contextTokenMask4",0,0,{}]]]},{"name":"policy-model_transformedTokens/depth4_residual","class_name":"Add","config":{"name":"policy-model_transformedTokens/depth4_residual","trainable":true},"inbound_nodes":[[["policy-model_transformedTokens/depth3_ffnAdd",0,0,{}],["policy-model_transformedTokens/depth4_MultiHeadAttentionLayer",0,0,{}]]]},{"name":"policy-model_transformedTokens/depth4_ln2","class_name":"RMSNormLayer","config":{"name":"policy-model_transformedTokens/depth4_ln2","trainable":true,"axis":-1,"epsilon":0.000001,"scale":true},"inbound_nodes":[[["policy-model_transformedTokens/depth4_residual",0,0,{}]]]},{"name":"policy-model_transformedTokens/depth4_ffn1","class_name":"Dense","config":{"units":64,"activation":"relu","use_bias":false,"kernel_initializer":{"class_name":"VarianceScaling","config":{"scale":1,"mode":"fan_avg","distribution":"normal","seed":null}},"bias_initializer":{"class_name":"Zeros","config":{}},"kernel_regularizer":null,"bias_regularizer":null,"activity_regularizer":null,"kernel_constraint":null,"bias_constraint":null,"name":"policy-model_transformedTokens/depth4_ffn1","trainable":true},"inbound_nodes":[[["policy-model_transformedTokens/depth4_ln2",0,0,{}]]]},{"name":"policy-model_transformedTokens/depth4_ffn2","class_name":"Dense","config":{"units":16,"activation":"linear","use_bias":false,"kernel_initializer":{"class_name":"VarianceScaling","config":{"scale":1,"mode":"fan_avg","distribution":"normal","seed":null}},"bias_initializer":{"class_name":"Zeros","config":{}},"kernel_regularizer":null,"bias_regularizer":null,"activity_regularizer":null,"kernel_constraint":null,"bias_constraint":null,"name":"policy-model_transformedTokens/depth4_ffn2","trainable":true},"inbound_nodes":[[["policy-model_transformedTokens/depth4_ffn1",0,0,{}]]]},{"name":"policy-model_transformedTokens/depth4_ffnAdd","class_name":"Add","config":{"name":"policy-model_transformedTokens/depth4_ffnAdd","trainable":true},"inbound_nodes":[[["policy-model_transformedTokens/depth4_residual",0,0,{}],["policy-model_transformedTokens/depth4_ffn2",0,0,{}]]]},{"name":"policy-model_transformedTokens/depth5_QNorm_policy-model_transformedTokens/depth4_ffnAdd/policy-model_transformedTokens/depth4_ffnAdd","class_name":"RMSNormLayer","config":{"name":"policy-model_transformedTokens/depth5_QNorm_policy-model_transformedTokens/depth4_ffnAdd/policy-model_transformedTokens/depth4_ffnAdd","trainable":true,"axis":-1,"epsilon":0.000001,"scale":true},"inbound_nodes":[[["policy-model_transformedTokens/depth4_ffnAdd",0,0,{}]]]},{"name":"policy-model_contextTokenMask5","class_name":"Concatenate","config":{"axis":1,"name":"policy-model_contextTokenMask5","trainable":true},"inbound_nodes":[[["policy-model_maskLike",5,0,{}],["policy-model_maskLike",5,0,{}],["policy-model_alliesMaskInput",0,0,{}],["policy-model_enemiesMaskInput",0,0,{}],["policy-model_maskSquash",5,0,{}]]]},{"name":"policy-model_transformedTokens/depth5_KVNorm_policy-model_transformedTokens/depth4_ffnAdd/policy-model_transformedTokens/depth4_ffnAdd","class_name":"RMSNormLayer","config":{"name":"policy-model_transformedTokens/depth5_KVNorm_policy-model_transformedTokens/depth4_ffnAdd/policy-model_transformedTokens/depth4_ffnAdd","trainable":true,"axis":-1,"epsilon":0.000001,"scale":true},"inbound_nodes":[[["policy-model_transformedTokens/depth4_ffnAdd",0,0,{}]]]},{"name":"policy-model_transformedTokens/depth5_MultiHeadAttentionLayer","class_name":"MultiHeadAttention","config":{"name":"policy-model_transformedTokens/depth5_MultiHeadAttentionLayer","trainable":true,"key_dim":16,"num_heads":1},"inbound_nodes":[[["policy-model_transformedTokens/depth5_QNorm_policy-model_transformedTokens/depth4_ffnAdd/policy-model_transformedTokens/depth4_ffnAdd",0,0,{}],["policy-model_contextTokenMask5",0,0,{}],["policy-model_transformedTokens/depth5_KVNorm_policy-model_transformedTokens/depth4_ffnAdd/policy-model_transformedTokens/depth4_ffnAdd",0,0,{}],["policy-model_contextTokenMask5",0,0,{}]]]},{"name":"policy-model_transformedTokens/depth5_residual","class_name":"Add","config":{"name":"policy-model_transformedTokens/depth5_residual","trainable":true},"inbound_nodes":[[["policy-model_transformedTokens/depth4_ffnAdd",0,0,{}],["policy-model_transformedTokens/depth5_MultiHeadAttentionLayer",0,0,{}]]]},{"name":"policy-model_transformedTokens/depth5_ln2","class_name":"RMSNormLayer","config":{"name":"policy-model_transformedTokens/depth5_ln2","trainable":true,"axis":-1,"epsilon":0.000001,"scale":true},"inbound_nodes":[[["policy-model_transformedTokens/depth5_residual",0,0,{}]]]},{"name":"policy-model_transformedTokens/depth5_ffn1","class_name":"Dense","config":{"units":64,"activation":"relu","use_bias":false,"kernel_initializer":{"class_name":"VarianceScaling","config":{"scale":1,"mode":"fan_avg","distribution":"normal","seed":null}},"bias_initializer":{"class_name":"Zeros","config":{}},"kernel_regularizer":null,"bias_regularizer":null,"activity_regularizer":null,"kernel_constraint":null,"bias_constraint":null,"name":"policy-model_transformedTokens/depth5_ffn1","trainable":true},"inbound_nodes":[[["policy-model_transformedTokens/depth5_ln2",0,0,{}]]]},{"name":"policy-model_transformedTokens/depth5_ffn2","class_name":"Dense","config":{"units":16,"activation":"linear","use_bias":false,"kernel_initializer":{"class_name":"VarianceScaling","config":{"scale":1,"mode":"fan_avg","distribution":"normal","seed":null}},"bias_initializer":{"class_name":"Zeros","config":{}},"kernel_regularizer":null,"bias_regularizer":null,"activity_regularizer":null,"kernel_constraint":null,"bias_constraint":null,"name":"policy-model_transformedTokens/depth5_ffn2","trainable":true},"inbound_nodes":[[["policy-model_transformedTokens/depth5_ffn1",0,0,{}]]]},{"name":"policy-model_transformedTokens/depth5_ffnAdd","class_name":"Add","config":{"name":"policy-model_transformedTokens/depth5_ffnAdd","trainable":true},"inbound_nodes":[[["policy-model_transformedTokens/depth5_residual",0,0,{}],["policy-model_transformedTokens/depth5_ffn2",0,0,{}]]]},{"name":"policy-model_transformedTokens/depth6_QNorm_policy-model_transformedTokens/depth5_ffnAdd/policy-model_transformedTokens/depth5_ffnAdd","class_name":"RMSNormLayer","config":{"name":"policy-model_transformedTokens/depth6_QNorm_policy-model_transformedTokens/depth5_ffnAdd/policy-model_transformedTokens/depth5_ffnAdd","trainable":true,"axis":-1,"epsilon":0.000001,"scale":true},"inbound_nodes":[[["policy-model_transformedTokens/depth5_ffnAdd",0,0,{}]]]},{"name":"policy-model_contextTokenMask6","class_name":"Concatenate","config":{"axis":1,"name":"policy-model_contextTokenMask6","trainable":true},"inbound_nodes":[[["policy-model_maskLike",6,0,{}],["policy-model_maskLike",6,0,{}],["policy-model_alliesMaskInput",0,0,{}],["policy-model_enemiesMaskInput",0,0,{}],["policy-model_maskSquash",6,0,{}]]]},{"name":"policy-model_transformedTokens/depth6_KVNorm_policy-model_transformedTokens/depth5_ffnAdd/policy-model_transformedTokens/depth5_ffnAdd","class_name":"RMSNormLayer","config":{"name":"policy-model_transformedTokens/depth6_KVNorm_policy-model_transformedTokens/depth5_ffnAdd/policy-model_transformedTokens/depth5_ffnAdd","trainable":true,"axis":-1,"epsilon":0.000001,"scale":true},"inbound_nodes":[[["policy-model_transformedTokens/depth5_ffnAdd",0,0,{}]]]},{"name":"policy-model_transformedTokens/depth6_MultiHeadAttentionLayer","class_name":"MultiHeadAttention","config":{"name":"policy-model_transformedTokens/depth6_MultiHeadAttentionLayer","trainable":true,"key_dim":16,"num_heads":1},"inbound_nodes":[[["policy-model_transformedTokens/depth6_QNorm_policy-model_transformedTokens/depth5_ffnAdd/policy-model_transformedTokens/depth5_ffnAdd",0,0,{}],["policy-model_contextTokenMask6",0,0,{}],["policy-model_transformedTokens/depth6_KVNorm_policy-model_transformedTokens/depth5_ffnAdd/policy-model_transformedTokens/depth5_ffnAdd",0,0,{}],["policy-model_contextTokenMask6",0,0,{}]]]},{"name":"policy-model_transformedTokens/depth6_residual","class_name":"Add","config":{"name":"policy-model_transformedTokens/depth6_residual","trainable":true},"inbound_nodes":[[["policy-model_transformedTokens/depth5_ffnAdd",0,0,{}],["policy-model_transformedTokens/depth6_MultiHeadAttentionLayer",0,0,{}]]]},{"name":"policy-model_transformedTokens/depth6_ln2","class_name":"RMSNormLayer","config":{"name":"policy-model_transformedTokens/depth6_ln2","trainable":true,"axis":-1,"epsilon":0.000001,"scale":true},"inbound_nodes":[[["policy-model_transformedTokens/depth6_residual",0,0,{}]]]},{"name":"policy-model_transformedTokens/depth6_ffn1","class_name":"Dense","config":{"units":64,"activation":"relu","use_bias":false,"kernel_initializer":{"class_name":"VarianceScaling","config":{"scale":1,"mode":"fan_avg","distribution":"normal","seed":null}},"bias_initializer":{"class_name":"Zeros","config":{}},"kernel_regularizer":null,"bias_regularizer":null,"activity_regularizer":null,"kernel_constraint":null,"bias_constraint":null,"name":"policy-model_transformedTokens/depth6_ffn1","trainable":true},"inbound_nodes":[[["policy-model_transformedTokens/depth6_ln2",0,0,{}]]]},{"name":"policy-model_transformedTokens/depth6_ffn2","class_name":"Dense","config":{"units":16,"activation":"linear","use_bias":false,"kernel_initializer":{"class_name":"VarianceScaling","config":{"scale":1,"mode":"fan_avg","distribution":"normal","seed":null}},"bias_initializer":{"class_name":"Zeros","config":{}},"kernel_regularizer":null,"bias_regularizer":null,"activity_regularizer":null,"kernel_constraint":null,"bias_constraint":null,"name":"policy-model_transformedTokens/depth6_ffn2","trainable":true},"inbound_nodes":[[["policy-model_transformedTokens/depth6_ffn1",0,0,{}]]]},{"name":"policy-model_transformedTokens/depth6_ffnAdd","class_name":"Add","config":{"name":"policy-model_transformedTokens/depth6_ffnAdd","trainable":true},"inbound_nodes":[[["policy-model_transformedTokens/depth6_residual",0,0,{}],["policy-model_transformedTokens/depth6_ffn2",0,0,{}]]]},{"name":"policy-model_transformedTokens/depth7_QNorm_policy-model_transformedTokens/depth6_ffnAdd/policy-model_transformedTokens/depth6_ffnAdd","class_name":"RMSNormLayer","config":{"name":"policy-model_transformedTokens/depth7_QNorm_policy-model_transformedTokens/depth6_ffnAdd/policy-model_transformedTokens/depth6_ffnAdd","trainable":true,"axis":-1,"epsilon":0.000001,"scale":true},"inbound_nodes":[[["policy-model_transformedTokens/depth6_ffnAdd",0,0,{}]]]},{"name":"policy-model_contextTokenMask7","class_name":"Concatenate","config":{"axis":1,"name":"policy-model_contextTokenMask7","trainable":true},"inbound_nodes":[[["policy-model_maskLike",7,0,{}],["policy-model_maskLike",7,0,{}],["policy-model_alliesMaskInput",0,0,{}],["policy-model_enemiesMaskInput",0,0,{}],["policy-model_maskSquash",7,0,{}]]]},{"name":"policy-model_transformedTokens/depth7_KVNorm_policy-model_transformedTokens/depth6_ffnAdd/policy-model_transformedTokens/depth6_ffnAdd","class_name":"RMSNormLayer","config":{"name":"policy-model_transformedTokens/depth7_KVNorm_policy-model_transformedTokens/depth6_ffnAdd/policy-model_transformedTokens/depth6_ffnAdd","trainable":true,"axis":-1,"epsilon":0.000001,"scale":true},"inbound_nodes":[[["policy-model_transformedTokens/depth6_ffnAdd",0,0,{}]]]},{"name":"policy-model_transformedTokens/depth7_MultiHeadAttentionLayer","class_name":"MultiHeadAttention","config":{"name":"policy-model_transformedTokens/depth7_MultiHeadAttentionLayer","trainable":true,"key_dim":16,"num_heads":1},"inbound_nodes":[[["policy-model_transformedTokens/depth7_QNorm_policy-model_transformedTokens/depth6_ffnAdd/policy-model_transformedTokens/depth6_ffnAdd",0,0,{}],["policy-model_contextTokenMask7",0,0,{}],["policy-model_transformedTokens/depth7_KVNorm_policy-model_transformedTokens/depth6_ffnAdd/policy-model_transformedTokens/depth6_ffnAdd",0,0,{}],["policy-model_contextTokenMask7",0,0,{}]]]},{"name":"policy-model_transformedTokens/depth7_residual","class_name":"Add","config":{"name":"policy-model_transformedTokens/depth7_residual","trainable":true},"inbound_nodes":[[["policy-model_transformedTokens/depth6_ffnAdd",0,0,{}],["policy-model_transformedTokens/depth7_MultiHeadAttentionLayer",0,0,{}]]]},{"name":"policy-model_transformedTokens/depth7_ln2","class_name":"RMSNormLayer","config":{"name":"policy-model_transformedTokens/depth7_ln2","trainable":true,"axis":-1,"epsilon":0.000001,"scale":true},"inbound_nodes":[[["policy-model_transformedTokens/depth7_residual",0,0,{}]]]},{"name":"policy-model_transformedTokens/depth7_ffn1","class_name":"Dense","config":{"units":64,"activation":"relu","use_bias":false,"kernel_initializer":{"class_name":"VarianceScaling","config":{"scale":1,"mode":"fan_avg","distribution":"normal","seed":null}},"bias_initializer":{"class_name":"Zeros","config":{}},"kernel_regularizer":null,"bias_regularizer":null,"activity_regularizer":null,"kernel_constraint":null,"bias_constraint":null,"name":"policy-model_transformedTokens/depth7_ffn1","trainable":true},"inbound_nodes":[[["policy-model_transformedTokens/depth7_ln2",0,0,{}]]]},{"name":"policy-model_transformedTokens/depth7_ffn2","class_name":"Dense","config":{"units":16,"activation":"linear","use_bias":false,"kernel_initializer":{"class_name":"VarianceScaling","config":{"scale":1,"mode":"fan_avg","distribution":"normal","seed":null}},"bias_initializer":{"class_name":"Zeros","config":{}},"kernel_regularizer":null,"bias_regularizer":null,"activity_regularizer":null,"kernel_constraint":null,"bias_constraint":null,"name":"policy-model_transformedTokens/depth7_ffn2","trainable":true},"inbound_nodes":[[["policy-model_transformedTokens/depth7_ffn1",0,0,{}]]]},{"name":"policy-model_transformedTokens/depth7_ffnAdd","class_name":"Add","config":{"name":"policy-model_transformedTokens/depth7_ffnAdd","trainable":true},"inbound_nodes":[[["policy-model_transformedTokens/depth7_residual",0,0,{}],["policy-model_transformedTokens/depth7_ffn2",0,0,{}]]]},{"name":"policy-model_transformedTokens/depth8_QNorm_policy-model_transformedTokens/depth7_ffnAdd/policy-model_transformedTokens/depth7_ffnAdd","class_name":"RMSNormLayer","config":{"name":"policy-model_transformedTokens/depth8_QNorm_policy-model_transformedTokens/depth7_ffnAdd/policy-model_transformedTokens/depth7_ffnAdd","trainable":true,"axis":-1,"epsilon":0.000001,"scale":true},"inbound_nodes":[[["policy-model_transformedTokens/depth7_ffnAdd",0,0,{}]]]},{"name":"policy-model_contextTokenMask8","class_name":"Concatenate","config":{"axis":1,"name":"policy-model_contextTokenMask8","trainable":true},"inbound_nodes":[[["policy-model_maskLike",8,0,{}],["policy-model_maskLike",8,0,{}],["policy-model_alliesMaskInput",0,0,{}],["policy-model_enemiesMaskInput",0,0,{}],["policy-model_maskSquash",8,0,{}]]]},{"name":"policy-model_transformedTokens/depth8_KVNorm_policy-model_transformedTokens/depth7_ffnAdd/policy-model_transformedTokens/depth7_ffnAdd","class_name":"RMSNormLayer","config":{"name":"policy-model_transformedTokens/depth8_KVNorm_policy-model_transformedTokens/depth7_ffnAdd/policy-model_transformedTokens/depth7_ffnAdd","trainable":true,"axis":-1,"epsilon":0.000001,"scale":true},"inbound_nodes":[[["policy-model_transformedTokens/depth7_ffnAdd",0,0,{}]]]},{"name":"policy-model_transformedTokens/depth8_MultiHeadAttentionLayer","class_name":"MultiHeadAttention","config":{"name":"policy-model_transformedTokens/depth8_MultiHeadAttentionLayer","trainable":true,"key_dim":16,"num_heads":1},"inbound_nodes":[[["policy-model_transformedTokens/depth8_QNorm_policy-model_transformedTokens/depth7_ffnAdd/policy-model_transformedTokens/depth7_ffnAdd",0,0,{}],["policy-model_contextTokenMask8",0,0,{}],["policy-model_transformedTokens/depth8_KVNorm_policy-model_transformedTokens/depth7_ffnAdd/policy-model_transformedTokens/depth7_ffnAdd",0,0,{}],["policy-model_contextTokenMask8",0,0,{}]]]},{"name":"policy-model_transformedTokens/depth8_residual","class_name":"Add","config":{"name":"policy-model_transformedTokens/depth8_residual","trainable":true},"inbound_nodes":[[["policy-model_transformedTokens/depth7_ffnAdd",0,0,{}],["policy-model_transformedTokens/depth8_MultiHeadAttentionLayer",0,0,{}]]]},{"name":"policy-model_transformedTokens/depth8_ln2","class_name":"RMSNormLayer","config":{"name":"policy-model_transformedTokens/depth8_ln2","trainable":true,"axis":-1,"epsilon":0.000001,"scale":true},"inbound_nodes":[[["policy-model_transformedTokens/depth8_residual",0,0,{}]]]},{"name":"policy-model_transformedTokens/depth8_ffn1","class_name":"Dense","config":{"units":64,"activation":"relu","use_bias":false,"kernel_initializer":{"class_name":"VarianceScaling","config":{"scale":1,"mode":"fan_avg","distribution":"normal","seed":null}},"bias_initializer":{"class_name":"Zeros","config":{}},"kernel_regularizer":null,"bias_regularizer":null,"activity_regularizer":null,"kernel_constraint":null,"bias_constraint":null,"name":"policy-model_transformedTokens/depth8_ffn1","trainable":true},"inbound_nodes":[[["policy-model_transformedTokens/depth8_ln2",0,0,{}]]]},{"name":"policy-model_transformedTokens/depth8_ffn2","class_name":"Dense","config":{"units":16,"activation":"linear","use_bias":false,"kernel_initializer":{"class_name":"VarianceScaling","config":{"scale":1,"mode":"fan_avg","distribution":"normal","seed":null}},"bias_initializer":{"class_name":"Zeros","config":{}},"kernel_regularizer":null,"bias_regularizer":null,"activity_regularizer":null,"kernel_constraint":null,"bias_constraint":null,"name":"policy-model_transformedTokens/depth8_ffn2","trainable":true},"inbound_nodes":[[["policy-model_transformedTokens/depth8_ffn1",0,0,{}]]]},{"name":"policy-model_transformedTokens/depth8_ffnAdd","class_name":"Add","config":{"name":"policy-model_transformedTokens/depth8_ffnAdd","trainable":true},"inbound_nodes":[[["policy-model_transformedTokens/depth8_residual",0,0,{}],["policy-model_transformedTokens/depth8_ffn2",0,0,{}]]]},{"name":"policy-model_transformedTokens/depth9_QNorm_policy-model_transformedTokens/depth8_ffnAdd/policy-model_transformedTokens/depth8_ffnAdd","class_name":"RMSNormLayer","config":{"name":"policy-model_transformedTokens/depth9_QNorm_policy-model_transformedTokens/depth8_ffnAdd/policy-model_transformedTokens/depth8_ffnAdd","trainable":true,"axis":-1,"epsilon":0.000001,"scale":true},"inbound_nodes":[[["policy-model_transformedTokens/depth8_ffnAdd",0,0,{}]]]},{"name":"policy-model_contextTokenMask9","class_name":"Concatenate","config":{"axis":1,"name":"policy-model_contextTokenMask9","trainable":true},"inbound_nodes":[[["policy-model_maskLike",9,0,{}],["policy-model_maskLike",9,0,{}],["policy-model_alliesMaskInput",0,0,{}],["policy-model_enemiesMaskInput",0,0,{}],["policy-model_maskSquash",9,0,{}]]]},{"name":"policy-model_transformedTokens/depth9_KVNorm_policy-model_transformedTokens/depth8_ffnAdd/policy-model_transformedTokens/depth8_ffnAdd","class_name":"RMSNormLayer","config":{"name":"policy-model_transformedTokens/depth9_KVNorm_policy-model_transformedTokens/depth8_ffnAdd/policy-model_transformedTokens/depth8_ffnAdd","trainable":true,"axis":-1,"epsilon":0.000001,"scale":true},"inbound_nodes":[[["policy-model_transformedTokens/depth8_ffnAdd",0,0,{}]]]},{"name":"policy-model_transformedTokens/depth9_MultiHeadAttentionLayer","class_name":"MultiHeadAttention","config":{"name":"policy-model_transformedTokens/depth9_MultiHeadAttentionLayer","trainable":true,"key_dim":16,"num_heads":1},"inbound_nodes":[[["policy-model_transformedTokens/depth9_QNorm_policy-model_transformedTokens/depth8_ffnAdd/policy-model_transformedTokens/depth8_ffnAdd",0,0,{}],["policy-model_contextTokenMask9",0,0,{}],["policy-model_transformedTokens/depth9_KVNorm_policy-model_transformedTokens/depth8_ffnAdd/policy-model_transformedTokens/depth8_ffnAdd",0,0,{}],["policy-model_contextTokenMask9",0,0,{}]]]},{"name":"policy-model_transformedTokens/depth9_residual","class_name":"Add","config":{"name":"policy-model_transformedTokens/depth9_residual","trainable":true},"inbound_nodes":[[["policy-model_transformedTokens/depth8_ffnAdd",0,0,{}],["policy-model_transformedTokens/depth9_MultiHeadAttentionLayer",0,0,{}]]]},{"name":"policy-model_transformedTokens/depth9_ln2","class_name":"RMSNormLayer","config":{"name":"policy-model_transformedTokens/depth9_ln2","trainable":true,"axis":-1,"epsilon":0.000001,"scale":true},"inbound_nodes":[[["policy-model_transformedTokens/depth9_residual",0,0,{}]]]},{"name":"policy-model_transformedTokens/depth9_ffn1","class_name":"Dense","config":{"units":64,"activation":"relu","use_bias":false,"kernel_initializer":{"class_name":"VarianceScaling","config":{"scale":1,"mode":"fan_avg","distribution":"normal","seed":null}},"bias_initializer":{"class_name":"Zeros","config":{}},"kernel_regularizer":null,"bias_regularizer":null,"activity_regularizer":null,"kernel_constraint":null,"bias_constraint":null,"name":"policy-model_transformedTokens/depth9_ffn1","trainable":true},"inbound_nodes":[[["policy-model_transformedTokens/depth9_ln2",0,0,{}]]]},{"name":"policy-model_transformedTokens/depth9_ffn2","class_name":"Dense","config":{"units":16,"activation":"linear","use_bias":false,"kernel_initializer":{"class_name":"VarianceScaling","config":{"scale":1,"mode":"fan_avg","distribution":"normal","seed":null}},"bias_initializer":{"class_name":"Zeros","config":{}},"kernel_regularizer":null,"bias_regularizer":null,"activity_regularizer":null,"kernel_constraint":null,"bias_constraint":null,"name":"policy-model_transformedTokens/depth9_ffn2","trainable":true},"inbound_nodes":[[["policy-model_transformedTokens/depth9_ffn1",0,0,{}]]]},{"name":"policy-model_transformedTokens/depth9_ffnAdd","class_name":"Add","config":{"name":"policy-model_transformedTokens/depth9_ffnAdd","trainable":true},"inbound_nodes":[[["policy-model_transformedTokens/depth9_residual",0,0,{}],["policy-model_transformedTokens/depth9_ffn2",0,0,{}]]]},{"name":"policy-model_transformedTokens/depth10_QNorm_policy-model_transformedTokens/depth9_ffnAdd/policy-model_transformedTokens/depth9_ffnAdd","class_name":"RMSNormLayer","config":{"name":"policy-model_transformedTokens/depth10_QNorm_policy-model_transformedTokens/depth9_ffnAdd/policy-model_transformedTokens/depth9_ffnAdd","trainable":true,"axis":-1,"epsilon":0.000001,"scale":true},"inbound_nodes":[[["policy-model_transformedTokens/depth9_ffnAdd",0,0,{}]]]},{"name":"policy-model_contextTokenMask10","class_name":"Concatenate","config":{"axis":1,"name":"policy-model_contextTokenMask10","trainable":true},"inbound_nodes":[[["policy-model_maskLike",10,0,{}],["policy-model_maskLike",10,0,{}],["policy-model_alliesMaskInput",0,0,{}],["policy-model_enemiesMaskInput",0,0,{}],["policy-model_maskSquash",10,0,{}]]]},{"name":"policy-model_transformedTokens/depth10_KVNorm_policy-model_transformedTokens/depth9_ffnAdd/policy-model_transformedTokens/depth9_ffnAdd","class_name":"RMSNormLayer","config":{"name":"policy-model_transformedTokens/depth10_KVNorm_policy-model_transformedTokens/depth9_ffnAdd/policy-model_transformedTokens/depth9_ffnAdd","trainable":true,"axis":-1,"epsilon":0.000001,"scale":true},"inbound_nodes":[[["policy-model_transformedTokens/depth9_ffnAdd",0,0,{}]]]},{"name":"policy-model_transformedTokens/depth10_MultiHeadAttentionLayer","class_name":"MultiHeadAttention","config":{"name":"policy-model_transformedTokens/depth10_MultiHeadAttentionLayer","trainable":true,"key_dim":16,"num_heads":1},"inbound_nodes":[[["policy-model_transformedTokens/depth10_QNorm_policy-model_transformedTokens/depth9_ffnAdd/policy-model_transformedTokens/depth9_ffnAdd",0,0,{}],["policy-model_contextTokenMask10",0,0,{}],["policy-model_transformedTokens/depth10_KVNorm_policy-model_transformedTokens/depth9_ffnAdd/policy-model_transformedTokens/depth9_ffnAdd",0,0,{}],["policy-model_contextTokenMask10",0,0,{}]]]},{"name":"policy-model_transformedTokens/depth10_residual","class_name":"Add","config":{"name":"policy-model_transformedTokens/depth10_residual","trainable":true},"inbound_nodes":[[["policy-model_transformedTokens/depth9_ffnAdd",0,0,{}],["policy-model_transformedTokens/depth10_MultiHeadAttentionLayer",0,0,{}]]]},{"name":"policy-model_transformedTokens/depth10_ln2","class_name":"RMSNormLayer","config":{"name":"policy-model_transformedTokens/depth10_ln2","trainable":true,"axis":-1,"epsilon":0.000001,"scale":true},"inbound_nodes":[[["policy-model_transformedTokens/depth10_residual",0,0,{}]]]},{"name":"policy-model_transformedTokens/depth10_ffn1","class_name":"Dense","config":{"units":64,"activation":"relu","use_bias":false,"kernel_initializer":{"class_name":"VarianceScaling","config":{"scale":1,"mode":"fan_avg","distribution":"normal","seed":null}},"bias_initializer":{"class_name":"Zeros","config":{}},"kernel_regularizer":null,"bias_regularizer":null,"activity_regularizer":null,"kernel_constraint":null,"bias_constraint":null,"name":"policy-model_transformedTokens/depth10_ffn1","trainable":true},"inbound_nodes":[[["policy-model_transformedTokens/depth10_ln2",0,0,{}]]]},{"name":"policy-model_transformedTokens/depth10_ffn2","class_name":"Dense","config":{"units":16,"activation":"linear","use_bias":false,"kernel_initializer":{"class_name":"VarianceScaling","config":{"scale":1,"mode":"fan_avg","distribution":"normal","seed":null}},"bias_initializer":{"class_name":"Zeros","config":{}},"kernel_regularizer":null,"bias_regularizer":null,"activity_regularizer":null,"kernel_constraint":null,"bias_constraint":null,"name":"policy-model_transformedTokens/depth10_ffn2","trainable":true},"inbound_nodes":[[["policy-model_transformedTokens/depth10_ffn1",0,0,{}]]]},{"name":"policy-model_transformedTokens/depth10_ffnAdd","class_name":"Add","config":{"name":"policy-model_transformedTokens/depth10_ffnAdd","trainable":true},"inbound_nodes":[[["policy-model_transformedTokens/depth10_residual",0,0,{}],["policy-model_transformedTokens/depth10_ffn2",0,0,{}]]]},{"name":"policy-model_transformedTokens/depth11_QNorm_policy-model_transformedTokens/depth10_ffnAdd/policy-model_transformedTokens/depth10_ffnAdd","class_name":"RMSNormLayer","config":{"name":"policy-model_transformedTokens/depth11_QNorm_policy-model_transformedTokens/depth10_ffnAdd/policy-model_transformedTokens/depth10_ffnAdd","trainable":true,"axis":-1,"epsilon":0.000001,"scale":true},"inbound_nodes":[[["policy-model_transformedTokens/depth10_ffnAdd",0,0,{}]]]},{"name":"policy-model_contextTokenMask11","class_name":"Concatenate","config":{"axis":1,"name":"policy-model_contextTokenMask11","trainable":true},"inbound_nodes":[[["policy-model_maskLike",11,0,{}],["policy-model_maskLike",11,0,{}],["policy-model_alliesMaskInput",0,0,{}],["policy-model_enemiesMaskInput",0,0,{}],["policy-model_maskSquash",11,0,{}]]]},{"name":"policy-model_transformedTokens/depth11_KVNorm_policy-model_transformedTokens/depth10_ffnAdd/policy-model_transformedTokens/depth10_ffnAdd","class_name":"RMSNormLayer","config":{"name":"policy-model_transformedTokens/depth11_KVNorm_policy-model_transformedTokens/depth10_ffnAdd/policy-model_transformedTokens/depth10_ffnAdd","trainable":true,"axis":-1,"epsilon":0.000001,"scale":true},"inbound_nodes":[[["policy-model_transformedTokens/depth10_ffnAdd",0,0,{}]]]},{"name":"policy-model_transformedTokens/depth11_MultiHeadAttentionLayer","class_name":"MultiHeadAttention","config":{"name":"policy-model_transformedTokens/depth11_MultiHeadAttentionLayer","trainable":true,"key_dim":16,"num_heads":1},"inbound_nodes":[[["policy-model_transformedTokens/depth11_QNorm_policy-model_transformedTokens/depth10_ffnAdd/policy-model_transformedTokens/depth10_ffnAdd",0,0,{}],["policy-model_contextTokenMask11",0,0,{}],["policy-model_transformedTokens/depth11_KVNorm_policy-model_transformedTokens/depth10_ffnAdd/policy-model_transformedTokens/depth10_ffnAdd",0,0,{}],["policy-model_contextTokenMask11",0,0,{}]]]},{"name":"policy-model_transformedTokens/depth11_residual","class_name":"Add","config":{"name":"policy-model_transformedTokens/depth11_residual","trainable":true},"inbound_nodes":[[["policy-model_transformedTokens/depth10_ffnAdd",0,0,{}],["policy-model_transformedTokens/depth11_MultiHeadAttentionLayer",0,0,{}]]]},{"name":"policy-model_transformedTokens/depth11_ln2","class_name":"RMSNormLayer","config":{"name":"policy-model_transformedTokens/depth11_ln2","trainable":true,"axis":-1,"epsilon":0.000001,"scale":true},"inbound_nodes":[[["policy-model_transformedTokens/depth11_residual",0,0,{}]]]},{"name":"policy-model_transformedTokens/depth11_ffn1","class_name":"Dense","config":{"units":64,"activation":"relu","use_bias":false,"kernel_initializer":{"class_name":"VarianceScaling","config":{"scale":1,"mode":"fan_avg","distribution":"normal","seed":null}},"bias_initializer":{"class_name":"Zeros","config":{}},"kernel_regularizer":null,"bias_regularizer":null,"activity_regularizer":null,"kernel_constraint":null,"bias_constraint":null,"name":"policy-model_transformedTokens/depth11_ffn1","trainable":true},"inbound_nodes":[[["policy-model_transformedTokens/depth11_ln2",0,0,{}]]]},{"name":"policy-model_transformedTokens/depth11_ffn2","class_name":"Dense","config":{"units":16,"activation":"linear","use_bias":false,"kernel_initializer":{"class_name":"VarianceScaling","config":{"scale":1,"mode":"fan_avg","distribution":"normal","seed":null}},"bias_initializer":{"class_name":"Zeros","config":{}},"kernel_regularizer":null,"bias_regularizer":null,"activity_regularizer":null,"kernel_constraint":null,"bias_constraint":null,"name":"policy-model_transformedTokens/depth11_ffn2","trainable":true},"inbound_nodes":[[["policy-model_transformedTokens/depth11_ffn1",0,0,{}]]]},{"name":"policy-model_transformedTokens/depth11_ffnAdd","class_name":"Add","config":{"name":"policy-model_transformedTokens/depth11_ffnAdd","trainable":true},"inbound_nodes":[[["policy-model_transformedTokens/depth11_residual",0,0,{}],["policy-model_transformedTokens/depth11_ffn2",0,0,{}]]]},{"name":"policy-model_finalToken","class_name":"SliceLayer","config":{"name":"policy-model_finalToken","trainable":true,"begin_slice":[0,0,0],"slice_size":[-1,1,-1]},"inbound_nodes":[[["policy-model_transformedTokens/depth11_ffnAdd",0,0,{}]]]},{"name":"policy-model_finalToken_mut_","class_name":"Flatten","config":{"name":"policy-model_finalToken_mut_","trainable":true},"inbound_nodes":[[["policy-model_finalToken",0,0,{}]]]},{"name":"policy-model_head0/LaN_preNorm","class_name":"RMSNormLayer","config":{"name":"policy-model_head0/LaN_preNorm","trainable":true,"axis":-1,"epsilon":0.000001,"scale":true},"inbound_nodes":[[["policy-model_finalToken_mut_",0,0,{}]]]},{"name":"policy-model_head1/LaN_preNorm","class_name":"RMSNormLayer","config":{"name":"policy-model_head1/LaN_preNorm","trainable":true,"axis":-1,"epsilon":0.000001,"scale":true},"inbound_nodes":[[["policy-model_finalToken_mut_",0,0,{}]]]},{"name":"policy-model_head2/LaN_preNorm","class_name":"RMSNormLayer","config":{"name":"policy-model_head2/LaN_preNorm","trainable":true,"axis":-1,"epsilon":0.000001,"scale":true},"inbound_nodes":[[["policy-model_finalToken_mut_",0,0,{}]]]},{"name":"policy-model_head3/LaN_preNorm","class_name":"RMSNormLayer","config":{"name":"policy-model_head3/LaN_preNorm","trainable":true,"axis":-1,"epsilon":0.000001,"scale":true},"inbound_nodes":[[["policy-model_finalToken_mut_",0,0,{}]]]},{"name":"policy-model_head0/LaN_branch1","class_name":"NoisyDenseLayer","config":{"name":"policy-model_head0/LaN_branch1","trainable":true,"units":16,"activation":"tanh","use_bias":true,"sigma":0.5,"factorized":false,"colored_noise_config":{},"kernel_initializer":{"class_name":"VarianceScaling","config":{"scale":1,"mode":"fan_avg","distribution":"normal","seed":null}},"bias_initializer":{"class_name":"Zeros","config":{}}},"inbound_nodes":[[["policy-model_head0/LaN_preNorm",0,0,{}]]]},{"name":"policy-model_head0/LaN_branch2","class_name":"NoisyDenseLayer","config":{"name":"policy-model_head0/LaN_branch2","trainable":true,"units":16,"activation":"tanh","use_bias":true,"sigma":0.5,"factorized":false,"colored_noise_config":{},"kernel_initializer":{"class_name":"VarianceScaling","config":{"scale":1,"mode":"fan_avg","distribution":"normal","seed":null}},"bias_initializer":{"class_name":"Zeros","config":{}}},"inbound_nodes":[[["policy-model_head0/LaN_preNorm",0,0,{}]]]},{"name":"policy-model_head1/LaN_branch1","class_name":"NoisyDenseLayer","config":{"name":"policy-model_head1/LaN_branch1","trainable":true,"units":16,"activation":"tanh","use_bias":true,"sigma":0.5,"factorized":false,"colored_noise_config":{},"kernel_initializer":{"class_name":"VarianceScaling","config":{"scale":1,"mode":"fan_avg","distribution":"normal","seed":null}},"bias_initializer":{"class_name":"Zeros","config":{}}},"inbound_nodes":[[["policy-model_head1/LaN_preNorm",0,0,{}]]]},{"name":"policy-model_head1/LaN_branch2","class_name":"NoisyDenseLayer","config":{"name":"policy-model_head1/LaN_branch2","trainable":true,"units":16,"activation":"tanh","use_bias":true,"sigma":0.5,"factorized":false,"colored_noise_config":{},"kernel_initializer":{"class_name":"VarianceScaling","config":{"scale":1,"mode":"fan_avg","distribution":"normal","seed":null}},"bias_initializer":{"class_name":"Zeros","config":{}}},"inbound_nodes":[[["policy-model_head1/LaN_preNorm",0,0,{}]]]},{"name":"policy-model_head2/LaN_branch1","class_name":"NoisyDenseLayer","config":{"name":"policy-model_head2/LaN_branch1","trainable":true,"units":16,"activation":"tanh","use_bias":true,"sigma":0.5,"factorized":false,"colored_noise_config":{},"kernel_initializer":{"class_name":"VarianceScaling","config":{"scale":1,"mode":"fan_avg","distribution":"normal","seed":null}},"bias_initializer":{"class_name":"Zeros","config":{}}},"inbound_nodes":[[["policy-model_head2/LaN_preNorm",0,0,{}]]]},{"name":"policy-model_head2/LaN_branch2","class_name":"NoisyDenseLayer","config":{"name":"policy-model_head2/LaN_branch2","trainable":true,"units":16,"activation":"tanh","use_bias":true,"sigma":0.5,"factorized":false,"colored_noise_config":{},"kernel_initializer":{"class_name":"VarianceScaling","config":{"scale":1,"mode":"fan_avg","distribution":"normal","seed":null}},"bias_initializer":{"class_name":"Zeros","config":{}}},"inbound_nodes":[[["policy-model_head2/LaN_preNorm",0,0,{}]]]},{"name":"policy-model_head3/LaN_branch1","class_name":"NoisyDenseLayer","config":{"name":"policy-model_head3/LaN_branch1","trainable":true,"units":16,"activation":"tanh","use_bias":true,"sigma":0.5,"factorized":false,"colored_noise_config":{},"kernel_initializer":{"class_name":"VarianceScaling","config":{"scale":1,"mode":"fan_avg","distribution":"normal","seed":null}},"bias_initializer":{"class_name":"Zeros","config":{}}},"inbound_nodes":[[["policy-model_head3/LaN_preNorm",0,0,{}]]]},{"name":"policy-model_head3/LaN_branch2","class_name":"NoisyDenseLayer","config":{"name":"policy-model_head3/LaN_branch2","trainable":true,"units":16,"activation":"tanh","use_bias":true,"sigma":0.5,"factorized":false,"colored_noise_config":{},"kernel_initializer":{"class_name":"VarianceScaling","config":{"scale":1,"mode":"fan_avg","distribution":"normal","seed":null}},"bias_initializer":{"class_name":"Zeros","config":{}}},"inbound_nodes":[[["policy-model_head3/LaN_preNorm",0,0,{}]]]},{"name":"policy-model_head0/LaN_output","class_name":"Multiply","config":{"name":"policy-model_head0/LaN_output","trainable":true},"inbound_nodes":[[["policy-model_head0/LaN_branch1",0,0,{}],["policy-model_head0/LaN_branch2",0,0,{}]]]},{"name":"policy-model_head1/LaN_output","class_name":"Multiply","config":{"name":"policy-model_head1/LaN_output","trainable":true},"inbound_nodes":[[["policy-model_head1/LaN_branch1",0,0,{}],["policy-model_head1/LaN_branch2",0,0,{}]]]},{"name":"policy-model_head2/LaN_output","class_name":"Multiply","config":{"name":"policy-model_head2/LaN_output","trainable":true},"inbound_nodes":[[["policy-model_head2/LaN_branch1",0,0,{}],["policy-model_head2/LaN_branch2",0,0,{}]]]},{"name":"policy-model_head3/LaN_output","class_name":"Multiply","config":{"name":"policy-model_head3/LaN_output","trainable":true},"inbound_nodes":[[["policy-model_head3/LaN_branch1",0,0,{}],["policy-model_head3/LaN_branch2",0,0,{}]]]},{"name":"policy-model_head_logits_0","class_name":"Dense","config":{"units":15,"activation":"linear","use_bias":true,"kernel_initializer":{"class_name":"RandomUniform","config":{"minval":-0.03,"maxval":0.03,"seed":null}},"bias_initializer":{"class_name":"Zeros","config":{}},"kernel_regularizer":null,"bias_regularizer":null,"activity_regularizer":null,"kernel_constraint":null,"bias_constraint":null,"name":"policy-model_head_logits_0","trainable":true},"inbound_nodes":[[["policy-model_head0/LaN_output",0,0,{}]]]},{"name":"policy-model_head_logits_1","class_name":"Dense","config":{"units":15,"activation":"linear","use_bias":true,"kernel_initializer":{"class_name":"RandomUniform","config":{"minval":-0.03,"maxval":0.03,"seed":null}},"bias_initializer":{"class_name":"Zeros","config":{}},"kernel_regularizer":null,"bias_regularizer":null,"activity_regularizer":null,"kernel_constraint":null,"bias_constraint":null,"name":"policy-model_head_logits_1","trainable":true},"inbound_nodes":[[["policy-model_head1/LaN_output",0,0,{}]]]},{"name":"policy-model_head_logits_2","class_name":"Dense","config":{"units":2,"activation":"linear","use_bias":true,"kernel_initializer":{"class_name":"RandomUniform","config":{"minval":-0.03,"maxval":0.03,"seed":null}},"bias_initializer":{"class_name":"Zeros","config":{}},"kernel_regularizer":null,"bias_regularizer":null,"activity_regularizer":null,"kernel_constraint":null,"bias_constraint":null,"name":"policy-model_head_logits_2","trainable":true},"inbound_nodes":[[["policy-model_head2/LaN_output",0,0,{}]]]},{"name":"policy-model_head_logits_3","class_name":"Dense","config":{"units":31,"activation":"linear","use_bias":true,"kernel_initializer":{"class_name":"RandomUniform","config":{"minval":-0.03,"maxval":0.03,"seed":null}},"bias_initializer":{"class_name":"Zeros","config":{}},"kernel_regularizer":null,"bias_regularizer":null,"activity_regularizer":null,"kernel_constraint":null,"bias_constraint":null,"name":"policy-model_head_logits_3","trainable":true},"inbound_nodes":[[["policy-model_head3/LaN_output",0,0,{}]]]}],"input_layers":[["policy-model_tankInput",0,0],["policy-model_enemiesInput",0,0],["policy-model_enemiesMaskInput",0,0],["policy-model_alliesInput",0,0],["policy-model_alliesMaskInput",0,0],["policy-model_bulletsInput",0,0],["policy-model_bulletsMaskInput",0,0]],"output_layers":[["policy-model_head_logits_0",0,0],["policy-model_head_logits_1",0,0],["policy-model_head_logits_2",0,0],["policy-model_head_logits_3",0,0]]},"keras_version":"tfjs-layers 4.22.0","backend":"tensor_flow.js"},"format":"layers-model","generatedBy":"TensorFlow.js tfjs-layers v4.22.0","convertedBy":null,"weightsManifest":[{"paths":["./policy-model.weights.bin"],"weights":[{"name":"policy-model_tankInput_tokProj/kernel","shape":[10,16],"dtype":"float32"},{"name":"policy-model_tankInput_tokProj/policy-model_tankInput_tokProj_typeEmbedding/variable","shape":[16],"dtype":"float32"},{"name":"policy-model_bulletsInput_tokProj/kernel","shape":[4,16],"dtype":"float32"},{"name":"policy-model_alliesInput_tokProj/kernel","shape":[10,16],"dtype":"float32"},{"name":"policy-model_enemiesInput_tokProj/kernel","shape":[10,16],"dtype":"float32"},{"name":"policy-model_clsBulletsToken/variable","shape":[1,16],"dtype":"float32"},{"name":"policy-model_alliesInput_tokProj/policy-model_alliesInput_tokProj_typeEmbedding/variable","shape":[16],"dtype":"float32"},{"name":"policy-model_enemiesInput_tokProj/policy-model_enemiesInput_tokProj_typeEmbedding/variable","shape":[16],"dtype":"float32"},{"name":"policy-model_clsToken/variable","shape":[1,16],"dtype":"float32"},{"name":"policy-model_clsBulletsAttention_MultiHeadAttentionLayer/wq","shape":[16,16],"dtype":"float32"},{"name":"policy-model_clsBulletsAttention_MultiHeadAttentionLayer/wk","shape":[16,16],"dtype":"float32"},{"name":"policy-model_clsBulletsAttention_MultiHeadAttentionLayer/wv","shape":[16,16],"dtype":"float32"},{"name":"policy-model_clsBulletsAttention_MultiHeadAttentionLayer/wo","shape":[16,16],"dtype":"float32"},{"name":"policy-model_transformedTokens/depth0_QNorm_policy-model_contextToken0/policy-model_contextToken0/scale","shape":[1,16],"dtype":"float32"},{"name":"policy-model_transformedTokens/depth0_KVNorm_policy-model_contextToken0/policy-model_contextToken0/scale","shape":[1,16],"dtype":"float32"},{"name":"policy-model_transformedTokens/depth0_MultiHeadAttentionLayer/wq","shape":[16,16],"dtype":"float32"},{"name":"policy-model_transformedTokens/depth0_MultiHeadAttentionLayer/wk","shape":[16,16],"dtype":"float32"},{"name":"policy-model_transformedTokens/depth0_MultiHeadAttentionLayer/wv","shape":[16,16],"dtype":"float32"},{"name":"policy-model_transformedTokens/depth0_MultiHeadAttentionLayer/wo","shape":[16,16],"dtype":"float32"},{"name":"policy-model_transformedTokens/depth0_ln2/scale","shape":[1,16],"dtype":"float32"},{"name":"policy-model_transformedTokens/depth0_ffn1/kernel","shape":[16,64],"dtype":"float32"},{"name":"policy-model_transformedTokens/depth0_ffn2/kernel","shape":[64,16],"dtype":"float32"},{"name":"policy-model_transformedTokens/depth1_QNorm_policy-model_transformedTokens/depth0_ffnAdd/policy-model_transformedTokens/depth0_ffnAdd/scale","shape":[1,16],"dtype":"float32"},{"name":"policy-model_transformedTokens/depth1_KVNorm_policy-model_transformedTokens/depth0_ffnAdd/policy-model_transformedTokens/depth0_ffnAdd/scale","shape":[1,16],"dtype":"float32"},{"name":"policy-model_transformedTokens/depth1_MultiHeadAttentionLayer/wq","shape":[16,16],"dtype":"float32"},{"name":"policy-model_transformedTokens/depth1_MultiHeadAttentionLayer/wk","shape":[16,16],"dtype":"float32"},{"name":"policy-model_transformedTokens/depth1_MultiHeadAttentionLayer/wv","shape":[16,16],"dtype":"float32"},{"name":"policy-model_transformedTokens/depth1_MultiHeadAttentionLayer/wo","shape":[16,16],"dtype":"float32"},{"name":"policy-model_transformedTokens/depth1_ln2/scale","shape":[1,16],"dtype":"float32"},{"name":"policy-model_transformedTokens/depth1_ffn1/kernel","shape":[16,64],"dtype":"float32"},{"name":"policy-model_transformedTokens/depth1_ffn2/kernel","shape":[64,16],"dtype":"float32"},{"name":"policy-model_transformedTokens/depth2_QNorm_policy-model_transformedTokens/depth1_ffnAdd/policy-model_transformedTokens/depth1_ffnAdd/scale","shape":[1,16],"dtype":"float32"},{"name":"policy-model_transformedTokens/depth2_KVNorm_policy-model_transformedTokens/depth1_ffnAdd/policy-model_transformedTokens/depth1_ffnAdd/scale","shape":[1,16],"dtype":"float32"},{"name":"policy-model_transformedTokens/depth2_MultiHeadAttentionLayer/wq","shape":[16,16],"dtype":"float32"},{"name":"policy-model_transformedTokens/depth2_MultiHeadAttentionLayer/wk","shape":[16,16],"dtype":"float32"},{"name":"policy-model_transformedTokens/depth2_MultiHeadAttentionLayer/wv","shape":[16,16],"dtype":"float32"},{"name":"policy-model_transformedTokens/depth2_MultiHeadAttentionLayer/wo","shape":[16,16],"dtype":"float32"},{"name":"policy-model_transformedTokens/depth2_ln2/scale","shape":[1,16],"dtype":"float32"},{"name":"policy-model_transformedTokens/depth2_ffn1/kernel","shape":[16,64],"dtype":"float32"},{"name":"policy-model_transformedTokens/depth2_ffn2/kernel","shape":[64,16],"dtype":"float32"},{"name":"policy-model_transformedTokens/depth3_QNorm_policy-model_transformedTokens/depth2_ffnAdd/policy-model_transformedTokens/depth2_ffnAdd/scale","shape":[1,16],"dtype":"float32"},{"name":"policy-model_transformedTokens/depth3_KVNorm_policy-model_transformedTokens/depth2_ffnAdd/policy-model_transformedTokens/depth2_ffnAdd/scale","shape":[1,16],"dtype":"float32"},{"name":"policy-model_transformedTokens/depth3_MultiHeadAttentionLayer/wq","shape":[16,16],"dtype":"float32"},{"name":"policy-model_transformedTokens/depth3_MultiHeadAttentionLayer/wk","shape":[16,16],"dtype":"float32"},{"name":"policy-model_transformedTokens/depth3_MultiHeadAttentionLayer/wv","shape":[16,16],"dtype":"float32"},{"name":"policy-model_transformedTokens/depth3_MultiHeadAttentionLayer/wo","shape":[16,16],"dtype":"float32"},{"name":"policy-model_transformedTokens/depth3_ln2/scale","shape":[1,16],"dtype":"float32"},{"name":"policy-model_transformedTokens/depth3_ffn1/kernel","shape":[16,64],"dtype":"float32"},{"name":"policy-model_transformedTokens/depth3_ffn2/kernel","shape":[64,16],"dtype":"float32"},{"name":"policy-model_transformedTokens/depth4_QNorm_policy-model_transformedTokens/depth3_ffnAdd/policy-model_transformedTokens/depth3_ffnAdd/scale","shape":[1,16],"dtype":"float32"},{"name":"policy-model_transformedTokens/depth4_KVNorm_policy-model_transformedTokens/depth3_ffnAdd/policy-model_transformedTokens/depth3_ffnAdd/scale","shape":[1,16],"dtype":"float32"},{"name":"policy-model_transformedTokens/depth4_MultiHeadAttentionLayer/wq","shape":[16,16],"dtype":"float32"},{"name":"policy-model_transformedTokens/depth4_MultiHeadAttentionLayer/wk","shape":[16,16],"dtype":"float32"},{"name":"policy-model_transformedTokens/depth4_MultiHeadAttentionLayer/wv","shape":[16,16],"dtype":"float32"},{"name":"policy-model_transformedTokens/depth4_MultiHeadAttentionLayer/wo","shape":[16,16],"dtype":"float32"},{"name":"policy-model_transformedTokens/depth4_ln2/scale","shape":[1,16],"dtype":"float32"},{"name":"policy-model_transformedTokens/depth4_ffn1/kernel","shape":[16,64],"dtype":"float32"},{"name":"policy-model_transformedTokens/depth4_ffn2/kernel","shape":[64,16],"dtype":"float32"},{"name":"policy-model_transformedTokens/depth5_QNorm_policy-model_transformedTokens/depth4_ffnAdd/policy-model_transformedTokens/depth4_ffnAdd/scale","shape":[1,16],"dtype":"float32"},{"name":"policy-model_transformedTokens/depth5_KVNorm_policy-model_transformedTokens/depth4_ffnAdd/policy-model_transformedTokens/depth4_ffnAdd/scale","shape":[1,16],"dtype":"float32"},{"name":"policy-model_transformedTokens/depth5_MultiHeadAttentionLayer/wq","shape":[16,16],"dtype":"float32"},{"name":"policy-model_transformedTokens/depth5_MultiHeadAttentionLayer/wk","shape":[16,16],"dtype":"float32"},{"name":"policy-model_transformedTokens/depth5_MultiHeadAttentionLayer/wv","shape":[16,16],"dtype":"float32"},{"name":"policy-model_transformedTokens/depth5_MultiHeadAttentionLayer/wo","shape":[16,16],"dtype":"float32"},{"name":"policy-model_transformedTokens/depth5_ln2/scale","shape":[1,16],"dtype":"float32"},{"name":"policy-model_transformedTokens/depth5_ffn1/kernel","shape":[16,64],"dtype":"float32"},{"name":"policy-model_transformedTokens/depth5_ffn2/kernel","shape":[64,16],"dtype":"float32"},{"name":"policy-model_transformedTokens/depth6_QNorm_policy-model_transformedTokens/depth5_ffnAdd/policy-model_transformedTokens/depth5_ffnAdd/scale","shape":[1,16],"dtype":"float32"},{"name":"policy-model_transformedTokens/depth6_KVNorm_policy-model_transformedTokens/depth5_ffnAdd/policy-model_transformedTokens/depth5_ffnAdd/scale","shape":[1,16],"dtype":"float32"},{"name":"policy-model_transformedTokens/depth6_MultiHeadAttentionLayer/wq","shape":[16,16],"dtype":"float32"},{"name":"policy-model_transformedTokens/depth6_MultiHeadAttentionLayer/wk","shape":[16,16],"dtype":"float32"},{"name":"policy-model_transformedTokens/depth6_MultiHeadAttentionLayer/wv","shape":[16,16],"dtype":"float32"},{"name":"policy-model_transformedTokens/depth6_MultiHeadAttentionLayer/wo","shape":[16,16],"dtype":"float32"},{"name":"policy-model_transformedTokens/depth6_ln2/scale","shape":[1,16],"dtype":"float32"},{"name":"policy-model_transformedTokens/depth6_ffn1/kernel","shape":[16,64],"dtype":"float32"},{"name":"policy-model_transformedTokens/depth6_ffn2/kernel","shape":[64,16],"dtype":"float32"},{"name":"policy-model_transformedTokens/depth7_QNorm_policy-model_transformedTokens/depth6_ffnAdd/policy-model_transformedTokens/depth6_ffnAdd/scale","shape":[1,16],"dtype":"float32"},{"name":"policy-model_transformedTokens/depth7_KVNorm_policy-model_transformedTokens/depth6_ffnAdd/policy-model_transformedTokens/depth6_ffnAdd/scale","shape":[1,16],"dtype":"float32"},{"name":"policy-model_transformedTokens/depth7_MultiHeadAttentionLayer/wq","shape":[16,16],"dtype":"float32"},{"name":"policy-model_transformedTokens/depth7_MultiHeadAttentionLayer/wk","shape":[16,16],"dtype":"float32"},{"name":"policy-model_transformedTokens/depth7_MultiHeadAttentionLayer/wv","shape":[16,16],"dtype":"float32"},{"name":"policy-model_transformedTokens/depth7_MultiHeadAttentionLayer/wo","shape":[16,16],"dtype":"float32"},{"name":"policy-model_transformedTokens/depth7_ln2/scale","shape":[1,16],"dtype":"float32"},{"name":"policy-model_transformedTokens/depth7_ffn1/kernel","shape":[16,64],"dtype":"float32"},{"name":"policy-model_transformedTokens/depth7_ffn2/kernel","shape":[64,16],"dtype":"float32"},{"name":"policy-model_transformedTokens/depth8_QNorm_policy-model_transformedTokens/depth7_ffnAdd/policy-model_transformedTokens/depth7_ffnAdd/scale","shape":[1,16],"dtype":"float32"},{"name":"policy-model_transformedTokens/depth8_KVNorm_policy-model_transformedTokens/depth7_ffnAdd/policy-model_transformedTokens/depth7_ffnAdd/scale","shape":[1,16],"dtype":"float32"},{"name":"policy-model_transformedTokens/depth8_MultiHeadAttentionLayer/wq","shape":[16,16],"dtype":"float32"},{"name":"policy-model_transformedTokens/depth8_MultiHeadAttentionLayer/wk","shape":[16,16],"dtype":"float32"},{"name":"policy-model_transformedTokens/depth8_MultiHeadAttentionLayer/wv","shape":[16,16],"dtype":"float32"},{"name":"policy-model_transformedTokens/depth8_MultiHeadAttentionLayer/wo","shape":[16,16],"dtype":"float32"},{"name":"policy-model_transformedTokens/depth8_ln2/scale","shape":[1,16],"dtype":"float32"},{"name":"policy-model_transformedTokens/depth8_ffn1/kernel","shape":[16,64],"dtype":"float32"},{"name":"policy-model_transformedTokens/depth8_ffn2/kernel","shape":[64,16],"dtype":"float32"},{"name":"policy-model_transformedTokens/depth9_QNorm_policy-model_transformedTokens/depth8_ffnAdd/policy-model_transformedTokens/depth8_ffnAdd/scale","shape":[1,16],"dtype":"float32"},{"name":"policy-model_transformedTokens/depth9_KVNorm_policy-model_transformedTokens/depth8_ffnAdd/policy-model_transformedTokens/depth8_ffnAdd/scale","shape":[1,16],"dtype":"float32"},{"name":"policy-model_transformedTokens/depth9_MultiHeadAttentionLayer/wq","shape":[16,16],"dtype":"float32"},{"name":"policy-model_transformedTokens/depth9_MultiHeadAttentionLayer/wk","shape":[16,16],"dtype":"float32"},{"name":"policy-model_transformedTokens/depth9_MultiHeadAttentionLayer/wv","shape":[16,16],"dtype":"float32"},{"name":"policy-model_transformedTokens/depth9_MultiHeadAttentionLayer/wo","shape":[16,16],"dtype":"float32"},{"name":"policy-model_transformedTokens/depth9_ln2/scale","shape":[1,16],"dtype":"float32"},{"name":"policy-model_transformedTokens/depth9_ffn1/kernel","shape":[16,64],"dtype":"float32"},{"name":"policy-model_transformedTokens/depth9_ffn2/kernel","shape":[64,16],"dtype":"float32"},{"name":"policy-model_transformedTokens/depth10_QNorm_policy-model_transformedTokens/depth9_ffnAdd/policy-model_transformedTokens/depth9_ffnAdd/scale","shape":[1,16],"dtype":"float32"},{"name":"policy-model_transformedTokens/depth10_KVNorm_policy-model_transformedTokens/depth9_ffnAdd/policy-model_transformedTokens/depth9_ffnAdd/scale","shape":[1,16],"dtype":"float32"},{"name":"policy-model_transformedTokens/depth10_MultiHeadAttentionLayer/wq","shape":[16,16],"dtype":"float32"},{"name":"policy-model_transformedTokens/depth10_MultiHeadAttentionLayer/wk","shape":[16,16],"dtype":"float32"},{"name":"policy-model_transformedTokens/depth10_MultiHeadAttentionLayer/wv","shape":[16,16],"dtype":"float32"},{"name":"policy-model_transformedTokens/depth10_MultiHeadAttentionLayer/wo","shape":[16,16],"dtype":"float32"},{"name":"policy-model_transformedTokens/depth10_ln2/scale","shape":[1,16],"dtype":"float32"},{"name":"policy-model_transformedTokens/depth10_ffn1/kernel","shape":[16,64],"dtype":"float32"},{"name":"policy-model_transformedTokens/depth10_ffn2/kernel","shape":[64,16],"dtype":"float32"},{"name":"policy-model_transformedTokens/depth11_QNorm_policy-model_transformedTokens/depth10_ffnAdd/policy-model_transformedTokens/depth10_ffnAdd/scale","shape":[1,16],"dtype":"float32"},{"name":"policy-model_transformedTokens/depth11_KVNorm_policy-model_transformedTokens/depth10_ffnAdd/policy-model_transformedTokens/depth10_ffnAdd/scale","shape":[1,16],"dtype":"float32"},{"name":"policy-model_transformedTokens/depth11_MultiHeadAttentionLayer/wq","shape":[16,16],"dtype":"float32"},{"name":"policy-model_transformedTokens/depth11_MultiHeadAttentionLayer/wk","shape":[16,16],"dtype":"float32"},{"name":"policy-model_transformedTokens/depth11_MultiHeadAttentionLayer/wv","shape":[16,16],"dtype":"float32"},{"name":"policy-model_transformedTokens/depth11_MultiHeadAttentionLayer/wo","shape":[16,16],"dtype":"float32"},{"name":"policy-model_transformedTokens/depth11_ln2/scale","shape":[1,16],"dtype":"float32"},{"name":"policy-model_transformedTokens/depth11_ffn1/kernel","shape":[16,64],"dtype":"float32"},{"name":"policy-model_transformedTokens/depth11_ffn2/kernel","shape":[64,16],"dtype":"float32"},{"name":"policy-model_head0/LaN_preNorm/scale","shape":[16],"dtype":"float32"},{"name":"policy-model_head1/LaN_preNorm/scale","shape":[16],"dtype":"float32"},{"name":"policy-model_head2/LaN_preNorm/scale","shape":[16],"dtype":"float32"},{"name":"policy-model_head3/LaN_preNorm/scale","shape":[16],"dtype":"float32"},{"name":"policy-model_head0/LaN_branch1/kernelMu","shape":[16,16],"dtype":"float32"},{"name":"policy-model_head0/LaN_branch1/kernelSigma","shape":[16,16],"dtype":"float32"},{"name":"policy-model_head0/LaN_branch1/biasMu","shape":[16],"dtype":"float32"},{"name":"policy-model_head0/LaN_branch1/biasSigma","shape":[16],"dtype":"float32"},{"name":"policy-model_head0/LaN_branch2/kernelMu","shape":[16,16],"dtype":"float32"},{"name":"policy-model_head0/LaN_branch2/kernelSigma","shape":[16,16],"dtype":"float32"},{"name":"policy-model_head0/LaN_branch2/biasMu","shape":[16],"dtype":"float32"},{"name":"policy-model_head0/LaN_branch2/biasSigma","shape":[16],"dtype":"float32"},{"name":"policy-model_head1/LaN_branch1/kernelMu","shape":[16,16],"dtype":"float32"},{"name":"policy-model_head1/LaN_branch1/kernelSigma","shape":[16,16],"dtype":"float32"},{"name":"policy-model_head1/LaN_branch1/biasMu","shape":[16],"dtype":"float32"},{"name":"policy-model_head1/LaN_branch1/biasSigma","shape":[16],"dtype":"float32"},{"name":"policy-model_head1/LaN_branch2/kernelMu","shape":[16,16],"dtype":"float32"},{"name":"policy-model_head1/LaN_branch2/kernelSigma","shape":[16,16],"dtype":"float32"},{"name":"policy-model_head1/LaN_branch2/biasMu","shape":[16],"dtype":"float32"},{"name":"policy-model_head1/LaN_branch2/biasSigma","shape":[16],"dtype":"float32"},{"name":"policy-model_head2/LaN_branch1/kernelMu","shape":[16,16],"dtype":"float32"},{"name":"policy-model_head2/LaN_branch1/kernelSigma","shape":[16,16],"dtype":"float32"},{"name":"policy-model_head2/LaN_branch1/biasMu","shape":[16],"dtype":"float32"},{"name":"policy-model_head2/LaN_branch1/biasSigma","shape":[16],"dtype":"float32"},{"name":"policy-model_head2/LaN_branch2/kernelMu","shape":[16,16],"dtype":"float32"},{"name":"policy-model_head2/LaN_branch2/kernelSigma","shape":[16,16],"dtype":"float32"},{"name":"policy-model_head2/LaN_branch2/biasMu","shape":[16],"dtype":"float32"},{"name":"policy-model_head2/LaN_branch2/biasSigma","shape":[16],"dtype":"float32"},{"name":"policy-model_head3/LaN_branch1/kernelMu","shape":[16,16],"dtype":"float32"},{"name":"policy-model_head3/LaN_branch1/kernelSigma","shape":[16,16],"dtype":"float32"},{"name":"policy-model_head3/LaN_branch1/biasMu","shape":[16],"dtype":"float32"},{"name":"policy-model_head3/LaN_branch1/biasSigma","shape":[16],"dtype":"float32"},{"name":"policy-model_head3/LaN_branch2/kernelMu","shape":[16,16],"dtype":"float32"},{"name":"policy-model_head3/LaN_branch2/kernelSigma","shape":[16,16],"dtype":"float32"},{"name":"policy-model_head3/LaN_branch2/biasMu","shape":[16],"dtype":"float32"},{"name":"policy-model_head3/LaN_branch2/biasSigma","shape":[16],"dtype":"float32"},{"name":"policy-model_head_logits_0/kernel","shape":[16,15],"dtype":"float32"},{"name":"policy-model_head_logits_0/bias","shape":[15],"dtype":"float32"},{"name":"policy-model_head_logits_1/kernel","shape":[16,15],"dtype":"float32"},{"name":"policy-model_head_logits_1/bias","shape":[15],"dtype":"float32"},{"name":"policy-model_head_logits_2/kernel","shape":[16,2],"dtype":"float32"},{"name":"policy-model_head_logits_2/bias","shape":[2],"dtype":"float32"},{"name":"policy-model_head_logits_3/kernel","shape":[16,31],"dtype":"float32"},{"name":"policy-model_head_logits_3/bias","shape":[31],"dtype":"float32"},{"name":"iter","shape":[],"dtype":"int32","group":"optimizer"},{"name":"policy-model_alliesInput_tokProj/kernel/m","shape":[10,16],"dtype":"float32","group":"optimizer"},{"name":"policy-model_alliesInput_tokProj/policy-model_alliesInput_tokProj_typeEmbedding/variable/m","shape":[16],"dtype":"float32","group":"optimizer"},{"name":"policy-model_bulletsInput_tokProj/kernel/m","shape":[4,16],"dtype":"float32","group":"optimizer"},{"name":"policy-model_clsBulletsAttention_MultiHeadAttentionLayer/wk/m","shape":[16,16],"dtype":"float32","group":"optimizer"},{"name":"policy-model_clsBulletsAttention_MultiHeadAttentionLayer/wo/m","shape":[16,16],"dtype":"float32","group":"optimizer"},{"name":"policy-model_clsBulletsAttention_MultiHeadAttentionLayer/wq/m","shape":[16,16],"dtype":"float32","group":"optimizer"},{"name":"policy-model_clsBulletsAttention_MultiHeadAttentionLayer/wv/m","shape":[16,16],"dtype":"float32","group":"optimizer"},{"name":"policy-model_clsBulletsToken/variable/m","shape":[1,16],"dtype":"float32","group":"optimizer"},{"name":"policy-model_clsToken/variable/m","shape":[1,16],"dtype":"float32","group":"optimizer"},{"name":"policy-model_enemiesInput_tokProj/kernel/m","shape":[10,16],"dtype":"float32","group":"optimizer"},{"name":"policy-model_enemiesInput_tokProj/policy-model_enemiesInput_tokProj_typeEmbedding/variable/m","shape":[16],"dtype":"float32","group":"optimizer"},{"name":"policy-model_head_logits_0/bias/m","shape":[15],"dtype":"float32","group":"optimizer"},{"name":"policy-model_head_logits_0/kernel/m","shape":[16,15],"dtype":"float32","group":"optimizer"},{"name":"policy-model_head_logits_1/bias/m","shape":[15],"dtype":"float32","group":"optimizer"},{"name":"policy-model_head_logits_1/kernel/m","shape":[16,15],"dtype":"float32","group":"optimizer"},{"name":"policy-model_head_logits_2/bias/m","shape":[2],"dtype":"float32","group":"optimizer"},{"name":"policy-model_head_logits_2/kernel/m","shape":[16,2],"dtype":"float32","group":"optimizer"},{"name":"policy-model_head_logits_3/bias/m","shape":[31],"dtype":"float32","group":"optimizer"},{"name":"policy-model_head_logits_3/kernel/m","shape":[16,31],"dtype":"float32","group":"optimizer"},{"name":"policy-model_head0/LaN_branch1/biasMu/m","shape":[16],"dtype":"float32","group":"optimizer"},{"name":"policy-model_head0/LaN_branch1/biasSigma/m","shape":[16],"dtype":"float32","group":"optimizer"},{"name":"policy-model_head0/LaN_branch1/kernelMu/m","shape":[16,16],"dtype":"float32","group":"optimizer"},{"name":"policy-model_head0/LaN_branch1/kernelSigma/m","shape":[16,16],"dtype":"float32","group":"optimizer"},{"name":"policy-model_head0/LaN_branch2/biasMu/m","shape":[16],"dtype":"float32","group":"optimizer"},{"name":"policy-model_head0/LaN_branch2/biasSigma/m","shape":[16],"dtype":"float32","group":"optimizer"},{"name":"policy-model_head0/LaN_branch2/kernelMu/m","shape":[16,16],"dtype":"float32","group":"optimizer"},{"name":"policy-model_head0/LaN_branch2/kernelSigma/m","shape":[16,16],"dtype":"float32","group":"optimizer"},{"name":"policy-model_head0/LaN_preNorm/scale/m","shape":[16],"dtype":"float32","group":"optimizer"},{"name":"policy-model_head1/LaN_branch1/biasMu/m","shape":[16],"dtype":"float32","group":"optimizer"},{"name":"policy-model_head1/LaN_branch1/biasSigma/m","shape":[16],"dtype":"float32","group":"optimizer"},{"name":"policy-model_head1/LaN_branch1/kernelMu/m","shape":[16,16],"dtype":"float32","group":"optimizer"},{"name":"policy-model_head1/LaN_branch1/kernelSigma/m","shape":[16,16],"dtype":"float32","group":"optimizer"},{"name":"policy-model_head1/LaN_branch2/biasMu/m","shape":[16],"dtype":"float32","group":"optimizer"},{"name":"policy-model_head1/LaN_branch2/biasSigma/m","shape":[16],"dtype":"float32","group":"optimizer"},{"name":"policy-model_head1/LaN_branch2/kernelMu/m","shape":[16,16],"dtype":"float32","group":"optimizer"},{"name":"policy-model_head1/LaN_branch2/kernelSigma/m","shape":[16,16],"dtype":"float32","group":"optimizer"},{"name":"policy-model_head1/LaN_preNorm/scale/m","shape":[16],"dtype":"float32","group":"optimizer"},{"name":"policy-model_head2/LaN_branch1/biasMu/m","shape":[16],"dtype":"float32","group":"optimizer"},{"name":"policy-model_head2/LaN_branch1/biasSigma/m","shape":[16],"dtype":"float32","group":"optimizer"},{"name":"policy-model_head2/LaN_branch1/kernelMu/m","shape":[16,16],"dtype":"float32","group":"optimizer"},{"name":"policy-model_head2/LaN_branch1/kernelSigma/m","shape":[16,16],"dtype":"float32","group":"optimizer"},{"name":"policy-model_head2/LaN_branch2/biasMu/m","shape":[16],"dtype":"float32","group":"optimizer"},{"name":"policy-model_head2/LaN_branch2/biasSigma/m","shape":[16],"dtype":"float32","group":"optimizer"},{"name":"policy-model_head2/LaN_branch2/kernelMu/m","shape":[16,16],"dtype":"float32","group":"optimizer"},{"name":"policy-model_head2/LaN_branch2/kernelSigma/m","shape":[16,16],"dtype":"float32","group":"optimizer"},{"name":"policy-model_head2/LaN_preNorm/scale/m","shape":[16],"dtype":"float32","group":"optimizer"},{"name":"policy-model_head3/LaN_branch1/biasMu/m","shape":[16],"dtype":"float32","group":"optimizer"},{"name":"policy-model_head3/LaN_branch1/biasSigma/m","shape":[16],"dtype":"float32","group":"optimizer"},{"name":"policy-model_head3/LaN_branch1/kernelMu/m","shape":[16,16],"dtype":"float32","group":"optimizer"},{"name":"policy-model_head3/LaN_branch1/kernelSigma/m","shape":[16,16],"dtype":"float32","group":"optimizer"},{"name":"policy-model_head3/LaN_branch2/biasMu/m","shape":[16],"dtype":"float32","group":"optimizer"},{"name":"policy-model_head3/LaN_branch2/biasSigma/m","shape":[16],"dtype":"float32","group":"optimizer"},{"name":"policy-model_head3/LaN_branch2/kernelMu/m","shape":[16,16],"dtype":"float32","group":"optimizer"},{"name":"policy-model_head3/LaN_branch2/kernelSigma/m","shape":[16,16],"dtype":"float32","group":"optimizer"},{"name":"policy-model_head3/LaN_preNorm/scale/m","shape":[16],"dtype":"float32","group":"optimizer"},{"name":"policy-model_tankInput_tokProj/kernel/m","shape":[10,16],"dtype":"float32","group":"optimizer"},{"name":"policy-model_tankInput_tokProj/policy-model_tankInput_tokProj_typeEmbedding/variable/m","shape":[16],"dtype":"float32","group":"optimizer"},{"name":"policy-model_transformedTokens/depth0_ffn1/kernel/m","shape":[16,64],"dtype":"float32","group":"optimizer"},{"name":"policy-model_transformedTokens/depth0_ffn2/kernel/m","shape":[64,16],"dtype":"float32","group":"optimizer"},{"name":"policy-model_transformedTokens/depth0_KVNorm_policy-model_contextToken0/policy-model_contextToken0/scale/m","shape":[1,16],"dtype":"float32","group":"optimizer"},{"name":"policy-model_transformedTokens/depth0_ln2/scale/m","shape":[1,16],"dtype":"float32","group":"optimizer"},{"name":"policy-model_transformedTokens/depth0_MultiHeadAttentionLayer/wk/m","shape":[16,16],"dtype":"float32","group":"optimizer"},{"name":"policy-model_transformedTokens/depth0_MultiHeadAttentionLayer/wo/m","shape":[16,16],"dtype":"float32","group":"optimizer"},{"name":"policy-model_transformedTokens/depth0_MultiHeadAttentionLayer/wq/m","shape":[16,16],"dtype":"float32","group":"optimizer"},{"name":"policy-model_transformedTokens/depth0_MultiHeadAttentionLayer/wv/m","shape":[16,16],"dtype":"float32","group":"optimizer"},{"name":"policy-model_transformedTokens/depth0_QNorm_policy-model_contextToken0/policy-model_contextToken0/scale/m","shape":[1,16],"dtype":"float32","group":"optimizer"},{"name":"policy-model_transformedTokens/depth1_ffn1/kernel/m","shape":[16,64],"dtype":"float32","group":"optimizer"},{"name":"policy-model_transformedTokens/depth1_ffn2/kernel/m","shape":[64,16],"dtype":"float32","group":"optimizer"},{"name":"policy-model_transformedTokens/depth1_KVNorm_policy-model_transformedTokens/depth0_ffnAdd/policy-model_transformedTokens/depth0_ffnAdd/scale/m","shape":[1,16],"dtype":"float32","group":"optimizer"},{"name":"policy-model_transformedTokens/depth1_ln2/scale/m","shape":[1,16],"dtype":"float32","group":"optimizer"},{"name":"policy-model_transformedTokens/depth1_MultiHeadAttentionLayer/wk/m","shape":[16,16],"dtype":"float32","group":"optimizer"},{"name":"policy-model_transformedTokens/depth1_MultiHeadAttentionLayer/wo/m","shape":[16,16],"dtype":"float32","group":"optimizer"},{"name":"policy-model_transformedTokens/depth1_MultiHeadAttentionLayer/wq/m","shape":[16,16],"dtype":"float32","group":"optimizer"},{"name":"policy-model_transformedTokens/depth1_MultiHeadAttentionLayer/wv/m","shape":[16,16],"dtype":"float32","group":"optimizer"},{"name":"policy-model_transformedTokens/depth1_QNorm_policy-model_transformedTokens/depth0_ffnAdd/policy-model_transformedTokens/depth0_ffnAdd/scale/m","shape":[1,16],"dtype":"float32","group":"optimizer"},{"name":"policy-model_transformedTokens/depth10_ffn1/kernel/m","shape":[16,64],"dtype":"float32","group":"optimizer"},{"name":"policy-model_transformedTokens/depth10_ffn2/kernel/m","shape":[64,16],"dtype":"float32","group":"optimizer"},{"name":"policy-model_transformedTokens/depth10_KVNorm_policy-model_transformedTokens/depth9_ffnAdd/policy-model_transformedTokens/depth9_ffnAdd/scale/m","shape":[1,16],"dtype":"float32","group":"optimizer"},{"name":"policy-model_transformedTokens/depth10_ln2/scale/m","shape":[1,16],"dtype":"float32","group":"optimizer"},{"name":"policy-model_transformedTokens/depth10_MultiHeadAttentionLayer/wk/m","shape":[16,16],"dtype":"float32","group":"optimizer"},{"name":"policy-model_transformedTokens/depth10_MultiHeadAttentionLayer/wo/m","shape":[16,16],"dtype":"float32","group":"optimizer"},{"name":"policy-model_transformedTokens/depth10_MultiHeadAttentionLayer/wq/m","shape":[16,16],"dtype":"float32","group":"optimizer"},{"name":"policy-model_transformedTokens/depth10_MultiHeadAttentionLayer/wv/m","shape":[16,16],"dtype":"float32","group":"optimizer"},{"name":"policy-model_transformedTokens/depth10_QNorm_policy-model_transformedTokens/depth9_ffnAdd/policy-model_transformedTokens/depth9_ffnAdd/scale/m","shape":[1,16],"dtype":"float32","group":"optimizer"},{"name":"policy-model_transformedTokens/depth11_ffn1/kernel/m","shape":[16,64],"dtype":"float32","group":"optimizer"},{"name":"policy-model_transformedTokens/depth11_ffn2/kernel/m","shape":[64,16],"dtype":"float32","group":"optimizer"},{"name":"policy-model_transformedTokens/depth11_KVNorm_policy-model_transformedTokens/depth10_ffnAdd/policy-model_transformedTokens/depth10_ffnAdd/scale/m","shape":[1,16],"dtype":"float32","group":"optimizer"},{"name":"policy-model_transformedTokens/depth11_ln2/scale/m","shape":[1,16],"dtype":"float32","group":"optimizer"},{"name":"policy-model_transformedTokens/depth11_MultiHeadAttentionLayer/wk/m","shape":[16,16],"dtype":"float32","group":"optimizer"},{"name":"policy-model_transformedTokens/depth11_MultiHeadAttentionLayer/wo/m","shape":[16,16],"dtype":"float32","group":"optimizer"},{"name":"policy-model_transformedTokens/depth11_MultiHeadAttentionLayer/wq/m","shape":[16,16],"dtype":"float32","group":"optimizer"},{"name":"policy-model_transformedTokens/depth11_MultiHeadAttentionLayer/wv/m","shape":[16,16],"dtype":"float32","group":"optimizer"},{"name":"policy-model_transformedTokens/depth11_QNorm_policy-model_transformedTokens/depth10_ffnAdd/policy-model_transformedTokens/depth10_ffnAdd/scale/m","shape":[1,16],"dtype":"float32","group":"optimizer"},{"name":"policy-model_transformedTokens/depth2_ffn1/kernel/m","shape":[16,64],"dtype":"float32","group":"optimizer"},{"name":"policy-model_transformedTokens/depth2_ffn2/kernel/m","shape":[64,16],"dtype":"float32","group":"optimizer"},{"name":"policy-model_transformedTokens/depth2_KVNorm_policy-model_transformedTokens/depth1_ffnAdd/policy-model_transformedTokens/depth1_ffnAdd/scale/m","shape":[1,16],"dtype":"float32","group":"optimizer"},{"name":"policy-model_transformedTokens/depth2_ln2/scale/m","shape":[1,16],"dtype":"float32","group":"optimizer"},{"name":"policy-model_transformedTokens/depth2_MultiHeadAttentionLayer/wk/m","shape":[16,16],"dtype":"float32","group":"optimizer"},{"name":"policy-model_transformedTokens/depth2_MultiHeadAttentionLayer/wo/m","shape":[16,16],"dtype":"float32","group":"optimizer"},{"name":"policy-model_transformedTokens/depth2_MultiHeadAttentionLayer/wq/m","shape":[16,16],"dtype":"float32","group":"optimizer"},{"name":"policy-model_transformedTokens/depth2_MultiHeadAttentionLayer/wv/m","shape":[16,16],"dtype":"float32","group":"optimizer"},{"name":"policy-model_transformedTokens/depth2_QNorm_policy-model_transformedTokens/depth1_ffnAdd/policy-model_transformedTokens/depth1_ffnAdd/scale/m","shape":[1,16],"dtype":"float32","group":"optimizer"},{"name":"policy-model_transformedTokens/depth3_ffn1/kernel/m","shape":[16,64],"dtype":"float32","group":"optimizer"},{"name":"policy-model_transformedTokens/depth3_ffn2/kernel/m","shape":[64,16],"dtype":"float32","group":"optimizer"},{"name":"policy-model_transformedTokens/depth3_KVNorm_policy-model_transformedTokens/depth2_ffnAdd/policy-model_transformedTokens/depth2_ffnAdd/scale/m","shape":[1,16],"dtype":"float32","group":"optimizer"},{"name":"policy-model_transformedTokens/depth3_ln2/scale/m","shape":[1,16],"dtype":"float32","group":"optimizer"},{"name":"policy-model_transformedTokens/depth3_MultiHeadAttentionLayer/wk/m","shape":[16,16],"dtype":"float32","group":"optimizer"},{"name":"policy-model_transformedTokens/depth3_MultiHeadAttentionLayer/wo/m","shape":[16,16],"dtype":"float32","group":"optimizer"},{"name":"policy-model_transformedTokens/depth3_MultiHeadAttentionLayer/wq/m","shape":[16,16],"dtype":"float32","group":"optimizer"},{"name":"policy-model_transformedTokens/depth3_MultiHeadAttentionLayer/wv/m","shape":[16,16],"dtype":"float32","group":"optimizer"},{"name":"policy-model_transformedTokens/depth3_QNorm_policy-model_transformedTokens/depth2_ffnAdd/policy-model_transformedTokens/depth2_ffnAdd/scale/m","shape":[1,16],"dtype":"float32","group":"optimizer"},{"name":"policy-model_transformedTokens/depth4_ffn1/kernel/m","shape":[16,64],"dtype":"float32","group":"optimizer"},{"name":"policy-model_transformedTokens/depth4_ffn2/kernel/m","shape":[64,16],"dtype":"float32","group":"optimizer"},{"name":"policy-model_transformedTokens/depth4_KVNorm_policy-model_transformedTokens/depth3_ffnAdd/policy-model_transformedTokens/depth3_ffnAdd/scale/m","shape":[1,16],"dtype":"float32","group":"optimizer"},{"name":"policy-model_transformedTokens/depth4_ln2/scale/m","shape":[1,16],"dtype":"float32","group":"optimizer"},{"name":"policy-model_transformedTokens/depth4_MultiHeadAttentionLayer/wk/m","shape":[16,16],"dtype":"float32","group":"optimizer"},{"name":"policy-model_transformedTokens/depth4_MultiHeadAttentionLayer/wo/m","shape":[16,16],"dtype":"float32","group":"optimizer"},{"name":"policy-model_transformedTokens/depth4_MultiHeadAttentionLayer/wq/m","shape":[16,16],"dtype":"float32","group":"optimizer"},{"name":"policy-model_transformedTokens/depth4_MultiHeadAttentionLayer/wv/m","shape":[16,16],"dtype":"float32","group":"optimizer"},{"name":"policy-model_transformedTokens/depth4_QNorm_policy-model_transformedTokens/depth3_ffnAdd/policy-model_transformedTokens/depth3_ffnAdd/scale/m","shape":[1,16],"dtype":"float32","group":"optimizer"},{"name":"policy-model_transformedTokens/depth5_ffn1/kernel/m","shape":[16,64],"dtype":"float32","group":"optimizer"},{"name":"policy-model_transformedTokens/depth5_ffn2/kernel/m","shape":[64,16],"dtype":"float32","group":"optimizer"},{"name":"policy-model_transformedTokens/depth5_KVNorm_policy-model_transformedTokens/depth4_ffnAdd/policy-model_transformedTokens/depth4_ffnAdd/scale/m","shape":[1,16],"dtype":"float32","group":"optimizer"},{"name":"policy-model_transformedTokens/depth5_ln2/scale/m","shape":[1,16],"dtype":"float32","group":"optimizer"},{"name":"policy-model_transformedTokens/depth5_MultiHeadAttentionLayer/wk/m","shape":[16,16],"dtype":"float32","group":"optimizer"},{"name":"policy-model_transformedTokens/depth5_MultiHeadAttentionLayer/wo/m","shape":[16,16],"dtype":"float32","group":"optimizer"},{"name":"policy-model_transformedTokens/depth5_MultiHeadAttentionLayer/wq/m","shape":[16,16],"dtype":"float32","group":"optimizer"},{"name":"policy-model_transformedTokens/depth5_MultiHeadAttentionLayer/wv/m","shape":[16,16],"dtype":"float32","group":"optimizer"},{"name":"policy-model_transformedTokens/depth5_QNorm_policy-model_transformedTokens/depth4_ffnAdd/policy-model_transformedTokens/depth4_ffnAdd/scale/m","shape":[1,16],"dtype":"float32","group":"optimizer"},{"name":"policy-model_transformedTokens/depth6_ffn1/kernel/m","shape":[16,64],"dtype":"float32","group":"optimizer"},{"name":"policy-model_transformedTokens/depth6_ffn2/kernel/m","shape":[64,16],"dtype":"float32","group":"optimizer"},{"name":"policy-model_transformedTokens/depth6_KVNorm_policy-model_transformedTokens/depth5_ffnAdd/policy-model_transformedTokens/depth5_ffnAdd/scale/m","shape":[1,16],"dtype":"float32","group":"optimizer"},{"name":"policy-model_transformedTokens/depth6_ln2/scale/m","shape":[1,16],"dtype":"float32","group":"optimizer"},{"name":"policy-model_transformedTokens/depth6_MultiHeadAttentionLayer/wk/m","shape":[16,16],"dtype":"float32","group":"optimizer"},{"name":"policy-model_transformedTokens/depth6_MultiHeadAttentionLayer/wo/m","shape":[16,16],"dtype":"float32","group":"optimizer"},{"name":"policy-model_transformedTokens/depth6_MultiHeadAttentionLayer/wq/m","shape":[16,16],"dtype":"float32","group":"optimizer"},{"name":"policy-model_transformedTokens/depth6_MultiHeadAttentionLayer/wv/m","shape":[16,16],"dtype":"float32","group":"optimizer"},{"name":"policy-model_transformedTokens/depth6_QNorm_policy-model_transformedTokens/depth5_ffnAdd/policy-model_transformedTokens/depth5_ffnAdd/scale/m","shape":[1,16],"dtype":"float32","group":"optimizer"},{"name":"policy-model_transformedTokens/depth7_ffn1/kernel/m","shape":[16,64],"dtype":"float32","group":"optimizer"},{"name":"policy-model_transformedTokens/depth7_ffn2/kernel/m","shape":[64,16],"dtype":"float32","group":"optimizer"},{"name":"policy-model_transformedTokens/depth7_KVNorm_policy-model_transformedTokens/depth6_ffnAdd/policy-model_transformedTokens/depth6_ffnAdd/scale/m","shape":[1,16],"dtype":"float32","group":"optimizer"},{"name":"policy-model_transformedTokens/depth7_ln2/scale/m","shape":[1,16],"dtype":"float32","group":"optimizer"},{"name":"policy-model_transformedTokens/depth7_MultiHeadAttentionLayer/wk/m","shape":[16,16],"dtype":"float32","group":"optimizer"},{"name":"policy-model_transformedTokens/depth7_MultiHeadAttentionLayer/wo/m","shape":[16,16],"dtype":"float32","group":"optimizer"},{"name":"policy-model_transformedTokens/depth7_MultiHeadAttentionLayer/wq/m","shape":[16,16],"dtype":"float32","group":"optimizer"},{"name":"policy-model_transformedTokens/depth7_MultiHeadAttentionLayer/wv/m","shape":[16,16],"dtype":"float32","group":"optimizer"},{"name":"policy-model_transformedTokens/depth7_QNorm_policy-model_transformedTokens/depth6_ffnAdd/policy-model_transformedTokens/depth6_ffnAdd/scale/m","shape":[1,16],"dtype":"float32","group":"optimizer"},{"name":"policy-model_transformedTokens/depth8_ffn1/kernel/m","shape":[16,64],"dtype":"float32","group":"optimizer"},{"name":"policy-model_transformedTokens/depth8_ffn2/kernel/m","shape":[64,16],"dtype":"float32","group":"optimizer"},{"name":"policy-model_transformedTokens/depth8_KVNorm_policy-model_transformedTokens/depth7_ffnAdd/policy-model_transformedTokens/depth7_ffnAdd/scale/m","shape":[1,16],"dtype":"float32","group":"optimizer"},{"name":"policy-model_transformedTokens/depth8_ln2/scale/m","shape":[1,16],"dtype":"float32","group":"optimizer"},{"name":"policy-model_transformedTokens/depth8_MultiHeadAttentionLayer/wk/m","shape":[16,16],"dtype":"float32","group":"optimizer"},{"name":"policy-model_transformedTokens/depth8_MultiHeadAttentionLayer/wo/m","shape":[16,16],"dtype":"float32","group":"optimizer"},{"name":"policy-model_transformedTokens/depth8_MultiHeadAttentionLayer/wq/m","shape":[16,16],"dtype":"float32","group":"optimizer"},{"name":"policy-model_transformedTokens/depth8_MultiHeadAttentionLayer/wv/m","shape":[16,16],"dtype":"float32","group":"optimizer"},{"name":"policy-model_transformedTokens/depth8_QNorm_policy-model_transformedTokens/depth7_ffnAdd/policy-model_transformedTokens/depth7_ffnAdd/scale/m","shape":[1,16],"dtype":"float32","group":"optimizer"},{"name":"policy-model_transformedTokens/depth9_ffn1/kernel/m","shape":[16,64],"dtype":"float32","group":"optimizer"},{"name":"policy-model_transformedTokens/depth9_ffn2/kernel/m","shape":[64,16],"dtype":"float32","group":"optimizer"},{"name":"policy-model_transformedTokens/depth9_KVNorm_policy-model_transformedTokens/depth8_ffnAdd/policy-model_transformedTokens/depth8_ffnAdd/scale/m","shape":[1,16],"dtype":"float32","group":"optimizer"},{"name":"policy-model_transformedTokens/depth9_ln2/scale/m","shape":[1,16],"dtype":"float32","group":"optimizer"},{"name":"policy-model_transformedTokens/depth9_MultiHeadAttentionLayer/wk/m","shape":[16,16],"dtype":"float32","group":"optimizer"},{"name":"policy-model_transformedTokens/depth9_MultiHeadAttentionLayer/wo/m","shape":[16,16],"dtype":"float32","group":"optimizer"},{"name":"policy-model_transformedTokens/depth9_MultiHeadAttentionLayer/wq/m","shape":[16,16],"dtype":"float32","group":"optimizer"},{"name":"policy-model_transformedTokens/depth9_MultiHeadAttentionLayer/wv/m","shape":[16,16],"dtype":"float32","group":"optimizer"},{"name":"policy-model_transformedTokens/depth9_QNorm_policy-model_transformedTokens/depth8_ffnAdd/policy-model_transformedTokens/depth8_ffnAdd/scale/m","shape":[1,16],"dtype":"float32","group":"optimizer"},{"name":"policy-model_alliesInput_tokProj/kernel/v","shape":[10,16],"dtype":"float32","group":"optimizer"},{"name":"policy-model_alliesInput_tokProj/policy-model_alliesInput_tokProj_typeEmbedding/variable/v","shape":[16],"dtype":"float32","group":"optimizer"},{"name":"policy-model_bulletsInput_tokProj/kernel/v","shape":[4,16],"dtype":"float32","group":"optimizer"},{"name":"policy-model_clsBulletsAttention_MultiHeadAttentionLayer/wk/v","shape":[16,16],"dtype":"float32","group":"optimizer"},{"name":"policy-model_clsBulletsAttention_MultiHeadAttentionLayer/wo/v","shape":[16,16],"dtype":"float32","group":"optimizer"},{"name":"policy-model_clsBulletsAttention_MultiHeadAttentionLayer/wq/v","shape":[16,16],"dtype":"float32","group":"optimizer"},{"name":"policy-model_clsBulletsAttention_MultiHeadAttentionLayer/wv/v","shape":[16,16],"dtype":"float32","group":"optimizer"},{"name":"policy-model_clsBulletsToken/variable/v","shape":[1,16],"dtype":"float32","group":"optimizer"},{"name":"policy-model_clsToken/variable/v","shape":[1,16],"dtype":"float32","group":"optimizer"},{"name":"policy-model_enemiesInput_tokProj/kernel/v","shape":[10,16],"dtype":"float32","group":"optimizer"},{"name":"policy-model_enemiesInput_tokProj/policy-model_enemiesInput_tokProj_typeEmbedding/variable/v","shape":[16],"dtype":"float32","group":"optimizer"},{"name":"policy-model_head_logits_0/bias/v","shape":[15],"dtype":"float32","group":"optimizer"},{"name":"policy-model_head_logits_0/kernel/v","shape":[16,15],"dtype":"float32","group":"optimizer"},{"name":"policy-model_head_logits_1/bias/v","shape":[15],"dtype":"float32","group":"optimizer"},{"name":"policy-model_head_logits_1/kernel/v","shape":[16,15],"dtype":"float32","group":"optimizer"},{"name":"policy-model_head_logits_2/bias/v","shape":[2],"dtype":"float32","group":"optimizer"},{"name":"policy-model_head_logits_2/kernel/v","shape":[16,2],"dtype":"float32","group":"optimizer"},{"name":"policy-model_head_logits_3/bias/v","shape":[31],"dtype":"float32","group":"optimizer"},{"name":"policy-model_head_logits_3/kernel/v","shape":[16,31],"dtype":"float32","group":"optimizer"},{"name":"policy-model_head0/LaN_branch1/biasMu/v","shape":[16],"dtype":"float32","group":"optimizer"},{"name":"policy-model_head0/LaN_branch1/biasSigma/v","shape":[16],"dtype":"float32","group":"optimizer"},{"name":"policy-model_head0/LaN_branch1/kernelMu/v","shape":[16,16],"dtype":"float32","group":"optimizer"},{"name":"policy-model_head0/LaN_branch1/kernelSigma/v","shape":[16,16],"dtype":"float32","group":"optimizer"},{"name":"policy-model_head0/LaN_branch2/biasMu/v","shape":[16],"dtype":"float32","group":"optimizer"},{"name":"policy-model_head0/LaN_branch2/biasSigma/v","shape":[16],"dtype":"float32","group":"optimizer"},{"name":"policy-model_head0/LaN_branch2/kernelMu/v","shape":[16,16],"dtype":"float32","group":"optimizer"},{"name":"policy-model_head0/LaN_branch2/kernelSigma/v","shape":[16,16],"dtype":"float32","group":"optimizer"},{"name":"policy-model_head0/LaN_preNorm/scale/v","shape":[16],"dtype":"float32","group":"optimizer"},{"name":"policy-model_head1/LaN_branch1/biasMu/v","shape":[16],"dtype":"float32","group":"optimizer"},{"name":"policy-model_head1/LaN_branch1/biasSigma/v","shape":[16],"dtype":"float32","group":"optimizer"},{"name":"policy-model_head1/LaN_branch1/kernelMu/v","shape":[16,16],"dtype":"float32","group":"optimizer"},{"name":"policy-model_head1/LaN_branch1/kernelSigma/v","shape":[16,16],"dtype":"float32","group":"optimizer"},{"name":"policy-model_head1/LaN_branch2/biasMu/v","shape":[16],"dtype":"float32","group":"optimizer"},{"name":"policy-model_head1/LaN_branch2/biasSigma/v","shape":[16],"dtype":"float32","group":"optimizer"},{"name":"policy-model_head1/LaN_branch2/kernelMu/v","shape":[16,16],"dtype":"float32","group":"optimizer"},{"name":"policy-model_head1/LaN_branch2/kernelSigma/v","shape":[16,16],"dtype":"float32","group":"optimizer"},{"name":"policy-model_head1/LaN_preNorm/scale/v","shape":[16],"dtype":"float32","group":"optimizer"},{"name":"policy-model_head2/LaN_branch1/biasMu/v","shape":[16],"dtype":"float32","group":"optimizer"},{"name":"policy-model_head2/LaN_branch1/biasSigma/v","shape":[16],"dtype":"float32","group":"optimizer"},{"name":"policy-model_head2/LaN_branch1/kernelMu/v","shape":[16,16],"dtype":"float32","group":"optimizer"},{"name":"policy-model_head2/LaN_branch1/kernelSigma/v","shape":[16,16],"dtype":"float32","group":"optimizer"},{"name":"policy-model_head2/LaN_branch2/biasMu/v","shape":[16],"dtype":"float32","group":"optimizer"},{"name":"policy-model_head2/LaN_branch2/biasSigma/v","shape":[16],"dtype":"float32","group":"optimizer"},{"name":"policy-model_head2/LaN_branch2/kernelMu/v","shape":[16,16],"dtype":"float32","group":"optimizer"},{"name":"policy-model_head2/LaN_branch2/kernelSigma/v","shape":[16,16],"dtype":"float32","group":"optimizer"},{"name":"policy-model_head2/LaN_preNorm/scale/v","shape":[16],"dtype":"float32","group":"optimizer"},{"name":"policy-model_head3/LaN_branch1/biasMu/v","shape":[16],"dtype":"float32","group":"optimizer"},{"name":"policy-model_head3/LaN_branch1/biasSigma/v","shape":[16],"dtype":"float32","group":"optimizer"},{"name":"policy-model_head3/LaN_branch1/kernelMu/v","shape":[16,16],"dtype":"float32","group":"optimizer"},{"name":"policy-model_head3/LaN_branch1/kernelSigma/v","shape":[16,16],"dtype":"float32","group":"optimizer"},{"name":"policy-model_head3/LaN_branch2/biasMu/v","shape":[16],"dtype":"float32","group":"optimizer"},{"name":"policy-model_head3/LaN_branch2/biasSigma/v","shape":[16],"dtype":"float32","group":"optimizer"},{"name":"policy-model_head3/LaN_branch2/kernelMu/v","shape":[16,16],"dtype":"float32","group":"optimizer"},{"name":"policy-model_head3/LaN_branch2/kernelSigma/v","shape":[16,16],"dtype":"float32","group":"optimizer"},{"name":"policy-model_head3/LaN_preNorm/scale/v","shape":[16],"dtype":"float32","group":"optimizer"},{"name":"policy-model_tankInput_tokProj/kernel/v","shape":[10,16],"dtype":"float32","group":"optimizer"},{"name":"policy-model_tankInput_tokProj/policy-model_tankInput_tokProj_typeEmbedding/variable/v","shape":[16],"dtype":"float32","group":"optimizer"},{"name":"policy-model_transformedTokens/depth0_ffn1/kernel/v","shape":[16,64],"dtype":"float32","group":"optimizer"},{"name":"policy-model_transformedTokens/depth0_ffn2/kernel/v","shape":[64,16],"dtype":"float32","group":"optimizer"},{"name":"policy-model_transformedTokens/depth0_KVNorm_policy-model_contextToken0/policy-model_contextToken0/scale/v","shape":[1,16],"dtype":"float32","group":"optimizer"},{"name":"policy-model_transformedTokens/depth0_ln2/scale/v","shape":[1,16],"dtype":"float32","group":"optimizer"},{"name":"policy-model_transformedTokens/depth0_MultiHeadAttentionLayer/wk/v","shape":[16,16],"dtype":"float32","group":"optimizer"},{"name":"policy-model_transformedTokens/depth0_MultiHeadAttentionLayer/wo/v","shape":[16,16],"dtype":"float32","group":"optimizer"},{"name":"policy-model_transformedTokens/depth0_MultiHeadAttentionLayer/wq/v","shape":[16,16],"dtype":"float32","group":"optimizer"},{"name":"policy-model_transformedTokens/depth0_MultiHeadAttentionLayer/wv/v","shape":[16,16],"dtype":"float32","group":"optimizer"},{"name":"policy-model_transformedTokens/depth0_QNorm_policy-model_contextToken0/policy-model_contextToken0/scale/v","shape":[1,16],"dtype":"float32","group":"optimizer"},{"name":"policy-model_transformedTokens/depth1_ffn1/kernel/v","shape":[16,64],"dtype":"float32","group":"optimizer"},{"name":"policy-model_transformedTokens/depth1_ffn2/kernel/v","shape":[64,16],"dtype":"float32","group":"optimizer"},{"name":"policy-model_transformedTokens/depth1_KVNorm_policy-model_transformedTokens/depth0_ffnAdd/policy-model_transformedTokens/depth0_ffnAdd/scale/v","shape":[1,16],"dtype":"float32","group":"optimizer"},{"name":"policy-model_transformedTokens/depth1_ln2/scale/v","shape":[1,16],"dtype":"float32","group":"optimizer"},{"name":"policy-model_transformedTokens/depth1_MultiHeadAttentionLayer/wk/v","shape":[16,16],"dtype":"float32","group":"optimizer"},{"name":"policy-model_transformedTokens/depth1_MultiHeadAttentionLayer/wo/v","shape":[16,16],"dtype":"float32","group":"optimizer"},{"name":"policy-model_transformedTokens/depth1_MultiHeadAttentionLayer/wq/v","shape":[16,16],"dtype":"float32","group":"optimizer"},{"name":"policy-model_transformedTokens/depth1_MultiHeadAttentionLayer/wv/v","shape":[16,16],"dtype":"float32","group":"optimizer"},{"name":"policy-model_transformedTokens/depth1_QNorm_policy-model_transformedTokens/depth0_ffnAdd/policy-model_transformedTokens/depth0_ffnAdd/scale/v","shape":[1,16],"dtype":"float32","group":"optimizer"},{"name":"policy-model_transformedTokens/depth10_ffn1/kernel/v","shape":[16,64],"dtype":"float32","group":"optimizer"},{"name":"policy-model_transformedTokens/depth10_ffn2/kernel/v","shape":[64,16],"dtype":"float32","group":"optimizer"},{"name":"policy-model_transformedTokens/depth10_KVNorm_policy-model_transformedTokens/depth9_ffnAdd/policy-model_transformedTokens/depth9_ffnAdd/scale/v","shape":[1,16],"dtype":"float32","group":"optimizer"},{"name":"policy-model_transformedTokens/depth10_ln2/scale/v","shape":[1,16],"dtype":"float32","group":"optimizer"},{"name":"policy-model_transformedTokens/depth10_MultiHeadAttentionLayer/wk/v","shape":[16,16],"dtype":"float32","group":"optimizer"},{"name":"policy-model_transformedTokens/depth10_MultiHeadAttentionLayer/wo/v","shape":[16,16],"dtype":"float32","group":"optimizer"},{"name":"policy-model_transformedTokens/depth10_MultiHeadAttentionLayer/wq/v","shape":[16,16],"dtype":"float32","group":"optimizer"},{"name":"policy-model_transformedTokens/depth10_MultiHeadAttentionLayer/wv/v","shape":[16,16],"dtype":"float32","group":"optimizer"},{"name":"policy-model_transformedTokens/depth10_QNorm_policy-model_transformedTokens/depth9_ffnAdd/policy-model_transformedTokens/depth9_ffnAdd/scale/v","shape":[1,16],"dtype":"float32","group":"optimizer"},{"name":"policy-model_transformedTokens/depth11_ffn1/kernel/v","shape":[16,64],"dtype":"float32","group":"optimizer"},{"name":"policy-model_transformedTokens/depth11_ffn2/kernel/v","shape":[64,16],"dtype":"float32","group":"optimizer"},{"name":"policy-model_transformedTokens/depth11_KVNorm_policy-model_transformedTokens/depth10_ffnAdd/policy-model_transformedTokens/depth10_ffnAdd/scale/v","shape":[1,16],"dtype":"float32","group":"optimizer"},{"name":"policy-model_transformedTokens/depth11_ln2/scale/v","shape":[1,16],"dtype":"float32","group":"optimizer"},{"name":"policy-model_transformedTokens/depth11_MultiHeadAttentionLayer/wk/v","shape":[16,16],"dtype":"float32","group":"optimizer"},{"name":"policy-model_transformedTokens/depth11_MultiHeadAttentionLayer/wo/v","shape":[16,16],"dtype":"float32","group":"optimizer"},{"name":"policy-model_transformedTokens/depth11_MultiHeadAttentionLayer/wq/v","shape":[16,16],"dtype":"float32","group":"optimizer"},{"name":"policy-model_transformedTokens/depth11_MultiHeadAttentionLayer/wv/v","shape":[16,16],"dtype":"float32","group":"optimizer"},{"name":"policy-model_transformedTokens/depth11_QNorm_policy-model_transformedTokens/depth10_ffnAdd/policy-model_transformedTokens/depth10_ffnAdd/scale/v","shape":[1,16],"dtype":"float32","group":"optimizer"},{"name":"policy-model_transformedTokens/depth2_ffn1/kernel/v","shape":[16,64],"dtype":"float32","group":"optimizer"},{"name":"policy-model_transformedTokens/depth2_ffn2/kernel/v","shape":[64,16],"dtype":"float32","group":"optimizer"},{"name":"policy-model_transformedTokens/depth2_KVNorm_policy-model_transformedTokens/depth1_ffnAdd/policy-model_transformedTokens/depth1_ffnAdd/scale/v","shape":[1,16],"dtype":"float32","group":"optimizer"},{"name":"policy-model_transformedTokens/depth2_ln2/scale/v","shape":[1,16],"dtype":"float32","group":"optimizer"},{"name":"policy-model_transformedTokens/depth2_MultiHeadAttentionLayer/wk/v","shape":[16,16],"dtype":"float32","group":"optimizer"},{"name":"policy-model_transformedTokens/depth2_MultiHeadAttentionLayer/wo/v","shape":[16,16],"dtype":"float32","group":"optimizer"},{"name":"policy-model_transformedTokens/depth2_MultiHeadAttentionLayer/wq/v","shape":[16,16],"dtype":"float32","group":"optimizer"},{"name":"policy-model_transformedTokens/depth2_MultiHeadAttentionLayer/wv/v","shape":[16,16],"dtype":"float32","group":"optimizer"},{"name":"policy-model_transformedTokens/depth2_QNorm_policy-model_transformedTokens/depth1_ffnAdd/policy-model_transformedTokens/depth1_ffnAdd/scale/v","shape":[1,16],"dtype":"float32","group":"optimizer"},{"name":"policy-model_transformedTokens/depth3_ffn1/kernel/v","shape":[16,64],"dtype":"float32","group":"optimizer"},{"name":"policy-model_transformedTokens/depth3_ffn2/kernel/v","shape":[64,16],"dtype":"float32","group":"optimizer"},{"name":"policy-model_transformedTokens/depth3_KVNorm_policy-model_transformedTokens/depth2_ffnAdd/policy-model_transformedTokens/depth2_ffnAdd/scale/v","shape":[1,16],"dtype":"float32","group":"optimizer"},{"name":"policy-model_transformedTokens/depth3_ln2/scale/v","shape":[1,16],"dtype":"float32","group":"optimizer"},{"name":"policy-model_transformedTokens/depth3_MultiHeadAttentionLayer/wk/v","shape":[16,16],"dtype":"float32","group":"optimizer"},{"name":"policy-model_transformedTokens/depth3_MultiHeadAttentionLayer/wo/v","shape":[16,16],"dtype":"float32","group":"optimizer"},{"name":"policy-model_transformedTokens/depth3_MultiHeadAttentionLayer/wq/v","shape":[16,16],"dtype":"float32","group":"optimizer"},{"name":"policy-model_transformedTokens/depth3_MultiHeadAttentionLayer/wv/v","shape":[16,16],"dtype":"float32","group":"optimizer"},{"name":"policy-model_transformedTokens/depth3_QNorm_policy-model_transformedTokens/depth2_ffnAdd/policy-model_transformedTokens/depth2_ffnAdd/scale/v","shape":[1,16],"dtype":"float32","group":"optimizer"},{"name":"policy-model_transformedTokens/depth4_ffn1/kernel/v","shape":[16,64],"dtype":"float32","group":"optimizer"},{"name":"policy-model_transformedTokens/depth4_ffn2/kernel/v","shape":[64,16],"dtype":"float32","group":"optimizer"},{"name":"policy-model_transformedTokens/depth4_KVNorm_policy-model_transformedTokens/depth3_ffnAdd/policy-model_transformedTokens/depth3_ffnAdd/scale/v","shape":[1,16],"dtype":"float32","group":"optimizer"},{"name":"policy-model_transformedTokens/depth4_ln2/scale/v","shape":[1,16],"dtype":"float32","group":"optimizer"},{"name":"policy-model_transformedTokens/depth4_MultiHeadAttentionLayer/wk/v","shape":[16,16],"dtype":"float32","group":"optimizer"},{"name":"policy-model_transformedTokens/depth4_MultiHeadAttentionLayer/wo/v","shape":[16,16],"dtype":"float32","group":"optimizer"},{"name":"policy-model_transformedTokens/depth4_MultiHeadAttentionLayer/wq/v","shape":[16,16],"dtype":"float32","group":"optimizer"},{"name":"policy-model_transformedTokens/depth4_MultiHeadAttentionLayer/wv/v","shape":[16,16],"dtype":"float32","group":"optimizer"},{"name":"policy-model_transformedTokens/depth4_QNorm_policy-model_transformedTokens/depth3_ffnAdd/policy-model_transformedTokens/depth3_ffnAdd/scale/v","shape":[1,16],"dtype":"float32","group":"optimizer"},{"name":"policy-model_transformedTokens/depth5_ffn1/kernel/v","shape":[16,64],"dtype":"float32","group":"optimizer"},{"name":"policy-model_transformedTokens/depth5_ffn2/kernel/v","shape":[64,16],"dtype":"float32","group":"optimizer"},{"name":"policy-model_transformedTokens/depth5_KVNorm_policy-model_transformedTokens/depth4_ffnAdd/policy-model_transformedTokens/depth4_ffnAdd/scale/v","shape":[1,16],"dtype":"float32","group":"optimizer"},{"name":"policy-model_transformedTokens/depth5_ln2/scale/v","shape":[1,16],"dtype":"float32","group":"optimizer"},{"name":"policy-model_transformedTokens/depth5_MultiHeadAttentionLayer/wk/v","shape":[16,16],"dtype":"float32","group":"optimizer"},{"name":"policy-model_transformedTokens/depth5_MultiHeadAttentionLayer/wo/v","shape":[16,16],"dtype":"float32","group":"optimizer"},{"name":"policy-model_transformedTokens/depth5_MultiHeadAttentionLayer/wq/v","shape":[16,16],"dtype":"float32","group":"optimizer"},{"name":"policy-model_transformedTokens/depth5_MultiHeadAttentionLayer/wv/v","shape":[16,16],"dtype":"float32","group":"optimizer"},{"name":"policy-model_transformedTokens/depth5_QNorm_policy-model_transformedTokens/depth4_ffnAdd/policy-model_transformedTokens/depth4_ffnAdd/scale/v","shape":[1,16],"dtype":"float32","group":"optimizer"},{"name":"policy-model_transformedTokens/depth6_ffn1/kernel/v","shape":[16,64],"dtype":"float32","group":"optimizer"},{"name":"policy-model_transformedTokens/depth6_ffn2/kernel/v","shape":[64,16],"dtype":"float32","group":"optimizer"},{"name":"policy-model_transformedTokens/depth6_KVNorm_policy-model_transformedTokens/depth5_ffnAdd/policy-model_transformedTokens/depth5_ffnAdd/scale/v","shape":[1,16],"dtype":"float32","group":"optimizer"},{"name":"policy-model_transformedTokens/depth6_ln2/scale/v","shape":[1,16],"dtype":"float32","group":"optimizer"},{"name":"policy-model_transformedTokens/depth6_MultiHeadAttentionLayer/wk/v","shape":[16,16],"dtype":"float32","group":"optimizer"},{"name":"policy-model_transformedTokens/depth6_MultiHeadAttentionLayer/wo/v","shape":[16,16],"dtype":"float32","group":"optimizer"},{"name":"policy-model_transformedTokens/depth6_MultiHeadAttentionLayer/wq/v","shape":[16,16],"dtype":"float32","group":"optimizer"},{"name":"policy-model_transformedTokens/depth6_MultiHeadAttentionLayer/wv/v","shape":[16,16],"dtype":"float32","group":"optimizer"},{"name":"policy-model_transformedTokens/depth6_QNorm_policy-model_transformedTokens/depth5_ffnAdd/policy-model_transformedTokens/depth5_ffnAdd/scale/v","shape":[1,16],"dtype":"float32","group":"optimizer"},{"name":"policy-model_transformedTokens/depth7_ffn1/kernel/v","shape":[16,64],"dtype":"float32","group":"optimizer"},{"name":"policy-model_transformedTokens/depth7_ffn2/kernel/v","shape":[64,16],"dtype":"float32","group":"optimizer"},{"name":"policy-model_transformedTokens/depth7_KVNorm_policy-model_transformedTokens/depth6_ffnAdd/policy-model_transformedTokens/depth6_ffnAdd/scale/v","shape":[1,16],"dtype":"float32","group":"optimizer"},{"name":"policy-model_transformedTokens/depth7_ln2/scale/v","shape":[1,16],"dtype":"float32","group":"optimizer"},{"name":"policy-model_transformedTokens/depth7_MultiHeadAttentionLayer/wk/v","shape":[16,16],"dtype":"float32","group":"optimizer"},{"name":"policy-model_transformedTokens/depth7_MultiHeadAttentionLayer/wo/v","shape":[16,16],"dtype":"float32","group":"optimizer"},{"name":"policy-model_transformedTokens/depth7_MultiHeadAttentionLayer/wq/v","shape":[16,16],"dtype":"float32","group":"optimizer"},{"name":"policy-model_transformedTokens/depth7_MultiHeadAttentionLayer/wv/v","shape":[16,16],"dtype":"float32","group":"optimizer"},{"name":"policy-model_transformedTokens/depth7_QNorm_policy-model_transformedTokens/depth6_ffnAdd/policy-model_transformedTokens/depth6_ffnAdd/scale/v","shape":[1,16],"dtype":"float32","group":"optimizer"},{"name":"policy-model_transformedTokens/depth8_ffn1/kernel/v","shape":[16,64],"dtype":"float32","group":"optimizer"},{"name":"policy-model_transformedTokens/depth8_ffn2/kernel/v","shape":[64,16],"dtype":"float32","group":"optimizer"},{"name":"policy-model_transformedTokens/depth8_KVNorm_policy-model_transformedTokens/depth7_ffnAdd/policy-model_transformedTokens/depth7_ffnAdd/scale/v","shape":[1,16],"dtype":"float32","group":"optimizer"},{"name":"policy-model_transformedTokens/depth8_ln2/scale/v","shape":[1,16],"dtype":"float32","group":"optimizer"},{"name":"policy-model_transformedTokens/depth8_MultiHeadAttentionLayer/wk/v","shape":[16,16],"dtype":"float32","group":"optimizer"},{"name":"policy-model_transformedTokens/depth8_MultiHeadAttentionLayer/wo/v","shape":[16,16],"dtype":"float32","group":"optimizer"},{"name":"policy-model_transformedTokens/depth8_MultiHeadAttentionLayer/wq/v","shape":[16,16],"dtype":"float32","group":"optimizer"},{"name":"policy-model_transformedTokens/depth8_MultiHeadAttentionLayer/wv/v","shape":[16,16],"dtype":"float32","group":"optimizer"},{"name":"policy-model_transformedTokens/depth8_QNorm_policy-model_transformedTokens/depth7_ffnAdd/policy-model_transformedTokens/depth7_ffnAdd/scale/v","shape":[1,16],"dtype":"float32","group":"optimizer"},{"name":"policy-model_transformedTokens/depth9_ffn1/kernel/v","shape":[16,64],"dtype":"float32","group":"optimizer"},{"name":"policy-model_transformedTokens/depth9_ffn2/kernel/v","shape":[64,16],"dtype":"float32","group":"optimizer"},{"name":"policy-model_transformedTokens/depth9_KVNorm_policy-model_transformedTokens/depth8_ffnAdd/policy-model_transformedTokens/depth8_ffnAdd/scale/v","shape":[1,16],"dtype":"float32","group":"optimizer"},{"name":"policy-model_transformedTokens/depth9_ln2/scale/v","shape":[1,16],"dtype":"float32","group":"optimizer"},{"name":"policy-model_transformedTokens/depth9_MultiHeadAttentionLayer/wk/v","shape":[16,16],"dtype":"float32","group":"optimizer"},{"name":"policy-model_transformedTokens/depth9_MultiHeadAttentionLayer/wo/v","shape":[16,16],"dtype":"float32","group":"optimizer"},{"name":"policy-model_transformedTokens/depth9_MultiHeadAttentionLayer/wq/v","shape":[16,16],"dtype":"float32","group":"optimizer"},{"name":"policy-model_transformedTokens/depth9_MultiHeadAttentionLayer/wv/v","shape":[16,16],"dtype":"float32","group":"optimizer"},{"name":"policy-model_transformedTokens/depth9_QNorm_policy-model_transformedTokens/depth8_ffnAdd/policy-model_transformedTokens/depth8_ffnAdd/scale/v","shape":[1,16],"dtype":"float32","group":"optimizer"}]}],"userDefinedMetadata":{"curriculumState":{"iteration":1675823,"mapScenarioIndexToSuccessRatio":{"0":0.5515590087178815,"1":0.2590700945372687}},"lr":0.001,"expIteration":1680000,"emaStdReturns":1.522155741692186,"rewardRatio":0.06801746098350925},"trainingConfig":{"loss":"mean_squared_error","metrics":{},"optimizer_config":{"class_name":"AdamW","config":{"learningRate":0.001,"beta1":0.9,"beta2":0.999,"epsilon":1e-7,"weightDecay":0.0001}}}}