{"modelTopology":{"class_name":"Model","config":{"name":"policy-model","layers":[{"name":"policy-model_tankInput","class_name":"InputLayer","config":{"batch_input_shape":[null,10],"dtype":"float32","sparse":false,"name":"policy-model_tankInput"},"inbound_nodes":[]},{"name":"policy-model_tankInput_tokProj","class_name":"Dense","config":{"units":16,"activation":"linear","use_bias":false,"kernel_initializer":{"class_name":"VarianceScaling","config":{"scale":1,"mode":"fan_avg","distribution":"normal","seed":null}},"bias_initializer":{"class_name":"Zeros","config":{}},"kernel_regularizer":null,"bias_regularizer":null,"activity_regularizer":null,"kernel_constraint":null,"bias_constraint":null,"name":"policy-model_tankInput_tokProj","trainable":true},"inbound_nodes":[[["policy-model_tankInput",0,0,{}]]]},{"name":"policy-model_turretRaysInput","class_name":"InputLayer","config":{"batch_input_shape":[null,1,9],"dtype":"float32","sparse":false,"name":"policy-model_turretRaysInput"},"inbound_nodes":[]},{"name":"policy-model_bulletsInput","class_name":"InputLayer","config":{"batch_input_shape":[null,8,4],"dtype":"float32","sparse":false,"name":"policy-model_bulletsInput"},"inbound_nodes":[]},{"name":"policy-model_envRaysInput","class_name":"InputLayer","config":{"batch_input_shape":[null,12,6],"dtype":"float32","sparse":false,"name":"policy-model_envRaysInput"},"inbound_nodes":[]},{"name":"policy-model_tankInput_tokProj/policy-model_tankInput_tokProj_typeEmbedding","class_name":"VariableLayer","config":{"name":"policy-model_tankInput_tokProj/policy-model_tankInput_tokProj_typeEmbedding","trainable":true,"shape":[16],"initializer":{"class_name":"VarianceScaling","config":{"scale":1,"mode":"fan_avg","distribution":"normal","seed":null}}},"inbound_nodes":[[["policy-model_tankInput_tokProj",0,0,{}]]]},{"name":"policy-model_turretRaysInput_tokProj","class_name":"Dense","config":{"units":16,"activation":"linear","use_bias":false,"kernel_initializer":{"class_name":"VarianceScaling","config":{"scale":1,"mode":"fan_avg","distribution":"normal","seed":null}},"bias_initializer":{"class_name":"Zeros","config":{}},"kernel_regularizer":null,"bias_regularizer":null,"activity_regularizer":null,"kernel_constraint":null,"bias_constraint":null,"name":"policy-model_turretRaysInput_tokProj","trainable":true},"inbound_nodes":[[["policy-model_turretRaysInput",0,0,{}]]]},{"name":"policy-model_bulletsInput_tokProj","class_name":"Dense","config":{"units":16,"activation":"linear","use_bias":false,"kernel_initializer":{"class_name":"VarianceScaling","config":{"scale":1,"mode":"fan_avg","distribution":"normal","seed":null}},"bias_initializer":{"class_name":"Zeros","config":{}},"kernel_regularizer":null,"bias_regularizer":null,"activity_regularizer":null,"kernel_constraint":null,"bias_constraint":null,"name":"policy-model_bulletsInput_tokProj","trainable":true},"inbound_nodes":[[["policy-model_bulletsInput",0,0,{}]]]},{"name":"policy-model_envRaysInput_tokProj","class_name":"Dense","config":{"units":16,"activation":"linear","use_bias":false,"kernel_initializer":{"class_name":"VarianceScaling","config":{"scale":1,"mode":"fan_avg","distribution":"normal","seed":null}},"bias_initializer":{"class_name":"Zeros","config":{}},"kernel_regularizer":null,"bias_regularizer":null,"activity_regularizer":null,"kernel_constraint":null,"bias_constraint":null,"name":"policy-model_envRaysInput_tokProj","trainable":true},"inbound_nodes":[[["policy-model_envRaysInput",0,0,{}]]]},{"name":"policy-model_alliesInput","class_name":"InputLayer","config":{"batch_input_shape":[null,5,3],"dtype":"float32","sparse":false,"name":"policy-model_alliesInput"},"inbound_nodes":[]},{"name":"policy-model_enemiesInput","class_name":"InputLayer","config":{"batch_input_shape":[null,5,3],"dtype":"float32","sparse":false,"name":"policy-model_enemiesInput"},"inbound_nodes":[]},{"name":"policy-model_tankInput_tokProj/policy-model_tankInput_tokProj_withTypeEmbedding","class_name":"Add","config":{"name":"policy-model_tankInput_tokProj/policy-model_tankInput_tokProj_withTypeEmbedding","trainable":true},"inbound_nodes":[[["policy-model_tankInput_tokProj",0,0,{}],["policy-model_tankInput_tokProj/policy-model_tankInput_tokProj_typeEmbedding",0,0,{}]]]},{"name":"policy-model_turretRaysInput_tokProj/policy-model_turretRaysInput_tokProj_typeEmbedding","class_name":"VariableLayer","config":{"name":"policy-model_turretRaysInput_tokProj/policy-model_turretRaysInput_tokProj_typeEmbedding","trainable":true,"shape":[16],"initializer":{"class_name":"VarianceScaling","config":{"scale":1,"mode":"fan_avg","distribution":"normal","seed":null}}},"inbound_nodes":[[["policy-model_turretRaysInput_tokProj",0,0,{}]]]},{"name":"policy-model_turretRaysTypes","class_name":"InputLayer","config":{"batch_input_shape":[null,1],"dtype":"float32","sparse":false,"name":"policy-model_turretRaysTypes"},"inbound_nodes":[]},{"name":"policy-model_clsBulletsToken","class_name":"VariableLayer","config":{"name":"policy-model_clsBulletsToken","trainable":true,"shape":[1,16],"initializer":{"class_name":"TruncatedNormal","config":{"mean":0,"stddev":0.05,"seed":null}}},"inbound_nodes":[[["policy-model_bulletsInput_tokProj",0,0,{}]]]},{"name":"policy-model_envRaysInput_tokProj/policy-model_envRaysInput_tokProj_typeEmbedding","class_name":"VariableLayer","config":{"name":"policy-model_envRaysInput_tokProj/policy-model_envRaysInput_tokProj_typeEmbedding","trainable":true,"shape":[16],"initializer":{"class_name":"VarianceScaling","config":{"scale":1,"mode":"fan_avg","distribution":"normal","seed":null}}},"inbound_nodes":[[["policy-model_envRaysInput_tokProj",0,0,{}]]]},{"name":"policy-model_envRaysTypes","class_name":"InputLayer","config":{"batch_input_shape":[null,12],"dtype":"float32","sparse":false,"name":"policy-model_envRaysTypes"},"inbound_nodes":[]},{"name":"policy-model_alliesInput_tokProj","class_name":"Dense","config":{"units":16,"activation":"linear","use_bias":false,"kernel_initializer":{"class_name":"VarianceScaling","config":{"scale":1,"mode":"fan_avg","distribution":"normal","seed":null}},"bias_initializer":{"class_name":"Zeros","config":{}},"kernel_regularizer":null,"bias_regularizer":null,"activity_regularizer":null,"kernel_constraint":null,"bias_constraint":null,"name":"policy-model_alliesInput_tokProj","trainable":true},"inbound_nodes":[[["policy-model_alliesInput",0,0,{}]]]},{"name":"policy-model_enemiesInput_tokProj","class_name":"Dense","config":{"units":16,"activation":"linear","use_bias":false,"kernel_initializer":{"class_name":"VarianceScaling","config":{"scale":1,"mode":"fan_avg","distribution":"normal","seed":null}},"bias_initializer":{"class_name":"Zeros","config":{}},"kernel_regularizer":null,"bias_regularizer":null,"activity_regularizer":null,"kernel_constraint":null,"bias_constraint":null,"name":"policy-model_enemiesInput_tokProj","trainable":true},"inbound_nodes":[[["policy-model_enemiesInput",0,0,{}]]]},{"name":"policy-model_tankInput_tokProj/policy-model_tankInput_tokProj_withTypeEmbedding/policy-model_tankInput_tokProj/policy-model_tankInput_tokProj_withTypeEmbedding_reshape","class_name":"Reshape","config":{"target_shape":[1,16],"name":"policy-model_tankInput_tokProj/policy-model_tankInput_tokProj_withTypeEmbedding/policy-model_tankInput_tokProj/policy-model_tankInput_tokProj_withTypeEmbedding_reshape","trainable":true},"inbound_nodes":[[["policy-model_tankInput_tokProj/policy-model_tankInput_tokProj_withTypeEmbedding",0,0,{}]]]},{"name":"policy-model_turretRaysInput_tokProj/policy-model_turretRaysInput_tokProj_withTypeEmbedding","class_name":"Add","config":{"name":"policy-model_turretRaysInput_tokProj/policy-model_turretRaysInput_tokProj_withTypeEmbedding","trainable":true},"inbound_nodes":[[["policy-model_turretRaysInput_tokProj",0,0,{}],["policy-model_turretRaysInput_tokProj/policy-model_turretRaysInput_tokProj_typeEmbedding",0,0,{}]]]},{"name":"rayHitType_sharedEmbedding","class_name":"Embedding","config":{"input_dim":4,"output_dim":16,"embeddings_initializer":{"class_name":"VarianceScaling","config":{"scale":1,"mode":"fan_avg","distribution":"normal","seed":null}},"embeddings_regularizer":null,"activity_regularizer":null,"embeddings_constraint":null,"mask_zero":null,"input_length":null,"name":"rayHitType_sharedEmbedding","trainable":true,"batch_input_shape":[null,null],"dtype":"float32"},"inbound_nodes":[[["policy-model_envRaysTypes",0,0,{}]],[["policy-model_turretRaysTypes",0,0,{}]]]},{"name":"policy-model_clsBulletsToken/policy-model_clsBulletsToken_qMaskLike","class_name":"MaskLike","config":{"name":"policy-model_clsBulletsToken/policy-model_clsBulletsToken_qMaskLike","trainable":true},"inbound_nodes":[[["policy-model_clsBulletsToken",0,0,{}]]]},{"name":"policy-model_bulletsMaskInput","class_name":"InputLayer","config":{"batch_input_shape":[null,8],"dtype":"float32","sparse":false,"name":"policy-model_bulletsMaskInput"},"inbound_nodes":[]},{"name":"policy-model_envRaysInput_tokProj/policy-model_envRaysInput_tokProj_withTypeEmbedding","class_name":"Add","config":{"name":"policy-model_envRaysInput_tokProj/policy-model_envRaysInput_tokProj_withTypeEmbedding","trainable":true},"inbound_nodes":[[["policy-model_envRaysInput_tokProj",0,0,{}],["policy-model_envRaysInput_tokProj/policy-model_envRaysInput_tokProj_typeEmbedding",0,0,{}]]]},{"name":"policy-model_alliesInput_tokProj/policy-model_alliesInput_tokProj_typeEmbedding","class_name":"VariableLayer","config":{"name":"policy-model_alliesInput_tokProj/policy-model_alliesInput_tokProj_typeEmbedding","trainable":true,"shape":[16],"initializer":{"class_name":"VarianceScaling","config":{"scale":1,"mode":"fan_avg","distribution":"normal","seed":null}}},"inbound_nodes":[[["policy-model_alliesInput_tokProj",0,0,{}]]]},{"name":"policy-model_enemiesInput_tokProj/policy-model_enemiesInput_tokProj_typeEmbedding","class_name":"VariableLayer","config":{"name":"policy-model_enemiesInput_tokProj/policy-model_enemiesInput_tokProj_typeEmbedding","trainable":true,"shape":[16],"initializer":{"class_name":"VarianceScaling","config":{"scale":1,"mode":"fan_avg","distribution":"normal","seed":null}}},"inbound_nodes":[[["policy-model_enemiesInput_tokProj",0,0,{}]]]},{"name":"policy-model_clsToken","class_name":"VariableLayer","config":{"name":"policy-model_clsToken","trainable":true,"shape":[1,16],"initializer":{"class_name":"TruncatedNormal","config":{"mean":0,"stddev":0.05,"seed":null}}},"inbound_nodes":[[["policy-model_tankInput_tokProj/policy-model_tankInput_tokProj_withTypeEmbedding/policy-model_tankInput_tokProj/policy-model_tankInput_tokProj_withTypeEmbedding_reshape",0,0,{}]]]},{"name":"turretRays_withHitTypeEmbedding","class_name":"Add","config":{"name":"turretRays_withHitTypeEmbedding","trainable":true},"inbound_nodes":[[["policy-model_turretRaysInput_tokProj/policy-model_turretRaysInput_tokProj_withTypeEmbedding",0,0,{}],["rayHitType_sharedEmbedding",1,0,{}]]]},{"name":"policy-model_clsBulletsAttention_MultiHeadAttentionLayer","class_name":"MultiHeadAttention","config":{"name":"policy-model_clsBulletsAttention_MultiHeadAttentionLayer","trainable":true,"key_dim":16,"num_heads":1},"inbound_nodes":[[["policy-model_clsBulletsToken",0,0,{}],["policy-model_clsBulletsToken/policy-model_clsBulletsToken_qMaskLike",0,0,{}],["policy-model_bulletsInput_tokProj",0,0,{}],["policy-model_bulletsMaskInput",0,0,{}]]]},{"name":"envRays_withHitTypeEmbedding","class_name":"Add","config":{"name":"envRays_withHitTypeEmbedding","trainable":true},"inbound_nodes":[[["policy-model_envRaysInput_tokProj/policy-model_envRaysInput_tokProj_withTypeEmbedding",0,0,{}],["rayHitType_sharedEmbedding",0,0,{}]]]},{"name":"policy-model_alliesInput_tokProj/policy-model_alliesInput_tokProj_withTypeEmbedding","class_name":"Add","config":{"name":"policy-model_alliesInput_tokProj/policy-model_alliesInput_tokProj_withTypeEmbedding","trainable":true},"inbound_nodes":[[["policy-model_alliesInput_tokProj",0,0,{}],["policy-model_alliesInput_tokProj/policy-model_alliesInput_tokProj_typeEmbedding",0,0,{}]]]},{"name":"policy-model_enemiesInput_tokProj/policy-model_enemiesInput_tokProj_withTypeEmbedding","class_name":"Add","config":{"name":"policy-model_enemiesInput_tokProj/policy-model_enemiesInput_tokProj_withTypeEmbedding","trainable":true},"inbound_nodes":[[["policy-model_enemiesInput_tokProj",0,0,{}],["policy-model_enemiesInput_tokProj/policy-model_enemiesInput_tokProj_typeEmbedding",0,0,{}]]]},{"name":"policy-model_inputTransformer_contextToken0","class_name":"Concatenate","config":{"axis":1,"name":"policy-model_inputTransformer_contextToken0","trainable":true},"inbound_nodes":[[["policy-model_clsToken",0,0,{}],["policy-model_tankInput_tokProj/policy-model_tankInput_tokProj_withTypeEmbedding/policy-model_tankInput_tokProj/policy-model_tankInput_tokProj_withTypeEmbedding_reshape",0,0,{}],["turretRays_withHitTypeEmbedding",0,0,{}],["policy-model_clsBulletsAttention_MultiHeadAttentionLayer",0,0,{}],["envRays_withHitTypeEmbedding",0,0,{}],["policy-model_alliesInput_tokProj/policy-model_alliesInput_tokProj_withTypeEmbedding",0,0,{}],["policy-model_enemiesInput_tokProj/policy-model_enemiesInput_tokProj_withTypeEmbedding",0,0,{}]]]},{"name":"policy-model_maskLike","class_name":"MaskLike","config":{"name":"policy-model_maskLike","trainable":true},"inbound_nodes":[[["policy-model_tankInput_tokProj/policy-model_tankInput_tokProj_withTypeEmbedding/policy-model_tankInput_tokProj/policy-model_tankInput_tokProj_withTypeEmbedding_reshape",0,0,{}]],[["envRays_withHitTypeEmbedding",0,0,{}]],[["turretRays_withHitTypeEmbedding",0,0,{}]],[["policy-model_tankInput_tokProj/policy-model_tankInput_tokProj_withTypeEmbedding/policy-model_tankInput_tokProj/policy-model_tankInput_tokProj_withTypeEmbedding_reshape",0,0,{}]],[["envRays_withHitTypeEmbedding",0,0,{}]],[["turretRays_withHitTypeEmbedding",0,0,{}]],[["policy-model_tankInput_tokProj/policy-model_tankInput_tokProj_withTypeEmbedding/policy-model_tankInput_tokProj/policy-model_tankInput_tokProj_withTypeEmbedding_reshape",0,0,{}]],[["envRays_withHitTypeEmbedding",0,0,{}]],[["turretRays_withHitTypeEmbedding",0,0,{}]],[["policy-model_tankInput_tokProj/policy-model_tankInput_tokProj_withTypeEmbedding/policy-model_tankInput_tokProj/policy-model_tankInput_tokProj_withTypeEmbedding_reshape",0,0,{}]],[["envRays_withHitTypeEmbedding",0,0,{}]],[["turretRays_withHitTypeEmbedding",0,0,{}]],[["policy-model_tankInput_tokProj/policy-model_tankInput_tokProj_withTypeEmbedding/policy-model_tankInput_tokProj/policy-model_tankInput_tokProj_withTypeEmbedding_reshape",0,0,{}]],[["envRays_withHitTypeEmbedding",0,0,{}]],[["turretRays_withHitTypeEmbedding",0,0,{}]],[["policy-model_tankInput_tokProj/policy-model_tankInput_tokProj_withTypeEmbedding/policy-model_tankInput_tokProj/policy-model_tankInput_tokProj_withTypeEmbedding_reshape",0,0,{}]],[["envRays_withHitTypeEmbedding",0,0,{}]],[["turretRays_withHitTypeEmbedding",0,0,{}]],[["policy-model_tankInput_tokProj/policy-model_tankInput_tokProj_withTypeEmbedding/policy-model_tankInput_tokProj/policy-model_tankInput_tokProj_withTypeEmbedding_reshape",0,0,{}]],[["envRays_withHitTypeEmbedding",0,0,{}]],[["turretRays_withHitTypeEmbedding",0,0,{}]],[["policy-model_tankInput_tokProj/policy-model_tankInput_tokProj_withTypeEmbedding/policy-model_tankInput_tokProj/policy-model_tankInput_tokProj_withTypeEmbedding_reshape",0,0,{}]],[["envRays_withHitTypeEmbedding",0,0,{}]],[["turretRays_withHitTypeEmbedding",0,0,{}]],[["policy-model_tankInput_tokProj/policy-model_tankInput_tokProj_withTypeEmbedding/policy-model_tankInput_tokProj/policy-model_tankInput_tokProj_withTypeEmbedding_reshape",0,0,{}]],[["envRays_withHitTypeEmbedding",0,0,{}]],[["turretRays_withHitTypeEmbedding",0,0,{}]],[["policy-model_tankInput_tokProj/policy-model_tankInput_tokProj_withTypeEmbedding/policy-model_tankInput_tokProj/policy-model_tankInput_tokProj_withTypeEmbedding_reshape",0,0,{}]],[["envRays_withHitTypeEmbedding",0,0,{}]],[["turretRays_withHitTypeEmbedding",0,0,{}]],[["policy-model_tankInput_tokProj/policy-model_tankInput_tokProj_withTypeEmbedding/policy-model_tankInput_tokProj/policy-model_tankInput_tokProj_withTypeEmbedding_reshape",0,0,{}]],[["envRays_withHitTypeEmbedding",0,0,{}]],[["turretRays_withHitTypeEmbedding",0,0,{}]],[["policy-model_tankInput_tokProj/policy-model_tankInput_tokProj_withTypeEmbedding/policy-model_tankInput_tokProj/policy-model_tankInput_tokProj_withTypeEmbedding_reshape",0,0,{}]],[["envRays_withHitTypeEmbedding",0,0,{}]],[["turretRays_withHitTypeEmbedding",0,0,{}]]]},{"name":"policy-model_maskSquash","class_name":"MaskSquashLayer","config":{"name":"policy-model_maskSquash","trainable":true},"inbound_nodes":[[["policy-model_bulletsMaskInput",0,0,{}]],[["policy-model_bulletsMaskInput",0,0,{}]],[["policy-model_bulletsMaskInput",0,0,{}]],[["policy-model_bulletsMaskInput",0,0,{}]],[["policy-model_bulletsMaskInput",0,0,{}]],[["policy-model_bulletsMaskInput",0,0,{}]],[["policy-model_bulletsMaskInput",0,0,{}]],[["policy-model_bulletsMaskInput",0,0,{}]],[["policy-model_bulletsMaskInput",0,0,{}]],[["policy-model_bulletsMaskInput",0,0,{}]],[["policy-model_bulletsMaskInput",0,0,{}]],[["policy-model_bulletsMaskInput",0,0,{}]]]},{"name":"policy-model_alliesMaskInput","class_name":"InputLayer","config":{"batch_input_shape":[null,5],"dtype":"float32","sparse":false,"name":"policy-model_alliesMaskInput"},"inbound_nodes":[]},{"name":"policy-model_enemiesMaskInput","class_name":"InputLayer","config":{"batch_input_shape":[null,5],"dtype":"float32","sparse":false,"name":"policy-model_enemiesMaskInput"},"inbound_nodes":[]},{"name":"policy-model_inputTransformer/depth0_QNorm_policy-model_inputTransformer_contextToken0/policy-model_inputTransformer_contextToken0","class_name":"RMSNormLayer","config":{"name":"policy-model_inputTransformer/depth0_QNorm_policy-model_inputTransformer_contextToken0/policy-model_inputTransformer_contextToken0","trainable":true,"axis":-1,"epsilon":0.000001,"scale":true},"inbound_nodes":[[["policy-model_inputTransformer_contextToken0",0,0,{}]]]},{"name":"policy-model_inputTransformer/depth0_contextTokenMask0","class_name":"Concatenate","config":{"axis":1,"name":"policy-model_inputTransformer/depth0_contextTokenMask0","trainable":true},"inbound_nodes":[[["policy-model_maskLike",0,0,{}],["policy-model_maskLike",0,0,{}],["policy-model_maskLike",2,0,{}],["policy-model_maskSquash",0,0,{}],["policy-model_maskLike",1,0,{}],["policy-model_alliesMaskInput",0,0,{}],["policy-model_enemiesMaskInput",0,0,{}]]]},{"name":"policy-model_inputTransformer/depth0_KVNorm_policy-model_inputTransformer_contextToken0/policy-model_inputTransformer_contextToken0","class_name":"RMSNormLayer","config":{"name":"policy-model_inputTransformer/depth0_KVNorm_policy-model_inputTransformer_contextToken0/policy-model_inputTransformer_contextToken0","trainable":true,"axis":-1,"epsilon":0.000001,"scale":true},"inbound_nodes":[[["policy-model_inputTransformer_contextToken0",0,0,{}]]]},{"name":"policy-model_inputTransformer/depth0_MultiHeadAttentionLayer","class_name":"MultiHeadAttention","config":{"name":"policy-model_inputTransformer/depth0_MultiHeadAttentionLayer","trainable":true,"key_dim":16,"num_heads":1},"inbound_nodes":[[["policy-model_inputTransformer/depth0_QNorm_policy-model_inputTransformer_contextToken0/policy-model_inputTransformer_contextToken0",0,0,{}],["policy-model_inputTransformer/depth0_contextTokenMask0",0,0,{}],["policy-model_inputTransformer/depth0_KVNorm_policy-model_inputTransformer_contextToken0/policy-model_inputTransformer_contextToken0",0,0,{}],["policy-model_inputTransformer/depth0_contextTokenMask0",0,0,{}]]]},{"name":"policy-model_inputTransformer/depth0_residual","class_name":"Add","config":{"name":"policy-model_inputTransformer/depth0_residual","trainable":true},"inbound_nodes":[[["policy-model_inputTransformer_contextToken0",0,0,{}],["policy-model_inputTransformer/depth0_MultiHeadAttentionLayer",0,0,{}]]]},{"name":"policy-model_inputTransformer/depth0_ln2","class_name":"RMSNormLayer","config":{"name":"policy-model_inputTransformer/depth0_ln2","trainable":true,"axis":-1,"epsilon":0.000001,"scale":true},"inbound_nodes":[[["policy-model_inputTransformer/depth0_residual",0,0,{}]]]},{"name":"policy-model_inputTransformer/depth0_ffn1","class_name":"Dense","config":{"units":64,"activation":"relu","use_bias":false,"kernel_initializer":{"class_name":"VarianceScaling","config":{"scale":1,"mode":"fan_avg","distribution":"normal","seed":null}},"bias_initializer":{"class_name":"Zeros","config":{}},"kernel_regularizer":null,"bias_regularizer":null,"activity_regularizer":null,"kernel_constraint":null,"bias_constraint":null,"name":"policy-model_inputTransformer/depth0_ffn1","trainable":true},"inbound_nodes":[[["policy-model_inputTransformer/depth0_ln2",0,0,{}]]]},{"name":"policy-model_inputTransformer/depth0_ffn2","class_name":"Dense","config":{"units":16,"activation":"linear","use_bias":false,"kernel_initializer":{"class_name":"VarianceScaling","config":{"scale":1,"mode":"fan_avg","distribution":"normal","seed":null}},"bias_initializer":{"class_name":"Zeros","config":{}},"kernel_regularizer":null,"bias_regularizer":null,"activity_regularizer":null,"kernel_constraint":null,"bias_constraint":null,"name":"policy-model_inputTransformer/depth0_ffn2","trainable":true},"inbound_nodes":[[["policy-model_inputTransformer/depth0_ffn1",0,0,{}]]]},{"name":"policy-model_inputTransformer/depth0_ffnAdd","class_name":"Add","config":{"name":"policy-model_inputTransformer/depth0_ffnAdd","trainable":true},"inbound_nodes":[[["policy-model_inputTransformer/depth0_residual",0,0,{}],["policy-model_inputTransformer/depth0_ffn2",0,0,{}]]]},{"name":"policy-model_inputTransformer/depth1_QNorm_policy-model_inputTransformer/depth0_ffnAdd/policy-model_inputTransformer/depth0_ffnAdd","class_name":"RMSNormLayer","config":{"name":"policy-model_inputTransformer/depth1_QNorm_policy-model_inputTransformer/depth0_ffnAdd/policy-model_inputTransformer/depth0_ffnAdd","trainable":true,"axis":-1,"epsilon":0.000001,"scale":true},"inbound_nodes":[[["policy-model_inputTransformer/depth0_ffnAdd",0,0,{}]]]},{"name":"policy-model_inputTransformer/depth1_contextTokenMask1","class_name":"Concatenate","config":{"axis":1,"name":"policy-model_inputTransformer/depth1_contextTokenMask1","trainable":true},"inbound_nodes":[[["policy-model_maskLike",3,0,{}],["policy-model_maskLike",3,0,{}],["policy-model_maskLike",5,0,{}],["policy-model_maskSquash",1,0,{}],["policy-model_maskLike",4,0,{}],["policy-model_alliesMaskInput",0,0,{}],["policy-model_enemiesMaskInput",0,0,{}]]]},{"name":"policy-model_inputTransformer/depth1_KVNorm_policy-model_inputTransformer/depth0_ffnAdd/policy-model_inputTransformer/depth0_ffnAdd","class_name":"RMSNormLayer","config":{"name":"policy-model_inputTransformer/depth1_KVNorm_policy-model_inputTransformer/depth0_ffnAdd/policy-model_inputTransformer/depth0_ffnAdd","trainable":true,"axis":-1,"epsilon":0.000001,"scale":true},"inbound_nodes":[[["policy-model_inputTransformer/depth0_ffnAdd",0,0,{}]]]},{"name":"policy-model_inputTransformer/depth1_MultiHeadAttentionLayer","class_name":"MultiHeadAttention","config":{"name":"policy-model_inputTransformer/depth1_MultiHeadAttentionLayer","trainable":true,"key_dim":16,"num_heads":1},"inbound_nodes":[[["policy-model_inputTransformer/depth1_QNorm_policy-model_inputTransformer/depth0_ffnAdd/policy-model_inputTransformer/depth0_ffnAdd",0,0,{}],["policy-model_inputTransformer/depth1_contextTokenMask1",0,0,{}],["policy-model_inputTransformer/depth1_KVNorm_policy-model_inputTransformer/depth0_ffnAdd/policy-model_inputTransformer/depth0_ffnAdd",0,0,{}],["policy-model_inputTransformer/depth1_contextTokenMask1",0,0,{}]]]},{"name":"policy-model_inputTransformer/depth1_residual","class_name":"Add","config":{"name":"policy-model_inputTransformer/depth1_residual","trainable":true},"inbound_nodes":[[["policy-model_inputTransformer/depth0_ffnAdd",0,0,{}],["policy-model_inputTransformer/depth1_MultiHeadAttentionLayer",0,0,{}]]]},{"name":"policy-model_inputTransformer/depth1_ln2","class_name":"RMSNormLayer","config":{"name":"policy-model_inputTransformer/depth1_ln2","trainable":true,"axis":-1,"epsilon":0.000001,"scale":true},"inbound_nodes":[[["policy-model_inputTransformer/depth1_residual",0,0,{}]]]},{"name":"policy-model_inputTransformer/depth1_ffn1","class_name":"Dense","config":{"units":64,"activation":"relu","use_bias":false,"kernel_initializer":{"class_name":"VarianceScaling","config":{"scale":1,"mode":"fan_avg","distribution":"normal","seed":null}},"bias_initializer":{"class_name":"Zeros","config":{}},"kernel_regularizer":null,"bias_regularizer":null,"activity_regularizer":null,"kernel_constraint":null,"bias_constraint":null,"name":"policy-model_inputTransformer/depth1_ffn1","trainable":true},"inbound_nodes":[[["policy-model_inputTransformer/depth1_ln2",0,0,{}]]]},{"name":"policy-model_inputTransformer/depth1_ffn2","class_name":"Dense","config":{"units":16,"activation":"linear","use_bias":false,"kernel_initializer":{"class_name":"VarianceScaling","config":{"scale":1,"mode":"fan_avg","distribution":"normal","seed":null}},"bias_initializer":{"class_name":"Zeros","config":{}},"kernel_regularizer":null,"bias_regularizer":null,"activity_regularizer":null,"kernel_constraint":null,"bias_constraint":null,"name":"policy-model_inputTransformer/depth1_ffn2","trainable":true},"inbound_nodes":[[["policy-model_inputTransformer/depth1_ffn1",0,0,{}]]]},{"name":"policy-model_inputTransformer/depth1_ffnAdd","class_name":"Add","config":{"name":"policy-model_inputTransformer/depth1_ffnAdd","trainable":true},"inbound_nodes":[[["policy-model_inputTransformer/depth1_residual",0,0,{}],["policy-model_inputTransformer/depth1_ffn2",0,0,{}]]]},{"name":"policy-model_inputTransformer/depth2_QNorm_policy-model_inputTransformer/depth1_ffnAdd/policy-model_inputTransformer/depth1_ffnAdd","class_name":"RMSNormLayer","config":{"name":"policy-model_inputTransformer/depth2_QNorm_policy-model_inputTransformer/depth1_ffnAdd/policy-model_inputTransformer/depth1_ffnAdd","trainable":true,"axis":-1,"epsilon":0.000001,"scale":true},"inbound_nodes":[[["policy-model_inputTransformer/depth1_ffnAdd",0,0,{}]]]},{"name":"policy-model_inputTransformer/depth2_contextTokenMask2","class_name":"Concatenate","config":{"axis":1,"name":"policy-model_inputTransformer/depth2_contextTokenMask2","trainable":true},"inbound_nodes":[[["policy-model_maskLike",6,0,{}],["policy-model_maskLike",6,0,{}],["policy-model_maskLike",8,0,{}],["policy-model_maskSquash",2,0,{}],["policy-model_maskLike",7,0,{}],["policy-model_alliesMaskInput",0,0,{}],["policy-model_enemiesMaskInput",0,0,{}]]]},{"name":"policy-model_inputTransformer/depth2_KVNorm_policy-model_inputTransformer/depth1_ffnAdd/policy-model_inputTransformer/depth1_ffnAdd","class_name":"RMSNormLayer","config":{"name":"policy-model_inputTransformer/depth2_KVNorm_policy-model_inputTransformer/depth1_ffnAdd/policy-model_inputTransformer/depth1_ffnAdd","trainable":true,"axis":-1,"epsilon":0.000001,"scale":true},"inbound_nodes":[[["policy-model_inputTransformer/depth1_ffnAdd",0,0,{}]]]},{"name":"policy-model_inputTransformer/depth2_MultiHeadAttentionLayer","class_name":"MultiHeadAttention","config":{"name":"policy-model_inputTransformer/depth2_MultiHeadAttentionLayer","trainable":true,"key_dim":16,"num_heads":1},"inbound_nodes":[[["policy-model_inputTransformer/depth2_QNorm_policy-model_inputTransformer/depth1_ffnAdd/policy-model_inputTransformer/depth1_ffnAdd",0,0,{}],["policy-model_inputTransformer/depth2_contextTokenMask2",0,0,{}],["policy-model_inputTransformer/depth2_KVNorm_policy-model_inputTransformer/depth1_ffnAdd/policy-model_inputTransformer/depth1_ffnAdd",0,0,{}],["policy-model_inputTransformer/depth2_contextTokenMask2",0,0,{}]]]},{"name":"policy-model_inputTransformer/depth2_residual","class_name":"Add","config":{"name":"policy-model_inputTransformer/depth2_residual","trainable":true},"inbound_nodes":[[["policy-model_inputTransformer/depth1_ffnAdd",0,0,{}],["policy-model_inputTransformer/depth2_MultiHeadAttentionLayer",0,0,{}]]]},{"name":"policy-model_inputTransformer/depth2_ln2","class_name":"RMSNormLayer","config":{"name":"policy-model_inputTransformer/depth2_ln2","trainable":true,"axis":-1,"epsilon":0.000001,"scale":true},"inbound_nodes":[[["policy-model_inputTransformer/depth2_residual",0,0,{}]]]},{"name":"policy-model_inputTransformer/depth2_ffn1","class_name":"Dense","config":{"units":64,"activation":"relu","use_bias":false,"kernel_initializer":{"class_name":"VarianceScaling","config":{"scale":1,"mode":"fan_avg","distribution":"normal","seed":null}},"bias_initializer":{"class_name":"Zeros","config":{}},"kernel_regularizer":null,"bias_regularizer":null,"activity_regularizer":null,"kernel_constraint":null,"bias_constraint":null,"name":"policy-model_inputTransformer/depth2_ffn1","trainable":true},"inbound_nodes":[[["policy-model_inputTransformer/depth2_ln2",0,0,{}]]]},{"name":"policy-model_inputTransformer/depth2_ffn2","class_name":"Dense","config":{"units":16,"activation":"linear","use_bias":false,"kernel_initializer":{"class_name":"VarianceScaling","config":{"scale":1,"mode":"fan_avg","distribution":"normal","seed":null}},"bias_initializer":{"class_name":"Zeros","config":{}},"kernel_regularizer":null,"bias_regularizer":null,"activity_regularizer":null,"kernel_constraint":null,"bias_constraint":null,"name":"policy-model_inputTransformer/depth2_ffn2","trainable":true},"inbound_nodes":[[["policy-model_inputTransformer/depth2_ffn1",0,0,{}]]]},{"name":"policy-model_inputTransformer/depth2_ffnAdd","class_name":"Add","config":{"name":"policy-model_inputTransformer/depth2_ffnAdd","trainable":true},"inbound_nodes":[[["policy-model_inputTransformer/depth2_residual",0,0,{}],["policy-model_inputTransformer/depth2_ffn2",0,0,{}]]]},{"name":"policy-model_inputTransformer/depth3_QNorm_policy-model_inputTransformer/depth2_ffnAdd/policy-model_inputTransformer/depth2_ffnAdd","class_name":"RMSNormLayer","config":{"name":"policy-model_inputTransformer/depth3_QNorm_policy-model_inputTransformer/depth2_ffnAdd/policy-model_inputTransformer/depth2_ffnAdd","trainable":true,"axis":-1,"epsilon":0.000001,"scale":true},"inbound_nodes":[[["policy-model_inputTransformer/depth2_ffnAdd",0,0,{}]]]},{"name":"policy-model_inputTransformer/depth3_contextTokenMask3","class_name":"Concatenate","config":{"axis":1,"name":"policy-model_inputTransformer/depth3_contextTokenMask3","trainable":true},"inbound_nodes":[[["policy-model_maskLike",9,0,{}],["policy-model_maskLike",9,0,{}],["policy-model_maskLike",11,0,{}],["policy-model_maskSquash",3,0,{}],["policy-model_maskLike",10,0,{}],["policy-model_alliesMaskInput",0,0,{}],["policy-model_enemiesMaskInput",0,0,{}]]]},{"name":"policy-model_inputTransformer/depth3_KVNorm_policy-model_inputTransformer/depth2_ffnAdd/policy-model_inputTransformer/depth2_ffnAdd","class_name":"RMSNormLayer","config":{"name":"policy-model_inputTransformer/depth3_KVNorm_policy-model_inputTransformer/depth2_ffnAdd/policy-model_inputTransformer/depth2_ffnAdd","trainable":true,"axis":-1,"epsilon":0.000001,"scale":true},"inbound_nodes":[[["policy-model_inputTransformer/depth2_ffnAdd",0,0,{}]]]},{"name":"policy-model_inputTransformer/depth3_MultiHeadAttentionLayer","class_name":"MultiHeadAttention","config":{"name":"policy-model_inputTransformer/depth3_MultiHeadAttentionLayer","trainable":true,"key_dim":16,"num_heads":1},"inbound_nodes":[[["policy-model_inputTransformer/depth3_QNorm_policy-model_inputTransformer/depth2_ffnAdd/policy-model_inputTransformer/depth2_ffnAdd",0,0,{}],["policy-model_inputTransformer/depth3_contextTokenMask3",0,0,{}],["policy-model_inputTransformer/depth3_KVNorm_policy-model_inputTransformer/depth2_ffnAdd/policy-model_inputTransformer/depth2_ffnAdd",0,0,{}],["policy-model_inputTransformer/depth3_contextTokenMask3",0,0,{}]]]},{"name":"policy-model_inputTransformer/depth3_residual","class_name":"Add","config":{"name":"policy-model_inputTransformer/depth3_residual","trainable":true},"inbound_nodes":[[["policy-model_inputTransformer/depth2_ffnAdd",0,0,{}],["policy-model_inputTransformer/depth3_MultiHeadAttentionLayer",0,0,{}]]]},{"name":"policy-model_inputTransformer/depth3_ln2","class_name":"RMSNormLayer","config":{"name":"policy-model_inputTransformer/depth3_ln2","trainable":true,"axis":-1,"epsilon":0.000001,"scale":true},"inbound_nodes":[[["policy-model_inputTransformer/depth3_residual",0,0,{}]]]},{"name":"policy-model_inputTransformer/depth3_ffn1","class_name":"Dense","config":{"units":64,"activation":"relu","use_bias":false,"kernel_initializer":{"class_name":"VarianceScaling","config":{"scale":1,"mode":"fan_avg","distribution":"normal","seed":null}},"bias_initializer":{"class_name":"Zeros","config":{}},"kernel_regularizer":null,"bias_regularizer":null,"activity_regularizer":null,"kernel_constraint":null,"bias_constraint":null,"name":"policy-model_inputTransformer/depth3_ffn1","trainable":true},"inbound_nodes":[[["policy-model_inputTransformer/depth3_ln2",0,0,{}]]]},{"name":"policy-model_inputTransformer/depth3_ffn2","class_name":"Dense","config":{"units":16,"activation":"linear","use_bias":false,"kernel_initializer":{"class_name":"VarianceScaling","config":{"scale":1,"mode":"fan_avg","distribution":"normal","seed":null}},"bias_initializer":{"class_name":"Zeros","config":{}},"kernel_regularizer":null,"bias_regularizer":null,"activity_regularizer":null,"kernel_constraint":null,"bias_constraint":null,"name":"policy-model_inputTransformer/depth3_ffn2","trainable":true},"inbound_nodes":[[["policy-model_inputTransformer/depth3_ffn1",0,0,{}]]]},{"name":"policy-model_inputTransformer/depth3_ffnAdd","class_name":"Add","config":{"name":"policy-model_inputTransformer/depth3_ffnAdd","trainable":true},"inbound_nodes":[[["policy-model_inputTransformer/depth3_residual",0,0,{}],["policy-model_inputTransformer/depth3_ffn2",0,0,{}]]]},{"name":"policy-model_inputTransformer/depth4_QNorm_policy-model_inputTransformer/depth3_ffnAdd/policy-model_inputTransformer/depth3_ffnAdd","class_name":"RMSNormLayer","config":{"name":"policy-model_inputTransformer/depth4_QNorm_policy-model_inputTransformer/depth3_ffnAdd/policy-model_inputTransformer/depth3_ffnAdd","trainable":true,"axis":-1,"epsilon":0.000001,"scale":true},"inbound_nodes":[[["policy-model_inputTransformer/depth3_ffnAdd",0,0,{}]]]},{"name":"policy-model_inputTransformer/depth4_contextTokenMask4","class_name":"Concatenate","config":{"axis":1,"name":"policy-model_inputTransformer/depth4_contextTokenMask4","trainable":true},"inbound_nodes":[[["policy-model_maskLike",12,0,{}],["policy-model_maskLike",12,0,{}],["policy-model_maskLike",14,0,{}],["policy-model_maskSquash",4,0,{}],["policy-model_maskLike",13,0,{}],["policy-model_alliesMaskInput",0,0,{}],["policy-model_enemiesMaskInput",0,0,{}]]]},{"name":"policy-model_inputTransformer/depth4_KVNorm_policy-model_inputTransformer/depth3_ffnAdd/policy-model_inputTransformer/depth3_ffnAdd","class_name":"RMSNormLayer","config":{"name":"policy-model_inputTransformer/depth4_KVNorm_policy-model_inputTransformer/depth3_ffnAdd/policy-model_inputTransformer/depth3_ffnAdd","trainable":true,"axis":-1,"epsilon":0.000001,"scale":true},"inbound_nodes":[[["policy-model_inputTransformer/depth3_ffnAdd",0,0,{}]]]},{"name":"policy-model_inputTransformer/depth4_MultiHeadAttentionLayer","class_name":"MultiHeadAttention","config":{"name":"policy-model_inputTransformer/depth4_MultiHeadAttentionLayer","trainable":true,"key_dim":16,"num_heads":1},"inbound_nodes":[[["policy-model_inputTransformer/depth4_QNorm_policy-model_inputTransformer/depth3_ffnAdd/policy-model_inputTransformer/depth3_ffnAdd",0,0,{}],["policy-model_inputTransformer/depth4_contextTokenMask4",0,0,{}],["policy-model_inputTransformer/depth4_KVNorm_policy-model_inputTransformer/depth3_ffnAdd/policy-model_inputTransformer/depth3_ffnAdd",0,0,{}],["policy-model_inputTransformer/depth4_contextTokenMask4",0,0,{}]]]},{"name":"policy-model_inputTransformer/depth4_residual","class_name":"Add","config":{"name":"policy-model_inputTransformer/depth4_residual","trainable":true},"inbound_nodes":[[["policy-model_inputTransformer/depth3_ffnAdd",0,0,{}],["policy-model_inputTransformer/depth4_MultiHeadAttentionLayer",0,0,{}]]]},{"name":"policy-model_inputTransformer/depth4_ln2","class_name":"RMSNormLayer","config":{"name":"policy-model_inputTransformer/depth4_ln2","trainable":true,"axis":-1,"epsilon":0.000001,"scale":true},"inbound_nodes":[[["policy-model_inputTransformer/depth4_residual",0,0,{}]]]},{"name":"policy-model_inputTransformer/depth4_ffn1","class_name":"Dense","config":{"units":64,"activation":"relu","use_bias":false,"kernel_initializer":{"class_name":"VarianceScaling","config":{"scale":1,"mode":"fan_avg","distribution":"normal","seed":null}},"bias_initializer":{"class_name":"Zeros","config":{}},"kernel_regularizer":null,"bias_regularizer":null,"activity_regularizer":null,"kernel_constraint":null,"bias_constraint":null,"name":"policy-model_inputTransformer/depth4_ffn1","trainable":true},"inbound_nodes":[[["policy-model_inputTransformer/depth4_ln2",0,0,{}]]]},{"name":"policy-model_inputTransformer/depth4_ffn2","class_name":"Dense","config":{"units":16,"activation":"linear","use_bias":false,"kernel_initializer":{"class_name":"VarianceScaling","config":{"scale":1,"mode":"fan_avg","distribution":"normal","seed":null}},"bias_initializer":{"class_name":"Zeros","config":{}},"kernel_regularizer":null,"bias_regularizer":null,"activity_regularizer":null,"kernel_constraint":null,"bias_constraint":null,"name":"policy-model_inputTransformer/depth4_ffn2","trainable":true},"inbound_nodes":[[["policy-model_inputTransformer/depth4_ffn1",0,0,{}]]]},{"name":"policy-model_inputTransformer/depth4_ffnAdd","class_name":"Add","config":{"name":"policy-model_inputTransformer/depth4_ffnAdd","trainable":true},"inbound_nodes":[[["policy-model_inputTransformer/depth4_residual",0,0,{}],["policy-model_inputTransformer/depth4_ffn2",0,0,{}]]]},{"name":"policy-model_inputTransformer/depth5_QNorm_policy-model_inputTransformer/depth4_ffnAdd/policy-model_inputTransformer/depth4_ffnAdd","class_name":"RMSNormLayer","config":{"name":"policy-model_inputTransformer/depth5_QNorm_policy-model_inputTransformer/depth4_ffnAdd/policy-model_inputTransformer/depth4_ffnAdd","trainable":true,"axis":-1,"epsilon":0.000001,"scale":true},"inbound_nodes":[[["policy-model_inputTransformer/depth4_ffnAdd",0,0,{}]]]},{"name":"policy-model_inputTransformer/depth5_contextTokenMask5","class_name":"Concatenate","config":{"axis":1,"name":"policy-model_inputTransformer/depth5_contextTokenMask5","trainable":true},"inbound_nodes":[[["policy-model_maskLike",15,0,{}],["policy-model_maskLike",15,0,{}],["policy-model_maskLike",17,0,{}],["policy-model_maskSquash",5,0,{}],["policy-model_maskLike",16,0,{}],["policy-model_alliesMaskInput",0,0,{}],["policy-model_enemiesMaskInput",0,0,{}]]]},{"name":"policy-model_inputTransformer/depth5_KVNorm_policy-model_inputTransformer/depth4_ffnAdd/policy-model_inputTransformer/depth4_ffnAdd","class_name":"RMSNormLayer","config":{"name":"policy-model_inputTransformer/depth5_KVNorm_policy-model_inputTransformer/depth4_ffnAdd/policy-model_inputTransformer/depth4_ffnAdd","trainable":true,"axis":-1,"epsilon":0.000001,"scale":true},"inbound_nodes":[[["policy-model_inputTransformer/depth4_ffnAdd",0,0,{}]]]},{"name":"policy-model_inputTransformer/depth5_MultiHeadAttentionLayer","class_name":"MultiHeadAttention","config":{"name":"policy-model_inputTransformer/depth5_MultiHeadAttentionLayer","trainable":true,"key_dim":16,"num_heads":1},"inbound_nodes":[[["policy-model_inputTransformer/depth5_QNorm_policy-model_inputTransformer/depth4_ffnAdd/policy-model_inputTransformer/depth4_ffnAdd",0,0,{}],["policy-model_inputTransformer/depth5_contextTokenMask5",0,0,{}],["policy-model_inputTransformer/depth5_KVNorm_policy-model_inputTransformer/depth4_ffnAdd/policy-model_inputTransformer/depth4_ffnAdd",0,0,{}],["policy-model_inputTransformer/depth5_contextTokenMask5",0,0,{}]]]},{"name":"policy-model_inputTransformer/depth5_residual","class_name":"Add","config":{"name":"policy-model_inputTransformer/depth5_residual","trainable":true},"inbound_nodes":[[["policy-model_inputTransformer/depth4_ffnAdd",0,0,{}],["policy-model_inputTransformer/depth5_MultiHeadAttentionLayer",0,0,{}]]]},{"name":"policy-model_inputTransformer/depth5_ln2","class_name":"RMSNormLayer","config":{"name":"policy-model_inputTransformer/depth5_ln2","trainable":true,"axis":-1,"epsilon":0.000001,"scale":true},"inbound_nodes":[[["policy-model_inputTransformer/depth5_residual",0,0,{}]]]},{"name":"policy-model_inputTransformer/depth5_ffn1","class_name":"Dense","config":{"units":64,"activation":"relu","use_bias":false,"kernel_initializer":{"class_name":"VarianceScaling","config":{"scale":1,"mode":"fan_avg","distribution":"normal","seed":null}},"bias_initializer":{"class_name":"Zeros","config":{}},"kernel_regularizer":null,"bias_regularizer":null,"activity_regularizer":null,"kernel_constraint":null,"bias_constraint":null,"name":"policy-model_inputTransformer/depth5_ffn1","trainable":true},"inbound_nodes":[[["policy-model_inputTransformer/depth5_ln2",0,0,{}]]]},{"name":"policy-model_inputTransformer/depth5_ffn2","class_name":"Dense","config":{"units":16,"activation":"linear","use_bias":false,"kernel_initializer":{"class_name":"VarianceScaling","config":{"scale":1,"mode":"fan_avg","distribution":"normal","seed":null}},"bias_initializer":{"class_name":"Zeros","config":{}},"kernel_regularizer":null,"bias_regularizer":null,"activity_regularizer":null,"kernel_constraint":null,"bias_constraint":null,"name":"policy-model_inputTransformer/depth5_ffn2","trainable":true},"inbound_nodes":[[["policy-model_inputTransformer/depth5_ffn1",0,0,{}]]]},{"name":"policy-model_inputTransformer/depth5_ffnAdd","class_name":"Add","config":{"name":"policy-model_inputTransformer/depth5_ffnAdd","trainable":true},"inbound_nodes":[[["policy-model_inputTransformer/depth5_residual",0,0,{}],["policy-model_inputTransformer/depth5_ffn2",0,0,{}]]]},{"name":"policy-model_inputTransformer/depth6_QNorm_policy-model_inputTransformer/depth5_ffnAdd/policy-model_inputTransformer/depth5_ffnAdd","class_name":"RMSNormLayer","config":{"name":"policy-model_inputTransformer/depth6_QNorm_policy-model_inputTransformer/depth5_ffnAdd/policy-model_inputTransformer/depth5_ffnAdd","trainable":true,"axis":-1,"epsilon":0.000001,"scale":true},"inbound_nodes":[[["policy-model_inputTransformer/depth5_ffnAdd",0,0,{}]]]},{"name":"policy-model_inputTransformer/depth6_contextTokenMask6","class_name":"Concatenate","config":{"axis":1,"name":"policy-model_inputTransformer/depth6_contextTokenMask6","trainable":true},"inbound_nodes":[[["policy-model_maskLike",18,0,{}],["policy-model_maskLike",18,0,{}],["policy-model_maskLike",20,0,{}],["policy-model_maskSquash",6,0,{}],["policy-model_maskLike",19,0,{}],["policy-model_alliesMaskInput",0,0,{}],["policy-model_enemiesMaskInput",0,0,{}]]]},{"name":"policy-model_inputTransformer/depth6_KVNorm_policy-model_inputTransformer/depth5_ffnAdd/policy-model_inputTransformer/depth5_ffnAdd","class_name":"RMSNormLayer","config":{"name":"policy-model_inputTransformer/depth6_KVNorm_policy-model_inputTransformer/depth5_ffnAdd/policy-model_inputTransformer/depth5_ffnAdd","trainable":true,"axis":-1,"epsilon":0.000001,"scale":true},"inbound_nodes":[[["policy-model_inputTransformer/depth5_ffnAdd",0,0,{}]]]},{"name":"policy-model_inputTransformer/depth6_MultiHeadAttentionLayer","class_name":"MultiHeadAttention","config":{"name":"policy-model_inputTransformer/depth6_MultiHeadAttentionLayer","trainable":true,"key_dim":16,"num_heads":1},"inbound_nodes":[[["policy-model_inputTransformer/depth6_QNorm_policy-model_inputTransformer/depth5_ffnAdd/policy-model_inputTransformer/depth5_ffnAdd",0,0,{}],["policy-model_inputTransformer/depth6_contextTokenMask6",0,0,{}],["policy-model_inputTransformer/depth6_KVNorm_policy-model_inputTransformer/depth5_ffnAdd/policy-model_inputTransformer/depth5_ffnAdd",0,0,{}],["policy-model_inputTransformer/depth6_contextTokenMask6",0,0,{}]]]},{"name":"policy-model_inputTransformer/depth6_residual","class_name":"Add","config":{"name":"policy-model_inputTransformer/depth6_residual","trainable":true},"inbound_nodes":[[["policy-model_inputTransformer/depth5_ffnAdd",0,0,{}],["policy-model_inputTransformer/depth6_MultiHeadAttentionLayer",0,0,{}]]]},{"name":"policy-model_inputTransformer/depth6_ln2","class_name":"RMSNormLayer","config":{"name":"policy-model_inputTransformer/depth6_ln2","trainable":true,"axis":-1,"epsilon":0.000001,"scale":true},"inbound_nodes":[[["policy-model_inputTransformer/depth6_residual",0,0,{}]]]},{"name":"policy-model_inputTransformer/depth6_ffn1","class_name":"Dense","config":{"units":64,"activation":"relu","use_bias":false,"kernel_initializer":{"class_name":"VarianceScaling","config":{"scale":1,"mode":"fan_avg","distribution":"normal","seed":null}},"bias_initializer":{"class_name":"Zeros","config":{}},"kernel_regularizer":null,"bias_regularizer":null,"activity_regularizer":null,"kernel_constraint":null,"bias_constraint":null,"name":"policy-model_inputTransformer/depth6_ffn1","trainable":true},"inbound_nodes":[[["policy-model_inputTransformer/depth6_ln2",0,0,{}]]]},{"name":"policy-model_inputTransformer/depth6_ffn2","class_name":"Dense","config":{"units":16,"activation":"linear","use_bias":false,"kernel_initializer":{"class_name":"VarianceScaling","config":{"scale":1,"mode":"fan_avg","distribution":"normal","seed":null}},"bias_initializer":{"class_name":"Zeros","config":{}},"kernel_regularizer":null,"bias_regularizer":null,"activity_regularizer":null,"kernel_constraint":null,"bias_constraint":null,"name":"policy-model_inputTransformer/depth6_ffn2","trainable":true},"inbound_nodes":[[["policy-model_inputTransformer/depth6_ffn1",0,0,{}]]]},{"name":"policy-model_inputTransformer/depth6_ffnAdd","class_name":"Add","config":{"name":"policy-model_inputTransformer/depth6_ffnAdd","trainable":true},"inbound_nodes":[[["policy-model_inputTransformer/depth6_residual",0,0,{}],["policy-model_inputTransformer/depth6_ffn2",0,0,{}]]]},{"name":"policy-model_inputTransformer/depth7_QNorm_policy-model_inputTransformer/depth6_ffnAdd/policy-model_inputTransformer/depth6_ffnAdd","class_name":"RMSNormLayer","config":{"name":"policy-model_inputTransformer/depth7_QNorm_policy-model_inputTransformer/depth6_ffnAdd/policy-model_inputTransformer/depth6_ffnAdd","trainable":true,"axis":-1,"epsilon":0.000001,"scale":true},"inbound_nodes":[[["policy-model_inputTransformer/depth6_ffnAdd",0,0,{}]]]},{"name":"policy-model_inputTransformer/depth7_contextTokenMask7","class_name":"Concatenate","config":{"axis":1,"name":"policy-model_inputTransformer/depth7_contextTokenMask7","trainable":true},"inbound_nodes":[[["policy-model_maskLike",21,0,{}],["policy-model_maskLike",21,0,{}],["policy-model_maskLike",23,0,{}],["policy-model_maskSquash",7,0,{}],["policy-model_maskLike",22,0,{}],["policy-model_alliesMaskInput",0,0,{}],["policy-model_enemiesMaskInput",0,0,{}]]]},{"name":"policy-model_inputTransformer/depth7_KVNorm_policy-model_inputTransformer/depth6_ffnAdd/policy-model_inputTransformer/depth6_ffnAdd","class_name":"RMSNormLayer","config":{"name":"policy-model_inputTransformer/depth7_KVNorm_policy-model_inputTransformer/depth6_ffnAdd/policy-model_inputTransformer/depth6_ffnAdd","trainable":true,"axis":-1,"epsilon":0.000001,"scale":true},"inbound_nodes":[[["policy-model_inputTransformer/depth6_ffnAdd",0,0,{}]]]},{"name":"policy-model_inputTransformer/depth7_MultiHeadAttentionLayer","class_name":"MultiHeadAttention","config":{"name":"policy-model_inputTransformer/depth7_MultiHeadAttentionLayer","trainable":true,"key_dim":16,"num_heads":1},"inbound_nodes":[[["policy-model_inputTransformer/depth7_QNorm_policy-model_inputTransformer/depth6_ffnAdd/policy-model_inputTransformer/depth6_ffnAdd",0,0,{}],["policy-model_inputTransformer/depth7_contextTokenMask7",0,0,{}],["policy-model_inputTransformer/depth7_KVNorm_policy-model_inputTransformer/depth6_ffnAdd/policy-model_inputTransformer/depth6_ffnAdd",0,0,{}],["policy-model_inputTransformer/depth7_contextTokenMask7",0,0,{}]]]},{"name":"policy-model_inputTransformer/depth7_residual","class_name":"Add","config":{"name":"policy-model_inputTransformer/depth7_residual","trainable":true},"inbound_nodes":[[["policy-model_inputTransformer/depth6_ffnAdd",0,0,{}],["policy-model_inputTransformer/depth7_MultiHeadAttentionLayer",0,0,{}]]]},{"name":"policy-model_inputTransformer/depth7_ln2","class_name":"RMSNormLayer","config":{"name":"policy-model_inputTransformer/depth7_ln2","trainable":true,"axis":-1,"epsilon":0.000001,"scale":true},"inbound_nodes":[[["policy-model_inputTransformer/depth7_residual",0,0,{}]]]},{"name":"policy-model_inputTransformer/depth7_ffn1","class_name":"Dense","config":{"units":64,"activation":"relu","use_bias":false,"kernel_initializer":{"class_name":"VarianceScaling","config":{"scale":1,"mode":"fan_avg","distribution":"normal","seed":null}},"bias_initializer":{"class_name":"Zeros","config":{}},"kernel_regularizer":null,"bias_regularizer":null,"activity_regularizer":null,"kernel_constraint":null,"bias_constraint":null,"name":"policy-model_inputTransformer/depth7_ffn1","trainable":true},"inbound_nodes":[[["policy-model_inputTransformer/depth7_ln2",0,0,{}]]]},{"name":"policy-model_inputTransformer/depth7_ffn2","class_name":"Dense","config":{"units":16,"activation":"linear","use_bias":false,"kernel_initializer":{"class_name":"VarianceScaling","config":{"scale":1,"mode":"fan_avg","distribution":"normal","seed":null}},"bias_initializer":{"class_name":"Zeros","config":{}},"kernel_regularizer":null,"bias_regularizer":null,"activity_regularizer":null,"kernel_constraint":null,"bias_constraint":null,"name":"policy-model_inputTransformer/depth7_ffn2","trainable":true},"inbound_nodes":[[["policy-model_inputTransformer/depth7_ffn1",0,0,{}]]]},{"name":"policy-model_inputTransformer/depth7_ffnAdd","class_name":"Add","config":{"name":"policy-model_inputTransformer/depth7_ffnAdd","trainable":true},"inbound_nodes":[[["policy-model_inputTransformer/depth7_residual",0,0,{}],["policy-model_inputTransformer/depth7_ffn2",0,0,{}]]]},{"name":"policy-model_inputTransformer/depth8_QNorm_policy-model_inputTransformer/depth7_ffnAdd/policy-model_inputTransformer/depth7_ffnAdd","class_name":"RMSNormLayer","config":{"name":"policy-model_inputTransformer/depth8_QNorm_policy-model_inputTransformer/depth7_ffnAdd/policy-model_inputTransformer/depth7_ffnAdd","trainable":true,"axis":-1,"epsilon":0.000001,"scale":true},"inbound_nodes":[[["policy-model_inputTransformer/depth7_ffnAdd",0,0,{}]]]},{"name":"policy-model_inputTransformer/depth8_contextTokenMask8","class_name":"Concatenate","config":{"axis":1,"name":"policy-model_inputTransformer/depth8_contextTokenMask8","trainable":true},"inbound_nodes":[[["policy-model_maskLike",24,0,{}],["policy-model_maskLike",24,0,{}],["policy-model_maskLike",26,0,{}],["policy-model_maskSquash",8,0,{}],["policy-model_maskLike",25,0,{}],["policy-model_alliesMaskInput",0,0,{}],["policy-model_enemiesMaskInput",0,0,{}]]]},{"name":"policy-model_inputTransformer/depth8_KVNorm_policy-model_inputTransformer/depth7_ffnAdd/policy-model_inputTransformer/depth7_ffnAdd","class_name":"RMSNormLayer","config":{"name":"policy-model_inputTransformer/depth8_KVNorm_policy-model_inputTransformer/depth7_ffnAdd/policy-model_inputTransformer/depth7_ffnAdd","trainable":true,"axis":-1,"epsilon":0.000001,"scale":true},"inbound_nodes":[[["policy-model_inputTransformer/depth7_ffnAdd",0,0,{}]]]},{"name":"policy-model_inputTransformer/depth8_MultiHeadAttentionLayer","class_name":"MultiHeadAttention","config":{"name":"policy-model_inputTransformer/depth8_MultiHeadAttentionLayer","trainable":true,"key_dim":16,"num_heads":1},"inbound_nodes":[[["policy-model_inputTransformer/depth8_QNorm_policy-model_inputTransformer/depth7_ffnAdd/policy-model_inputTransformer/depth7_ffnAdd",0,0,{}],["policy-model_inputTransformer/depth8_contextTokenMask8",0,0,{}],["policy-model_inputTransformer/depth8_KVNorm_policy-model_inputTransformer/depth7_ffnAdd/policy-model_inputTransformer/depth7_ffnAdd",0,0,{}],["policy-model_inputTransformer/depth8_contextTokenMask8",0,0,{}]]]},{"name":"policy-model_inputTransformer/depth8_residual","class_name":"Add","config":{"name":"policy-model_inputTransformer/depth8_residual","trainable":true},"inbound_nodes":[[["policy-model_inputTransformer/depth7_ffnAdd",0,0,{}],["policy-model_inputTransformer/depth8_MultiHeadAttentionLayer",0,0,{}]]]},{"name":"policy-model_inputTransformer/depth8_ln2","class_name":"RMSNormLayer","config":{"name":"policy-model_inputTransformer/depth8_ln2","trainable":true,"axis":-1,"epsilon":0.000001,"scale":true},"inbound_nodes":[[["policy-model_inputTransformer/depth8_residual",0,0,{}]]]},{"name":"policy-model_inputTransformer/depth8_ffn1","class_name":"Dense","config":{"units":64,"activation":"relu","use_bias":false,"kernel_initializer":{"class_name":"VarianceScaling","config":{"scale":1,"mode":"fan_avg","distribution":"normal","seed":null}},"bias_initializer":{"class_name":"Zeros","config":{}},"kernel_regularizer":null,"bias_regularizer":null,"activity_regularizer":null,"kernel_constraint":null,"bias_constraint":null,"name":"policy-model_inputTransformer/depth8_ffn1","trainable":true},"inbound_nodes":[[["policy-model_inputTransformer/depth8_ln2",0,0,{}]]]},{"name":"policy-model_inputTransformer/depth8_ffn2","class_name":"Dense","config":{"units":16,"activation":"linear","use_bias":false,"kernel_initializer":{"class_name":"VarianceScaling","config":{"scale":1,"mode":"fan_avg","distribution":"normal","seed":null}},"bias_initializer":{"class_name":"Zeros","config":{}},"kernel_regularizer":null,"bias_regularizer":null,"activity_regularizer":null,"kernel_constraint":null,"bias_constraint":null,"name":"policy-model_inputTransformer/depth8_ffn2","trainable":true},"inbound_nodes":[[["policy-model_inputTransformer/depth8_ffn1",0,0,{}]]]},{"name":"policy-model_inputTransformer/depth8_ffnAdd","class_name":"Add","config":{"name":"policy-model_inputTransformer/depth8_ffnAdd","trainable":true},"inbound_nodes":[[["policy-model_inputTransformer/depth8_residual",0,0,{}],["policy-model_inputTransformer/depth8_ffn2",0,0,{}]]]},{"name":"policy-model_inputTransformer/depth9_QNorm_policy-model_inputTransformer/depth8_ffnAdd/policy-model_inputTransformer/depth8_ffnAdd","class_name":"RMSNormLayer","config":{"name":"policy-model_inputTransformer/depth9_QNorm_policy-model_inputTransformer/depth8_ffnAdd/policy-model_inputTransformer/depth8_ffnAdd","trainable":true,"axis":-1,"epsilon":0.000001,"scale":true},"inbound_nodes":[[["policy-model_inputTransformer/depth8_ffnAdd",0,0,{}]]]},{"name":"policy-model_inputTransformer/depth9_contextTokenMask9","class_name":"Concatenate","config":{"axis":1,"name":"policy-model_inputTransformer/depth9_contextTokenMask9","trainable":true},"inbound_nodes":[[["policy-model_maskLike",27,0,{}],["policy-model_maskLike",27,0,{}],["policy-model_maskLike",29,0,{}],["policy-model_maskSquash",9,0,{}],["policy-model_maskLike",28,0,{}],["policy-model_alliesMaskInput",0,0,{}],["policy-model_enemiesMaskInput",0,0,{}]]]},{"name":"policy-model_inputTransformer/depth9_KVNorm_policy-model_inputTransformer/depth8_ffnAdd/policy-model_inputTransformer/depth8_ffnAdd","class_name":"RMSNormLayer","config":{"name":"policy-model_inputTransformer/depth9_KVNorm_policy-model_inputTransformer/depth8_ffnAdd/policy-model_inputTransformer/depth8_ffnAdd","trainable":true,"axis":-1,"epsilon":0.000001,"scale":true},"inbound_nodes":[[["policy-model_inputTransformer/depth8_ffnAdd",0,0,{}]]]},{"name":"policy-model_inputTransformer/depth9_MultiHeadAttentionLayer","class_name":"MultiHeadAttention","config":{"name":"policy-model_inputTransformer/depth9_MultiHeadAttentionLayer","trainable":true,"key_dim":16,"num_heads":1},"inbound_nodes":[[["policy-model_inputTransformer/depth9_QNorm_policy-model_inputTransformer/depth8_ffnAdd/policy-model_inputTransformer/depth8_ffnAdd",0,0,{}],["policy-model_inputTransformer/depth9_contextTokenMask9",0,0,{}],["policy-model_inputTransformer/depth9_KVNorm_policy-model_inputTransformer/depth8_ffnAdd/policy-model_inputTransformer/depth8_ffnAdd",0,0,{}],["policy-model_inputTransformer/depth9_contextTokenMask9",0,0,{}]]]},{"name":"policy-model_inputTransformer/depth9_residual","class_name":"Add","config":{"name":"policy-model_inputTransformer/depth9_residual","trainable":true},"inbound_nodes":[[["policy-model_inputTransformer/depth8_ffnAdd",0,0,{}],["policy-model_inputTransformer/depth9_MultiHeadAttentionLayer",0,0,{}]]]},{"name":"policy-model_inputTransformer/depth9_ln2","class_name":"RMSNormLayer","config":{"name":"policy-model_inputTransformer/depth9_ln2","trainable":true,"axis":-1,"epsilon":0.000001,"scale":true},"inbound_nodes":[[["policy-model_inputTransformer/depth9_residual",0,0,{}]]]},{"name":"policy-model_inputTransformer/depth9_ffn1","class_name":"Dense","config":{"units":64,"activation":"relu","use_bias":false,"kernel_initializer":{"class_name":"VarianceScaling","config":{"scale":1,"mode":"fan_avg","distribution":"normal","seed":null}},"bias_initializer":{"class_name":"Zeros","config":{}},"kernel_regularizer":null,"bias_regularizer":null,"activity_regularizer":null,"kernel_constraint":null,"bias_constraint":null,"name":"policy-model_inputTransformer/depth9_ffn1","trainable":true},"inbound_nodes":[[["policy-model_inputTransformer/depth9_ln2",0,0,{}]]]},{"name":"policy-model_inputTransformer/depth9_ffn2","class_name":"Dense","config":{"units":16,"activation":"linear","use_bias":false,"kernel_initializer":{"class_name":"VarianceScaling","config":{"scale":1,"mode":"fan_avg","distribution":"normal","seed":null}},"bias_initializer":{"class_name":"Zeros","config":{}},"kernel_regularizer":null,"bias_regularizer":null,"activity_regularizer":null,"kernel_constraint":null,"bias_constraint":null,"name":"policy-model_inputTransformer/depth9_ffn2","trainable":true},"inbound_nodes":[[["policy-model_inputTransformer/depth9_ffn1",0,0,{}]]]},{"name":"policy-model_inputTransformer/depth9_ffnAdd","class_name":"Add","config":{"name":"policy-model_inputTransformer/depth9_ffnAdd","trainable":true},"inbound_nodes":[[["policy-model_inputTransformer/depth9_residual",0,0,{}],["policy-model_inputTransformer/depth9_ffn2",0,0,{}]]]},{"name":"policy-model_inputTransformer/depth10_QNorm_policy-model_inputTransformer/depth9_ffnAdd/policy-model_inputTransformer/depth9_ffnAdd","class_name":"RMSNormLayer","config":{"name":"policy-model_inputTransformer/depth10_QNorm_policy-model_inputTransformer/depth9_ffnAdd/policy-model_inputTransformer/depth9_ffnAdd","trainable":true,"axis":-1,"epsilon":0.000001,"scale":true},"inbound_nodes":[[["policy-model_inputTransformer/depth9_ffnAdd",0,0,{}]]]},{"name":"policy-model_inputTransformer/depth10_contextTokenMask10","class_name":"Concatenate","config":{"axis":1,"name":"policy-model_inputTransformer/depth10_contextTokenMask10","trainable":true},"inbound_nodes":[[["policy-model_maskLike",30,0,{}],["policy-model_maskLike",30,0,{}],["policy-model_maskLike",32,0,{}],["policy-model_maskSquash",10,0,{}],["policy-model_maskLike",31,0,{}],["policy-model_alliesMaskInput",0,0,{}],["policy-model_enemiesMaskInput",0,0,{}]]]},{"name":"policy-model_inputTransformer/depth10_KVNorm_policy-model_inputTransformer/depth9_ffnAdd/policy-model_inputTransformer/depth9_ffnAdd","class_name":"RMSNormLayer","config":{"name":"policy-model_inputTransformer/depth10_KVNorm_policy-model_inputTransformer/depth9_ffnAdd/policy-model_inputTransformer/depth9_ffnAdd","trainable":true,"axis":-1,"epsilon":0.000001,"scale":true},"inbound_nodes":[[["policy-model_inputTransformer/depth9_ffnAdd",0,0,{}]]]},{"name":"policy-model_inputTransformer/depth10_MultiHeadAttentionLayer","class_name":"MultiHeadAttention","config":{"name":"policy-model_inputTransformer/depth10_MultiHeadAttentionLayer","trainable":true,"key_dim":16,"num_heads":1},"inbound_nodes":[[["policy-model_inputTransformer/depth10_QNorm_policy-model_inputTransformer/depth9_ffnAdd/policy-model_inputTransformer/depth9_ffnAdd",0,0,{}],["policy-model_inputTransformer/depth10_contextTokenMask10",0,0,{}],["policy-model_inputTransformer/depth10_KVNorm_policy-model_inputTransformer/depth9_ffnAdd/policy-model_inputTransformer/depth9_ffnAdd",0,0,{}],["policy-model_inputTransformer/depth10_contextTokenMask10",0,0,{}]]]},{"name":"policy-model_inputTransformer/depth10_residual","class_name":"Add","config":{"name":"policy-model_inputTransformer/depth10_residual","trainable":true},"inbound_nodes":[[["policy-model_inputTransformer/depth9_ffnAdd",0,0,{}],["policy-model_inputTransformer/depth10_MultiHeadAttentionLayer",0,0,{}]]]},{"name":"policy-model_inputTransformer/depth10_ln2","class_name":"RMSNormLayer","config":{"name":"policy-model_inputTransformer/depth10_ln2","trainable":true,"axis":-1,"epsilon":0.000001,"scale":true},"inbound_nodes":[[["policy-model_inputTransformer/depth10_residual",0,0,{}]]]},{"name":"policy-model_inputTransformer/depth10_ffn1","class_name":"Dense","config":{"units":64,"activation":"relu","use_bias":false,"kernel_initializer":{"class_name":"VarianceScaling","config":{"scale":1,"mode":"fan_avg","distribution":"normal","seed":null}},"bias_initializer":{"class_name":"Zeros","config":{}},"kernel_regularizer":null,"bias_regularizer":null,"activity_regularizer":null,"kernel_constraint":null,"bias_constraint":null,"name":"policy-model_inputTransformer/depth10_ffn1","trainable":true},"inbound_nodes":[[["policy-model_inputTransformer/depth10_ln2",0,0,{}]]]},{"name":"policy-model_inputTransformer/depth10_ffn2","class_name":"Dense","config":{"units":16,"activation":"linear","use_bias":false,"kernel_initializer":{"class_name":"VarianceScaling","config":{"scale":1,"mode":"fan_avg","distribution":"normal","seed":null}},"bias_initializer":{"class_name":"Zeros","config":{}},"kernel_regularizer":null,"bias_regularizer":null,"activity_regularizer":null,"kernel_constraint":null,"bias_constraint":null,"name":"policy-model_inputTransformer/depth10_ffn2","trainable":true},"inbound_nodes":[[["policy-model_inputTransformer/depth10_ffn1",0,0,{}]]]},{"name":"policy-model_inputTransformer/depth10_ffnAdd","class_name":"Add","config":{"name":"policy-model_inputTransformer/depth10_ffnAdd","trainable":true},"inbound_nodes":[[["policy-model_inputTransformer/depth10_residual",0,0,{}],["policy-model_inputTransformer/depth10_ffn2",0,0,{}]]]},{"name":"policy-model_inputTransformer/depth11_QNorm_policy-model_inputTransformer/depth10_ffnAdd/policy-model_inputTransformer/depth10_ffnAdd","class_name":"RMSNormLayer","config":{"name":"policy-model_inputTransformer/depth11_QNorm_policy-model_inputTransformer/depth10_ffnAdd/policy-model_inputTransformer/depth10_ffnAdd","trainable":true,"axis":-1,"epsilon":0.000001,"scale":true},"inbound_nodes":[[["policy-model_inputTransformer/depth10_ffnAdd",0,0,{}]]]},{"name":"policy-model_inputTransformer/depth11_contextTokenMask11","class_name":"Concatenate","config":{"axis":1,"name":"policy-model_inputTransformer/depth11_contextTokenMask11","trainable":true},"inbound_nodes":[[["policy-model_maskLike",33,0,{}],["policy-model_maskLike",33,0,{}],["policy-model_maskLike",35,0,{}],["policy-model_maskSquash",11,0,{}],["policy-model_maskLike",34,0,{}],["policy-model_alliesMaskInput",0,0,{}],["policy-model_enemiesMaskInput",0,0,{}]]]},{"name":"policy-model_inputTransformer/depth11_KVNorm_policy-model_inputTransformer/depth10_ffnAdd/policy-model_inputTransformer/depth10_ffnAdd","class_name":"RMSNormLayer","config":{"name":"policy-model_inputTransformer/depth11_KVNorm_policy-model_inputTransformer/depth10_ffnAdd/policy-model_inputTransformer/depth10_ffnAdd","trainable":true,"axis":-1,"epsilon":0.000001,"scale":true},"inbound_nodes":[[["policy-model_inputTransformer/depth10_ffnAdd",0,0,{}]]]},{"name":"policy-model_inputTransformer/depth11_MultiHeadAttentionLayer","class_name":"MultiHeadAttention","config":{"name":"policy-model_inputTransformer/depth11_MultiHeadAttentionLayer","trainable":true,"key_dim":16,"num_heads":1},"inbound_nodes":[[["policy-model_inputTransformer/depth11_QNorm_policy-model_inputTransformer/depth10_ffnAdd/policy-model_inputTransformer/depth10_ffnAdd",0,0,{}],["policy-model_inputTransformer/depth11_contextTokenMask11",0,0,{}],["policy-model_inputTransformer/depth11_KVNorm_policy-model_inputTransformer/depth10_ffnAdd/policy-model_inputTransformer/depth10_ffnAdd",0,0,{}],["policy-model_inputTransformer/depth11_contextTokenMask11",0,0,{}]]]},{"name":"policy-model_inputTransformer/depth11_residual","class_name":"Add","config":{"name":"policy-model_inputTransformer/depth11_residual","trainable":true},"inbound_nodes":[[["policy-model_inputTransformer/depth10_ffnAdd",0,0,{}],["policy-model_inputTransformer/depth11_MultiHeadAttentionLayer",0,0,{}]]]},{"name":"policy-model_inputTransformer/depth11_ln2","class_name":"RMSNormLayer","config":{"name":"policy-model_inputTransformer/depth11_ln2","trainable":true,"axis":-1,"epsilon":0.000001,"scale":true},"inbound_nodes":[[["policy-model_inputTransformer/depth11_residual",0,0,{}]]]},{"name":"policy-model_inputTransformer/depth11_ffn1","class_name":"Dense","config":{"units":64,"activation":"relu","use_bias":false,"kernel_initializer":{"class_name":"VarianceScaling","config":{"scale":1,"mode":"fan_avg","distribution":"normal","seed":null}},"bias_initializer":{"class_name":"Zeros","config":{}},"kernel_regularizer":null,"bias_regularizer":null,"activity_regularizer":null,"kernel_constraint":null,"bias_constraint":null,"name":"policy-model_inputTransformer/depth11_ffn1","trainable":true},"inbound_nodes":[[["policy-model_inputTransformer/depth11_ln2",0,0,{}]]]},{"name":"policy-model_inputTransformer/depth11_ffn2","class_name":"Dense","config":{"units":16,"activation":"linear","use_bias":false,"kernel_initializer":{"class_name":"VarianceScaling","config":{"scale":1,"mode":"fan_avg","distribution":"normal","seed":null}},"bias_initializer":{"class_name":"Zeros","config":{}},"kernel_regularizer":null,"bias_regularizer":null,"activity_regularizer":null,"kernel_constraint":null,"bias_constraint":null,"name":"policy-model_inputTransformer/depth11_ffn2","trainable":true},"inbound_nodes":[[["policy-model_inputTransformer/depth11_ffn1",0,0,{}]]]},{"name":"policy-model_inputTransformer/depth11_ffnAdd","class_name":"Add","config":{"name":"policy-model_inputTransformer/depth11_ffnAdd","trainable":true},"inbound_nodes":[[["policy-model_inputTransformer/depth11_residual",0,0,{}],["policy-model_inputTransformer/depth11_ffn2",0,0,{}]]]},{"name":"policy-model_finalToken","class_name":"SliceLayer","config":{"name":"policy-model_finalToken","trainable":true,"begin_slice":[0,0,0],"slice_size":[-1,2,-1]},"inbound_nodes":[[["policy-model_inputTransformer/depth11_ffnAdd",0,0,{}]]]},{"name":"policy-model_flattenedFinalToken","class_name":"Flatten","config":{"name":"policy-model_flattenedFinalToken","trainable":true},"inbound_nodes":[[["policy-model_finalToken",0,0,{}]]]},{"name":"policy-model_head0/LaN_preNorm","class_name":"RMSNormLayer","config":{"name":"policy-model_head0/LaN_preNorm","trainable":true,"axis":-1,"epsilon":0.000001,"scale":true},"inbound_nodes":[[["policy-model_flattenedFinalToken",0,0,{}]]]},{"name":"policy-model_head1/LaN_preNorm","class_name":"RMSNormLayer","config":{"name":"policy-model_head1/LaN_preNorm","trainable":true,"axis":-1,"epsilon":0.000001,"scale":true},"inbound_nodes":[[["policy-model_flattenedFinalToken",0,0,{}]]]},{"name":"policy-model_head2/LaN_preNorm","class_name":"RMSNormLayer","config":{"name":"policy-model_head2/LaN_preNorm","trainable":true,"axis":-1,"epsilon":0.000001,"scale":true},"inbound_nodes":[[["policy-model_flattenedFinalToken",0,0,{}]]]},{"name":"policy-model_head3/LaN_preNorm","class_name":"RMSNormLayer","config":{"name":"policy-model_head3/LaN_preNorm","trainable":true,"axis":-1,"epsilon":0.000001,"scale":true},"inbound_nodes":[[["policy-model_flattenedFinalToken",0,0,{}]]]},{"name":"policy-model_head0/LaN_branch1","class_name":"Dense","config":{"units":32,"activation":"tanh","use_bias":true,"kernel_initializer":{"class_name":"VarianceScaling","config":{"scale":1,"mode":"fan_avg","distribution":"normal","seed":null}},"bias_initializer":{"class_name":"Zeros","config":{}},"kernel_regularizer":null,"bias_regularizer":null,"activity_regularizer":null,"kernel_constraint":null,"bias_constraint":null,"name":"policy-model_head0/LaN_branch1","trainable":true},"inbound_nodes":[[["policy-model_head0/LaN_preNorm",0,0,{}]]]},{"name":"policy-model_head0/LaN_branch2","class_name":"Dense","config":{"units":32,"activation":"tanh","use_bias":true,"kernel_initializer":{"class_name":"VarianceScaling","config":{"scale":1,"mode":"fan_avg","distribution":"normal","seed":null}},"bias_initializer":{"class_name":"Zeros","config":{}},"kernel_regularizer":null,"bias_regularizer":null,"activity_regularizer":null,"kernel_constraint":null,"bias_constraint":null,"name":"policy-model_head0/LaN_branch2","trainable":true},"inbound_nodes":[[["policy-model_head0/LaN_preNorm",0,0,{}]]]},{"name":"policy-model_head1/LaN_branch1","class_name":"Dense","config":{"units":32,"activation":"tanh","use_bias":true,"kernel_initializer":{"class_name":"VarianceScaling","config":{"scale":1,"mode":"fan_avg","distribution":"normal","seed":null}},"bias_initializer":{"class_name":"Zeros","config":{}},"kernel_regularizer":null,"bias_regularizer":null,"activity_regularizer":null,"kernel_constraint":null,"bias_constraint":null,"name":"policy-model_head1/LaN_branch1","trainable":true},"inbound_nodes":[[["policy-model_head1/LaN_preNorm",0,0,{}]]]},{"name":"policy-model_head1/LaN_branch2","class_name":"Dense","config":{"units":32,"activation":"tanh","use_bias":true,"kernel_initializer":{"class_name":"VarianceScaling","config":{"scale":1,"mode":"fan_avg","distribution":"normal","seed":null}},"bias_initializer":{"class_name":"Zeros","config":{}},"kernel_regularizer":null,"bias_regularizer":null,"activity_regularizer":null,"kernel_constraint":null,"bias_constraint":null,"name":"policy-model_head1/LaN_branch2","trainable":true},"inbound_nodes":[[["policy-model_head1/LaN_preNorm",0,0,{}]]]},{"name":"policy-model_head2/LaN_branch1","class_name":"Dense","config":{"units":32,"activation":"tanh","use_bias":true,"kernel_initializer":{"class_name":"VarianceScaling","config":{"scale":1,"mode":"fan_avg","distribution":"normal","seed":null}},"bias_initializer":{"class_name":"Zeros","config":{}},"kernel_regularizer":null,"bias_regularizer":null,"activity_regularizer":null,"kernel_constraint":null,"bias_constraint":null,"name":"policy-model_head2/LaN_branch1","trainable":true},"inbound_nodes":[[["policy-model_head2/LaN_preNorm",0,0,{}]]]},{"name":"policy-model_head2/LaN_branch2","class_name":"Dense","config":{"units":32,"activation":"tanh","use_bias":true,"kernel_initializer":{"class_name":"VarianceScaling","config":{"scale":1,"mode":"fan_avg","distribution":"normal","seed":null}},"bias_initializer":{"class_name":"Zeros","config":{}},"kernel_regularizer":null,"bias_regularizer":null,"activity_regularizer":null,"kernel_constraint":null,"bias_constraint":null,"name":"policy-model_head2/LaN_branch2","trainable":true},"inbound_nodes":[[["policy-model_head2/LaN_preNorm",0,0,{}]]]},{"name":"policy-model_head3/LaN_branch1","class_name":"Dense","config":{"units":32,"activation":"tanh","use_bias":true,"kernel_initializer":{"class_name":"VarianceScaling","config":{"scale":1,"mode":"fan_avg","distribution":"normal","seed":null}},"bias_initializer":{"class_name":"Zeros","config":{}},"kernel_regularizer":null,"bias_regularizer":null,"activity_regularizer":null,"kernel_constraint":null,"bias_constraint":null,"name":"policy-model_head3/LaN_branch1","trainable":true},"inbound_nodes":[[["policy-model_head3/LaN_preNorm",0,0,{}]]]},{"name":"policy-model_head3/LaN_branch2","class_name":"Dense","config":{"units":32,"activation":"tanh","use_bias":true,"kernel_initializer":{"class_name":"VarianceScaling","config":{"scale":1,"mode":"fan_avg","distribution":"normal","seed":null}},"bias_initializer":{"class_name":"Zeros","config":{}},"kernel_regularizer":null,"bias_regularizer":null,"activity_regularizer":null,"kernel_constraint":null,"bias_constraint":null,"name":"policy-model_head3/LaN_branch2","trainable":true},"inbound_nodes":[[["policy-model_head3/LaN_preNorm",0,0,{}]]]},{"name":"policy-model_head0/LaN_output","class_name":"Multiply","config":{"name":"policy-model_head0/LaN_output","trainable":true},"inbound_nodes":[[["policy-model_head0/LaN_branch1",0,0,{}],["policy-model_head0/LaN_branch2",0,0,{}]]]},{"name":"policy-model_head1/LaN_output","class_name":"Multiply","config":{"name":"policy-model_head1/LaN_output","trainable":true},"inbound_nodes":[[["policy-model_head1/LaN_branch1",0,0,{}],["policy-model_head1/LaN_branch2",0,0,{}]]]},{"name":"policy-model_head2/LaN_output","class_name":"Multiply","config":{"name":"policy-model_head2/LaN_output","trainable":true},"inbound_nodes":[[["policy-model_head2/LaN_branch1",0,0,{}],["policy-model_head2/LaN_branch2",0,0,{}]]]},{"name":"policy-model_head3/LaN_output","class_name":"Multiply","config":{"name":"policy-model_head3/LaN_output","trainable":true},"inbound_nodes":[[["policy-model_head3/LaN_branch1",0,0,{}],["policy-model_head3/LaN_branch2",0,0,{}]]]},{"name":"policy-model_head_logits_0","class_name":"NoisyDenseLayer","config":{"name":"policy-model_head_logits_0","trainable":true,"units":15,"activation":"linear","use_bias":true,"sigma":0.03,"colored_noise_config":{},"sigma_parameterization":"full","kernel_initializer":{"class_name":"RandomUniform","config":{"minval":-0.03,"maxval":0.03,"seed":null}},"bias_initializer":{"class_name":"Zeros","config":{}}},"inbound_nodes":[[["policy-model_head0/LaN_output",0,0,{}]]]},{"name":"policy-model_head_logits_1","class_name":"NoisyDenseLayer","config":{"name":"policy-model_head_logits_1","trainable":true,"units":15,"activation":"linear","use_bias":true,"sigma":0.03,"colored_noise_config":{},"sigma_parameterization":"full","kernel_initializer":{"class_name":"RandomUniform","config":{"minval":-0.03,"maxval":0.03,"seed":null}},"bias_initializer":{"class_name":"Zeros","config":{}}},"inbound_nodes":[[["policy-model_head1/LaN_output",0,0,{}]]]},{"name":"policy-model_head_logits_2","class_name":"NoisyDenseLayer","config":{"name":"policy-model_head_logits_2","trainable":true,"units":2,"activation":"linear","use_bias":true,"sigma":0.03,"colored_noise_config":{},"sigma_parameterization":"full","kernel_initializer":{"class_name":"RandomUniform","config":{"minval":-0.03,"maxval":0.03,"seed":null}},"bias_initializer":{"class_name":"Zeros","config":{}}},"inbound_nodes":[[["policy-model_head2/LaN_output",0,0,{}]]]},{"name":"policy-model_head_logits_3","class_name":"NoisyDenseLayer","config":{"name":"policy-model_head_logits_3","trainable":true,"units":31,"activation":"linear","use_bias":true,"sigma":0.03,"colored_noise_config":{},"sigma_parameterization":"full","kernel_initializer":{"class_name":"RandomUniform","config":{"minval":-0.03,"maxval":0.03,"seed":null}},"bias_initializer":{"class_name":"Zeros","config":{}}},"inbound_nodes":[[["policy-model_head3/LaN_output",0,0,{}]]]}],"input_layers":[["policy-model_tankInput",0,0],["policy-model_enemiesInput",0,0],["policy-model_enemiesMaskInput",0,0],["policy-model_alliesInput",0,0],["policy-model_alliesMaskInput",0,0],["policy-model_bulletsInput",0,0],["policy-model_bulletsMaskInput",0,0],["policy-model_envRaysInput",0,0],["policy-model_envRaysTypes",0,0],["policy-model_turretRaysInput",0,0],["policy-model_turretRaysTypes",0,0]],"output_layers":[["policy-model_head_logits_0",0,0],["policy-model_head_logits_1",0,0],["policy-model_head_logits_2",0,0],["policy-model_head_logits_3",0,0]]},"keras_version":"tfjs-layers 4.22.0","backend":"tensor_flow.js"},"format":"layers-model","generatedBy":"TensorFlow.js tfjs-layers v4.22.0","convertedBy":null,"weightsManifest":[{"paths":["./policy-model.weights.bin"],"weights":[{"name":"policy-model_tankInput_tokProj/kernel","shape":[10,16],"dtype":"float32"},{"name":"policy-model_tankInput_tokProj/policy-model_tankInput_tokProj_typeEmbedding/variable","shape":[16],"dtype":"float32"},{"name":"policy-model_turretRaysInput_tokProj/kernel","shape":[9,16],"dtype":"float32"},{"name":"policy-model_bulletsInput_tokProj/kernel","shape":[4,16],"dtype":"float32"},{"name":"policy-model_envRaysInput_tokProj/kernel","shape":[6,16],"dtype":"float32"},{"name":"policy-model_turretRaysInput_tokProj/policy-model_turretRaysInput_tokProj_typeEmbedding/variable","shape":[16],"dtype":"float32"},{"name":"policy-model_clsBulletsToken/variable","shape":[1,16],"dtype":"float32"},{"name":"policy-model_envRaysInput_tokProj/policy-model_envRaysInput_tokProj_typeEmbedding/variable","shape":[16],"dtype":"float32"},{"name":"policy-model_alliesInput_tokProj/kernel","shape":[3,16],"dtype":"float32"},{"name":"policy-model_enemiesInput_tokProj/kernel","shape":[3,16],"dtype":"float32"},{"name":"rayHitType_sharedEmbedding/embeddings","shape":[4,16],"dtype":"float32"},{"name":"policy-model_alliesInput_tokProj/policy-model_alliesInput_tokProj_typeEmbedding/variable","shape":[16],"dtype":"float32"},{"name":"policy-model_enemiesInput_tokProj/policy-model_enemiesInput_tokProj_typeEmbedding/variable","shape":[16],"dtype":"float32"},{"name":"policy-model_clsToken/variable","shape":[1,16],"dtype":"float32"},{"name":"policy-model_clsBulletsAttention_MultiHeadAttentionLayer/wq","shape":[16,16],"dtype":"float32"},{"name":"policy-model_clsBulletsAttention_MultiHeadAttentionLayer/wk","shape":[16,16],"dtype":"float32"},{"name":"policy-model_clsBulletsAttention_MultiHeadAttentionLayer/wv","shape":[16,16],"dtype":"float32"},{"name":"policy-model_clsBulletsAttention_MultiHeadAttentionLayer/wo","shape":[16,16],"dtype":"float32"},{"name":"policy-model_inputTransformer/depth0_QNorm_policy-model_inputTransformer_contextToken0/policy-model_inputTransformer_contextToken0/scale","shape":[1,16],"dtype":"float32"},{"name":"policy-model_inputTransformer/depth0_KVNorm_policy-model_inputTransformer_contextToken0/policy-model_inputTransformer_contextToken0/scale","shape":[1,16],"dtype":"float32"},{"name":"policy-model_inputTransformer/depth0_MultiHeadAttentionLayer/wq","shape":[16,16],"dtype":"float32"},{"name":"policy-model_inputTransformer/depth0_MultiHeadAttentionLayer/wk","shape":[16,16],"dtype":"float32"},{"name":"policy-model_inputTransformer/depth0_MultiHeadAttentionLayer/wv","shape":[16,16],"dtype":"float32"},{"name":"policy-model_inputTransformer/depth0_MultiHeadAttentionLayer/wo","shape":[16,16],"dtype":"float32"},{"name":"policy-model_inputTransformer/depth0_ln2/scale","shape":[1,16],"dtype":"float32"},{"name":"policy-model_inputTransformer/depth0_ffn1/kernel","shape":[16,64],"dtype":"float32"},{"name":"policy-model_inputTransformer/depth0_ffn2/kernel","shape":[64,16],"dtype":"float32"},{"name":"policy-model_inputTransformer/depth1_QNorm_policy-model_inputTransformer/depth0_ffnAdd/policy-model_inputTransformer/depth0_ffnAdd/scale","shape":[1,16],"dtype":"float32"},{"name":"policy-model_inputTransformer/depth1_KVNorm_policy-model_inputTransformer/depth0_ffnAdd/policy-model_inputTransformer/depth0_ffnAdd/scale","shape":[1,16],"dtype":"float32"},{"name":"policy-model_inputTransformer/depth1_MultiHeadAttentionLayer/wq","shape":[16,16],"dtype":"float32"},{"name":"policy-model_inputTransformer/depth1_MultiHeadAttentionLayer/wk","shape":[16,16],"dtype":"float32"},{"name":"policy-model_inputTransformer/depth1_MultiHeadAttentionLayer/wv","shape":[16,16],"dtype":"float32"},{"name":"policy-model_inputTransformer/depth1_MultiHeadAttentionLayer/wo","shape":[16,16],"dtype":"float32"},{"name":"policy-model_inputTransformer/depth1_ln2/scale","shape":[1,16],"dtype":"float32"},{"name":"policy-model_inputTransformer/depth1_ffn1/kernel","shape":[16,64],"dtype":"float32"},{"name":"policy-model_inputTransformer/depth1_ffn2/kernel","shape":[64,16],"dtype":"float32"},{"name":"policy-model_inputTransformer/depth2_QNorm_policy-model_inputTransformer/depth1_ffnAdd/policy-model_inputTransformer/depth1_ffnAdd/scale","shape":[1,16],"dtype":"float32"},{"name":"policy-model_inputTransformer/depth2_KVNorm_policy-model_inputTransformer/depth1_ffnAdd/policy-model_inputTransformer/depth1_ffnAdd/scale","shape":[1,16],"dtype":"float32"},{"name":"policy-model_inputTransformer/depth2_MultiHeadAttentionLayer/wq","shape":[16,16],"dtype":"float32"},{"name":"policy-model_inputTransformer/depth2_MultiHeadAttentionLayer/wk","shape":[16,16],"dtype":"float32"},{"name":"policy-model_inputTransformer/depth2_MultiHeadAttentionLayer/wv","shape":[16,16],"dtype":"float32"},{"name":"policy-model_inputTransformer/depth2_MultiHeadAttentionLayer/wo","shape":[16,16],"dtype":"float32"},{"name":"policy-model_inputTransformer/depth2_ln2/scale","shape":[1,16],"dtype":"float32"},{"name":"policy-model_inputTransformer/depth2_ffn1/kernel","shape":[16,64],"dtype":"float32"},{"name":"policy-model_inputTransformer/depth2_ffn2/kernel","shape":[64,16],"dtype":"float32"},{"name":"policy-model_inputTransformer/depth3_QNorm_policy-model_inputTransformer/depth2_ffnAdd/policy-model_inputTransformer/depth2_ffnAdd/scale","shape":[1,16],"dtype":"float32"},{"name":"policy-model_inputTransformer/depth3_KVNorm_policy-model_inputTransformer/depth2_ffnAdd/policy-model_inputTransformer/depth2_ffnAdd/scale","shape":[1,16],"dtype":"float32"},{"name":"policy-model_inputTransformer/depth3_MultiHeadAttentionLayer/wq","shape":[16,16],"dtype":"float32"},{"name":"policy-model_inputTransformer/depth3_MultiHeadAttentionLayer/wk","shape":[16,16],"dtype":"float32"},{"name":"policy-model_inputTransformer/depth3_MultiHeadAttentionLayer/wv","shape":[16,16],"dtype":"float32"},{"name":"policy-model_inputTransformer/depth3_MultiHeadAttentionLayer/wo","shape":[16,16],"dtype":"float32"},{"name":"policy-model_inputTransformer/depth3_ln2/scale","shape":[1,16],"dtype":"float32"},{"name":"policy-model_inputTransformer/depth3_ffn1/kernel","shape":[16,64],"dtype":"float32"},{"name":"policy-model_inputTransformer/depth3_ffn2/kernel","shape":[64,16],"dtype":"float32"},{"name":"policy-model_inputTransformer/depth4_QNorm_policy-model_inputTransformer/depth3_ffnAdd/policy-model_inputTransformer/depth3_ffnAdd/scale","shape":[1,16],"dtype":"float32"},{"name":"policy-model_inputTransformer/depth4_KVNorm_policy-model_inputTransformer/depth3_ffnAdd/policy-model_inputTransformer/depth3_ffnAdd/scale","shape":[1,16],"dtype":"float32"},{"name":"policy-model_inputTransformer/depth4_MultiHeadAttentionLayer/wq","shape":[16,16],"dtype":"float32"},{"name":"policy-model_inputTransformer/depth4_MultiHeadAttentionLayer/wk","shape":[16,16],"dtype":"float32"},{"name":"policy-model_inputTransformer/depth4_MultiHeadAttentionLayer/wv","shape":[16,16],"dtype":"float32"},{"name":"policy-model_inputTransformer/depth4_MultiHeadAttentionLayer/wo","shape":[16,16],"dtype":"float32"},{"name":"policy-model_inputTransformer/depth4_ln2/scale","shape":[1,16],"dtype":"float32"},{"name":"policy-model_inputTransformer/depth4_ffn1/kernel","shape":[16,64],"dtype":"float32"},{"name":"policy-model_inputTransformer/depth4_ffn2/kernel","shape":[64,16],"dtype":"float32"},{"name":"policy-model_inputTransformer/depth5_QNorm_policy-model_inputTransformer/depth4_ffnAdd/policy-model_inputTransformer/depth4_ffnAdd/scale","shape":[1,16],"dtype":"float32"},{"name":"policy-model_inputTransformer/depth5_KVNorm_policy-model_inputTransformer/depth4_ffnAdd/policy-model_inputTransformer/depth4_ffnAdd/scale","shape":[1,16],"dtype":"float32"},{"name":"policy-model_inputTransformer/depth5_MultiHeadAttentionLayer/wq","shape":[16,16],"dtype":"float32"},{"name":"policy-model_inputTransformer/depth5_MultiHeadAttentionLayer/wk","shape":[16,16],"dtype":"float32"},{"name":"policy-model_inputTransformer/depth5_MultiHeadAttentionLayer/wv","shape":[16,16],"dtype":"float32"},{"name":"policy-model_inputTransformer/depth5_MultiHeadAttentionLayer/wo","shape":[16,16],"dtype":"float32"},{"name":"policy-model_inputTransformer/depth5_ln2/scale","shape":[1,16],"dtype":"float32"},{"name":"policy-model_inputTransformer/depth5_ffn1/kernel","shape":[16,64],"dtype":"float32"},{"name":"policy-model_inputTransformer/depth5_ffn2/kernel","shape":[64,16],"dtype":"float32"},{"name":"policy-model_inputTransformer/depth6_QNorm_policy-model_inputTransformer/depth5_ffnAdd/policy-model_inputTransformer/depth5_ffnAdd/scale","shape":[1,16],"dtype":"float32"},{"name":"policy-model_inputTransformer/depth6_KVNorm_policy-model_inputTransformer/depth5_ffnAdd/policy-model_inputTransformer/depth5_ffnAdd/scale","shape":[1,16],"dtype":"float32"},{"name":"policy-model_inputTransformer/depth6_MultiHeadAttentionLayer/wq","shape":[16,16],"dtype":"float32"},{"name":"policy-model_inputTransformer/depth6_MultiHeadAttentionLayer/wk","shape":[16,16],"dtype":"float32"},{"name":"policy-model_inputTransformer/depth6_MultiHeadAttentionLayer/wv","shape":[16,16],"dtype":"float32"},{"name":"policy-model_inputTransformer/depth6_MultiHeadAttentionLayer/wo","shape":[16,16],"dtype":"float32"},{"name":"policy-model_inputTransformer/depth6_ln2/scale","shape":[1,16],"dtype":"float32"},{"name":"policy-model_inputTransformer/depth6_ffn1/kernel","shape":[16,64],"dtype":"float32"},{"name":"policy-model_inputTransformer/depth6_ffn2/kernel","shape":[64,16],"dtype":"float32"},{"name":"policy-model_inputTransformer/depth7_QNorm_policy-model_inputTransformer/depth6_ffnAdd/policy-model_inputTransformer/depth6_ffnAdd/scale","shape":[1,16],"dtype":"float32"},{"name":"policy-model_inputTransformer/depth7_KVNorm_policy-model_inputTransformer/depth6_ffnAdd/policy-model_inputTransformer/depth6_ffnAdd/scale","shape":[1,16],"dtype":"float32"},{"name":"policy-model_inputTransformer/depth7_MultiHeadAttentionLayer/wq","shape":[16,16],"dtype":"float32"},{"name":"policy-model_inputTransformer/depth7_MultiHeadAttentionLayer/wk","shape":[16,16],"dtype":"float32"},{"name":"policy-model_inputTransformer/depth7_MultiHeadAttentionLayer/wv","shape":[16,16],"dtype":"float32"},{"name":"policy-model_inputTransformer/depth7_MultiHeadAttentionLayer/wo","shape":[16,16],"dtype":"float32"},{"name":"policy-model_inputTransformer/depth7_ln2/scale","shape":[1,16],"dtype":"float32"},{"name":"policy-model_inputTransformer/depth7_ffn1/kernel","shape":[16,64],"dtype":"float32"},{"name":"policy-model_inputTransformer/depth7_ffn2/kernel","shape":[64,16],"dtype":"float32"},{"name":"policy-model_inputTransformer/depth8_QNorm_policy-model_inputTransformer/depth7_ffnAdd/policy-model_inputTransformer/depth7_ffnAdd/scale","shape":[1,16],"dtype":"float32"},{"name":"policy-model_inputTransformer/depth8_KVNorm_policy-model_inputTransformer/depth7_ffnAdd/policy-model_inputTransformer/depth7_ffnAdd/scale","shape":[1,16],"dtype":"float32"},{"name":"policy-model_inputTransformer/depth8_MultiHeadAttentionLayer/wq","shape":[16,16],"dtype":"float32"},{"name":"policy-model_inputTransformer/depth8_MultiHeadAttentionLayer/wk","shape":[16,16],"dtype":"float32"},{"name":"policy-model_inputTransformer/depth8_MultiHeadAttentionLayer/wv","shape":[16,16],"dtype":"float32"},{"name":"policy-model_inputTransformer/depth8_MultiHeadAttentionLayer/wo","shape":[16,16],"dtype":"float32"},{"name":"policy-model_inputTransformer/depth8_ln2/scale","shape":[1,16],"dtype":"float32"},{"name":"policy-model_inputTransformer/depth8_ffn1/kernel","shape":[16,64],"dtype":"float32"},{"name":"policy-model_inputTransformer/depth8_ffn2/kernel","shape":[64,16],"dtype":"float32"},{"name":"policy-model_inputTransformer/depth9_QNorm_policy-model_inputTransformer/depth8_ffnAdd/policy-model_inputTransformer/depth8_ffnAdd/scale","shape":[1,16],"dtype":"float32"},{"name":"policy-model_inputTransformer/depth9_KVNorm_policy-model_inputTransformer/depth8_ffnAdd/policy-model_inputTransformer/depth8_ffnAdd/scale","shape":[1,16],"dtype":"float32"},{"name":"policy-model_inputTransformer/depth9_MultiHeadAttentionLayer/wq","shape":[16,16],"dtype":"float32"},{"name":"policy-model_inputTransformer/depth9_MultiHeadAttentionLayer/wk","shape":[16,16],"dtype":"float32"},{"name":"policy-model_inputTransformer/depth9_MultiHeadAttentionLayer/wv","shape":[16,16],"dtype":"float32"},{"name":"policy-model_inputTransformer/depth9_MultiHeadAttentionLayer/wo","shape":[16,16],"dtype":"float32"},{"name":"policy-model_inputTransformer/depth9_ln2/scale","shape":[1,16],"dtype":"float32"},{"name":"policy-model_inputTransformer/depth9_ffn1/kernel","shape":[16,64],"dtype":"float32"},{"name":"policy-model_inputTransformer/depth9_ffn2/kernel","shape":[64,16],"dtype":"float32"},{"name":"policy-model_inputTransformer/depth10_QNorm_policy-model_inputTransformer/depth9_ffnAdd/policy-model_inputTransformer/depth9_ffnAdd/scale","shape":[1,16],"dtype":"float32"},{"name":"policy-model_inputTransformer/depth10_KVNorm_policy-model_inputTransformer/depth9_ffnAdd/policy-model_inputTransformer/depth9_ffnAdd/scale","shape":[1,16],"dtype":"float32"},{"name":"policy-model_inputTransformer/depth10_MultiHeadAttentionLayer/wq","shape":[16,16],"dtype":"float32"},{"name":"policy-model_inputTransformer/depth10_MultiHeadAttentionLayer/wk","shape":[16,16],"dtype":"float32"},{"name":"policy-model_inputTransformer/depth10_MultiHeadAttentionLayer/wv","shape":[16,16],"dtype":"float32"},{"name":"policy-model_inputTransformer/depth10_MultiHeadAttentionLayer/wo","shape":[16,16],"dtype":"float32"},{"name":"policy-model_inputTransformer/depth10_ln2/scale","shape":[1,16],"dtype":"float32"},{"name":"policy-model_inputTransformer/depth10_ffn1/kernel","shape":[16,64],"dtype":"float32"},{"name":"policy-model_inputTransformer/depth10_ffn2/kernel","shape":[64,16],"dtype":"float32"},{"name":"policy-model_inputTransformer/depth11_QNorm_policy-model_inputTransformer/depth10_ffnAdd/policy-model_inputTransformer/depth10_ffnAdd/scale","shape":[1,16],"dtype":"float32"},{"name":"policy-model_inputTransformer/depth11_KVNorm_policy-model_inputTransformer/depth10_ffnAdd/policy-model_inputTransformer/depth10_ffnAdd/scale","shape":[1,16],"dtype":"float32"},{"name":"policy-model_inputTransformer/depth11_MultiHeadAttentionLayer/wq","shape":[16,16],"dtype":"float32"},{"name":"policy-model_inputTransformer/depth11_MultiHeadAttentionLayer/wk","shape":[16,16],"dtype":"float32"},{"name":"policy-model_inputTransformer/depth11_MultiHeadAttentionLayer/wv","shape":[16,16],"dtype":"float32"},{"name":"policy-model_inputTransformer/depth11_MultiHeadAttentionLayer/wo","shape":[16,16],"dtype":"float32"},{"name":"policy-model_inputTransformer/depth11_ln2/scale","shape":[1,16],"dtype":"float32"},{"name":"policy-model_inputTransformer/depth11_ffn1/kernel","shape":[16,64],"dtype":"float32"},{"name":"policy-model_inputTransformer/depth11_ffn2/kernel","shape":[64,16],"dtype":"float32"},{"name":"policy-model_head0/LaN_preNorm/scale","shape":[32],"dtype":"float32"},{"name":"policy-model_head1/LaN_preNorm/scale","shape":[32],"dtype":"float32"},{"name":"policy-model_head2/LaN_preNorm/scale","shape":[32],"dtype":"float32"},{"name":"policy-model_head3/LaN_preNorm/scale","shape":[32],"dtype":"float32"},{"name":"policy-model_head0/LaN_branch1/kernel","shape":[32,32],"dtype":"float32"},{"name":"policy-model_head0/LaN_branch1/bias","shape":[32],"dtype":"float32"},{"name":"policy-model_head0/LaN_branch2/kernel","shape":[32,32],"dtype":"float32"},{"name":"policy-model_head0/LaN_branch2/bias","shape":[32],"dtype":"float32"},{"name":"policy-model_head1/LaN_branch1/kernel","shape":[32,32],"dtype":"float32"},{"name":"policy-model_head1/LaN_branch1/bias","shape":[32],"dtype":"float32"},{"name":"policy-model_head1/LaN_branch2/kernel","shape":[32,32],"dtype":"float32"},{"name":"policy-model_head1/LaN_branch2/bias","shape":[32],"dtype":"float32"},{"name":"policy-model_head2/LaN_branch1/kernel","shape":[32,32],"dtype":"float32"},{"name":"policy-model_head2/LaN_branch1/bias","shape":[32],"dtype":"float32"},{"name":"policy-model_head2/LaN_branch2/kernel","shape":[32,32],"dtype":"float32"},{"name":"policy-model_head2/LaN_branch2/bias","shape":[32],"dtype":"float32"},{"name":"policy-model_head3/LaN_branch1/kernel","shape":[32,32],"dtype":"float32"},{"name":"policy-model_head3/LaN_branch1/bias","shape":[32],"dtype":"float32"},{"name":"policy-model_head3/LaN_branch2/kernel","shape":[32,32],"dtype":"float32"},{"name":"policy-model_head3/LaN_branch2/bias","shape":[32],"dtype":"float32"},{"name":"policy-model_head_logits_0/kernelMu","shape":[32,15],"dtype":"float32"},{"name":"policy-model_head_logits_0/kernelSigma","shape":[32,15],"dtype":"float32"},{"name":"policy-model_head_logits_0/biasMu","shape":[15],"dtype":"float32"},{"name":"policy-model_head_logits_0/biasSigma","shape":[15],"dtype":"float32"},{"name":"policy-model_head_logits_1/kernelMu","shape":[32,15],"dtype":"float32"},{"name":"policy-model_head_logits_1/kernelSigma","shape":[32,15],"dtype":"float32"},{"name":"policy-model_head_logits_1/biasMu","shape":[15],"dtype":"float32"},{"name":"policy-model_head_logits_1/biasSigma","shape":[15],"dtype":"float32"},{"name":"policy-model_head_logits_2/kernelMu","shape":[32,2],"dtype":"float32"},{"name":"policy-model_head_logits_2/kernelSigma","shape":[32,2],"dtype":"float32"},{"name":"policy-model_head_logits_2/biasMu","shape":[2],"dtype":"float32"},{"name":"policy-model_head_logits_2/biasSigma","shape":[2],"dtype":"float32"},{"name":"policy-model_head_logits_3/kernelMu","shape":[32,31],"dtype":"float32"},{"name":"policy-model_head_logits_3/kernelSigma","shape":[32,31],"dtype":"float32"},{"name":"policy-model_head_logits_3/biasMu","shape":[31],"dtype":"float32"},{"name":"policy-model_head_logits_3/biasSigma","shape":[31],"dtype":"float32"},{"name":"iter","shape":[],"dtype":"int32","group":"optimizer"},{"name":"policy-model_alliesInput_tokProj/kernel/m","shape":[3,16],"dtype":"float32","group":"optimizer"},{"name":"policy-model_alliesInput_tokProj/policy-model_alliesInput_tokProj_typeEmbedding/variable/m","shape":[16],"dtype":"float32","group":"optimizer"},{"name":"policy-model_bulletsInput_tokProj/kernel/m","shape":[4,16],"dtype":"float32","group":"optimizer"},{"name":"policy-model_clsBulletsAttention_MultiHeadAttentionLayer/wk/m","shape":[16,16],"dtype":"float32","group":"optimizer"},{"name":"policy-model_clsBulletsAttention_MultiHeadAttentionLayer/wo/m","shape":[16,16],"dtype":"float32","group":"optimizer"},{"name":"policy-model_clsBulletsAttention_MultiHeadAttentionLayer/wq/m","shape":[16,16],"dtype":"float32","group":"optimizer"},{"name":"policy-model_clsBulletsAttention_MultiHeadAttentionLayer/wv/m","shape":[16,16],"dtype":"float32","group":"optimizer"},{"name":"policy-model_clsBulletsToken/variable/m","shape":[1,16],"dtype":"float32","group":"optimizer"},{"name":"policy-model_clsToken/variable/m","shape":[1,16],"dtype":"float32","group":"optimizer"},{"name":"policy-model_enemiesInput_tokProj/kernel/m","shape":[3,16],"dtype":"float32","group":"optimizer"},{"name":"policy-model_enemiesInput_tokProj/policy-model_enemiesInput_tokProj_typeEmbedding/variable/m","shape":[16],"dtype":"float32","group":"optimizer"},{"name":"policy-model_envRaysInput_tokProj/kernel/m","shape":[6,16],"dtype":"float32","group":"optimizer"},{"name":"policy-model_envRaysInput_tokProj/policy-model_envRaysInput_tokProj_typeEmbedding/variable/m","shape":[16],"dtype":"float32","group":"optimizer"},{"name":"policy-model_head_logits_0/biasMu/m","shape":[15],"dtype":"float32","group":"optimizer"},{"name":"policy-model_head_logits_0/biasSigma/m","shape":[15],"dtype":"float32","group":"optimizer"},{"name":"policy-model_head_logits_0/kernelMu/m","shape":[32,15],"dtype":"float32","group":"optimizer"},{"name":"policy-model_head_logits_0/kernelSigma/m","shape":[32,15],"dtype":"float32","group":"optimizer"},{"name":"policy-model_head_logits_1/biasMu/m","shape":[15],"dtype":"float32","group":"optimizer"},{"name":"policy-model_head_logits_1/biasSigma/m","shape":[15],"dtype":"float32","group":"optimizer"},{"name":"policy-model_head_logits_1/kernelMu/m","shape":[32,15],"dtype":"float32","group":"optimizer"},{"name":"policy-model_head_logits_1/kernelSigma/m","shape":[32,15],"dtype":"float32","group":"optimizer"},{"name":"policy-model_head_logits_2/biasMu/m","shape":[2],"dtype":"float32","group":"optimizer"},{"name":"policy-model_head_logits_2/biasSigma/m","shape":[2],"dtype":"float32","group":"optimizer"},{"name":"policy-model_head_logits_2/kernelMu/m","shape":[32,2],"dtype":"float32","group":"optimizer"},{"name":"policy-model_head_logits_2/kernelSigma/m","shape":[32,2],"dtype":"float32","group":"optimizer"},{"name":"policy-model_head_logits_3/biasMu/m","shape":[31],"dtype":"float32","group":"optimizer"},{"name":"policy-model_head_logits_3/biasSigma/m","shape":[31],"dtype":"float32","group":"optimizer"},{"name":"policy-model_head_logits_3/kernelMu/m","shape":[32,31],"dtype":"float32","group":"optimizer"},{"name":"policy-model_head_logits_3/kernelSigma/m","shape":[32,31],"dtype":"float32","group":"optimizer"},{"name":"policy-model_head0/LaN_branch1/bias/m","shape":[32],"dtype":"float32","group":"optimizer"},{"name":"policy-model_head0/LaN_branch1/kernel/m","shape":[32,32],"dtype":"float32","group":"optimizer"},{"name":"policy-model_head0/LaN_branch2/bias/m","shape":[32],"dtype":"float32","group":"optimizer"},{"name":"policy-model_head0/LaN_branch2/kernel/m","shape":[32,32],"dtype":"float32","group":"optimizer"},{"name":"policy-model_head0/LaN_preNorm/scale/m","shape":[32],"dtype":"float32","group":"optimizer"},{"name":"policy-model_head1/LaN_branch1/bias/m","shape":[32],"dtype":"float32","group":"optimizer"},{"name":"policy-model_head1/LaN_branch1/kernel/m","shape":[32,32],"dtype":"float32","group":"optimizer"},{"name":"policy-model_head1/LaN_branch2/bias/m","shape":[32],"dtype":"float32","group":"optimizer"},{"name":"policy-model_head1/LaN_branch2/kernel/m","shape":[32,32],"dtype":"float32","group":"optimizer"},{"name":"policy-model_head1/LaN_preNorm/scale/m","shape":[32],"dtype":"float32","group":"optimizer"},{"name":"policy-model_head2/LaN_branch1/bias/m","shape":[32],"dtype":"float32","group":"optimizer"},{"name":"policy-model_head2/LaN_branch1/kernel/m","shape":[32,32],"dtype":"float32","group":"optimizer"},{"name":"policy-model_head2/LaN_branch2/bias/m","shape":[32],"dtype":"float32","group":"optimizer"},{"name":"policy-model_head2/LaN_branch2/kernel/m","shape":[32,32],"dtype":"float32","group":"optimizer"},{"name":"policy-model_head2/LaN_preNorm/scale/m","shape":[32],"dtype":"float32","group":"optimizer"},{"name":"policy-model_head3/LaN_branch1/bias/m","shape":[32],"dtype":"float32","group":"optimizer"},{"name":"policy-model_head3/LaN_branch1/kernel/m","shape":[32,32],"dtype":"float32","group":"optimizer"},{"name":"policy-model_head3/LaN_branch2/bias/m","shape":[32],"dtype":"float32","group":"optimizer"},{"name":"policy-model_head3/LaN_branch2/kernel/m","shape":[32,32],"dtype":"float32","group":"optimizer"},{"name":"policy-model_head3/LaN_preNorm/scale/m","shape":[32],"dtype":"float32","group":"optimizer"},{"name":"policy-model_inputTransformer/depth0_ffn1/kernel/m","shape":[16,64],"dtype":"float32","group":"optimizer"},{"name":"policy-model_inputTransformer/depth0_ffn2/kernel/m","shape":[64,16],"dtype":"float32","group":"optimizer"},{"name":"policy-model_inputTransformer/depth0_KVNorm_policy-model_inputTransformer_contextToken0/policy-model_inputTransformer_contextToken0/scale/m","shape":[1,16],"dtype":"float32","group":"optimizer"},{"name":"policy-model_inputTransformer/depth0_ln2/scale/m","shape":[1,16],"dtype":"float32","group":"optimizer"},{"name":"policy-model_inputTransformer/depth0_MultiHeadAttentionLayer/wk/m","shape":[16,16],"dtype":"float32","group":"optimizer"},{"name":"policy-model_inputTransformer/depth0_MultiHeadAttentionLayer/wo/m","shape":[16,16],"dtype":"float32","group":"optimizer"},{"name":"policy-model_inputTransformer/depth0_MultiHeadAttentionLayer/wq/m","shape":[16,16],"dtype":"float32","group":"optimizer"},{"name":"policy-model_inputTransformer/depth0_MultiHeadAttentionLayer/wv/m","shape":[16,16],"dtype":"float32","group":"optimizer"},{"name":"policy-model_inputTransformer/depth0_QNorm_policy-model_inputTransformer_contextToken0/policy-model_inputTransformer_contextToken0/scale/m","shape":[1,16],"dtype":"float32","group":"optimizer"},{"name":"policy-model_inputTransformer/depth1_ffn1/kernel/m","shape":[16,64],"dtype":"float32","group":"optimizer"},{"name":"policy-model_inputTransformer/depth1_ffn2/kernel/m","shape":[64,16],"dtype":"float32","group":"optimizer"},{"name":"policy-model_inputTransformer/depth1_KVNorm_policy-model_inputTransformer/depth0_ffnAdd/policy-model_inputTransformer/depth0_ffnAdd/scale/m","shape":[1,16],"dtype":"float32","group":"optimizer"},{"name":"policy-model_inputTransformer/depth1_ln2/scale/m","shape":[1,16],"dtype":"float32","group":"optimizer"},{"name":"policy-model_inputTransformer/depth1_MultiHeadAttentionLayer/wk/m","shape":[16,16],"dtype":"float32","group":"optimizer"},{"name":"policy-model_inputTransformer/depth1_MultiHeadAttentionLayer/wo/m","shape":[16,16],"dtype":"float32","group":"optimizer"},{"name":"policy-model_inputTransformer/depth1_MultiHeadAttentionLayer/wq/m","shape":[16,16],"dtype":"float32","group":"optimizer"},{"name":"policy-model_inputTransformer/depth1_MultiHeadAttentionLayer/wv/m","shape":[16,16],"dtype":"float32","group":"optimizer"},{"name":"policy-model_inputTransformer/depth1_QNorm_policy-model_inputTransformer/depth0_ffnAdd/policy-model_inputTransformer/depth0_ffnAdd/scale/m","shape":[1,16],"dtype":"float32","group":"optimizer"},{"name":"policy-model_inputTransformer/depth10_ffn1/kernel/m","shape":[16,64],"dtype":"float32","group":"optimizer"},{"name":"policy-model_inputTransformer/depth10_ffn2/kernel/m","shape":[64,16],"dtype":"float32","group":"optimizer"},{"name":"policy-model_inputTransformer/depth10_KVNorm_policy-model_inputTransformer/depth9_ffnAdd/policy-model_inputTransformer/depth9_ffnAdd/scale/m","shape":[1,16],"dtype":"float32","group":"optimizer"},{"name":"policy-model_inputTransformer/depth10_ln2/scale/m","shape":[1,16],"dtype":"float32","group":"optimizer"},{"name":"policy-model_inputTransformer/depth10_MultiHeadAttentionLayer/wk/m","shape":[16,16],"dtype":"float32","group":"optimizer"},{"name":"policy-model_inputTransformer/depth10_MultiHeadAttentionLayer/wo/m","shape":[16,16],"dtype":"float32","group":"optimizer"},{"name":"policy-model_inputTransformer/depth10_MultiHeadAttentionLayer/wq/m","shape":[16,16],"dtype":"float32","group":"optimizer"},{"name":"policy-model_inputTransformer/depth10_MultiHeadAttentionLayer/wv/m","shape":[16,16],"dtype":"float32","group":"optimizer"},{"name":"policy-model_inputTransformer/depth10_QNorm_policy-model_inputTransformer/depth9_ffnAdd/policy-model_inputTransformer/depth9_ffnAdd/scale/m","shape":[1,16],"dtype":"float32","group":"optimizer"},{"name":"policy-model_inputTransformer/depth11_ffn1/kernel/m","shape":[16,64],"dtype":"float32","group":"optimizer"},{"name":"policy-model_inputTransformer/depth11_ffn2/kernel/m","shape":[64,16],"dtype":"float32","group":"optimizer"},{"name":"policy-model_inputTransformer/depth11_KVNorm_policy-model_inputTransformer/depth10_ffnAdd/policy-model_inputTransformer/depth10_ffnAdd/scale/m","shape":[1,16],"dtype":"float32","group":"optimizer"},{"name":"policy-model_inputTransformer/depth11_ln2/scale/m","shape":[1,16],"dtype":"float32","group":"optimizer"},{"name":"policy-model_inputTransformer/depth11_MultiHeadAttentionLayer/wk/m","shape":[16,16],"dtype":"float32","group":"optimizer"},{"name":"policy-model_inputTransformer/depth11_MultiHeadAttentionLayer/wo/m","shape":[16,16],"dtype":"float32","group":"optimizer"},{"name":"policy-model_inputTransformer/depth11_MultiHeadAttentionLayer/wq/m","shape":[16,16],"dtype":"float32","group":"optimizer"},{"name":"policy-model_inputTransformer/depth11_MultiHeadAttentionLayer/wv/m","shape":[16,16],"dtype":"float32","group":"optimizer"},{"name":"policy-model_inputTransformer/depth11_QNorm_policy-model_inputTransformer/depth10_ffnAdd/policy-model_inputTransformer/depth10_ffnAdd/scale/m","shape":[1,16],"dtype":"float32","group":"optimizer"},{"name":"policy-model_inputTransformer/depth2_ffn1/kernel/m","shape":[16,64],"dtype":"float32","group":"optimizer"},{"name":"policy-model_inputTransformer/depth2_ffn2/kernel/m","shape":[64,16],"dtype":"float32","group":"optimizer"},{"name":"policy-model_inputTransformer/depth2_KVNorm_policy-model_inputTransformer/depth1_ffnAdd/policy-model_inputTransformer/depth1_ffnAdd/scale/m","shape":[1,16],"dtype":"float32","group":"optimizer"},{"name":"policy-model_inputTransformer/depth2_ln2/scale/m","shape":[1,16],"dtype":"float32","group":"optimizer"},{"name":"policy-model_inputTransformer/depth2_MultiHeadAttentionLayer/wk/m","shape":[16,16],"dtype":"float32","group":"optimizer"},{"name":"policy-model_inputTransformer/depth2_MultiHeadAttentionLayer/wo/m","shape":[16,16],"dtype":"float32","group":"optimizer"},{"name":"policy-model_inputTransformer/depth2_MultiHeadAttentionLayer/wq/m","shape":[16,16],"dtype":"float32","group":"optimizer"},{"name":"policy-model_inputTransformer/depth2_MultiHeadAttentionLayer/wv/m","shape":[16,16],"dtype":"float32","group":"optimizer"},{"name":"policy-model_inputTransformer/depth2_QNorm_policy-model_inputTransformer/depth1_ffnAdd/policy-model_inputTransformer/depth1_ffnAdd/scale/m","shape":[1,16],"dtype":"float32","group":"optimizer"},{"name":"policy-model_inputTransformer/depth3_ffn1/kernel/m","shape":[16,64],"dtype":"float32","group":"optimizer"},{"name":"policy-model_inputTransformer/depth3_ffn2/kernel/m","shape":[64,16],"dtype":"float32","group":"optimizer"},{"name":"policy-model_inputTransformer/depth3_KVNorm_policy-model_inputTransformer/depth2_ffnAdd/policy-model_inputTransformer/depth2_ffnAdd/scale/m","shape":[1,16],"dtype":"float32","group":"optimizer"},{"name":"policy-model_inputTransformer/depth3_ln2/scale/m","shape":[1,16],"dtype":"float32","group":"optimizer"},{"name":"policy-model_inputTransformer/depth3_MultiHeadAttentionLayer/wk/m","shape":[16,16],"dtype":"float32","group":"optimizer"},{"name":"policy-model_inputTransformer/depth3_MultiHeadAttentionLayer/wo/m","shape":[16,16],"dtype":"float32","group":"optimizer"},{"name":"policy-model_inputTransformer/depth3_MultiHeadAttentionLayer/wq/m","shape":[16,16],"dtype":"float32","group":"optimizer"},{"name":"policy-model_inputTransformer/depth3_MultiHeadAttentionLayer/wv/m","shape":[16,16],"dtype":"float32","group":"optimizer"},{"name":"policy-model_inputTransformer/depth3_QNorm_policy-model_inputTransformer/depth2_ffnAdd/policy-model_inputTransformer/depth2_ffnAdd/scale/m","shape":[1,16],"dtype":"float32","group":"optimizer"},{"name":"policy-model_inputTransformer/depth4_ffn1/kernel/m","shape":[16,64],"dtype":"float32","group":"optimizer"},{"name":"policy-model_inputTransformer/depth4_ffn2/kernel/m","shape":[64,16],"dtype":"float32","group":"optimizer"},{"name":"policy-model_inputTransformer/depth4_KVNorm_policy-model_inputTransformer/depth3_ffnAdd/policy-model_inputTransformer/depth3_ffnAdd/scale/m","shape":[1,16],"dtype":"float32","group":"optimizer"},{"name":"policy-model_inputTransformer/depth4_ln2/scale/m","shape":[1,16],"dtype":"float32","group":"optimizer"},{"name":"policy-model_inputTransformer/depth4_MultiHeadAttentionLayer/wk/m","shape":[16,16],"dtype":"float32","group":"optimizer"},{"name":"policy-model_inputTransformer/depth4_MultiHeadAttentionLayer/wo/m","shape":[16,16],"dtype":"float32","group":"optimizer"},{"name":"policy-model_inputTransformer/depth4_MultiHeadAttentionLayer/wq/m","shape":[16,16],"dtype":"float32","group":"optimizer"},{"name":"policy-model_inputTransformer/depth4_MultiHeadAttentionLayer/wv/m","shape":[16,16],"dtype":"float32","group":"optimizer"},{"name":"policy-model_inputTransformer/depth4_QNorm_policy-model_inputTransformer/depth3_ffnAdd/policy-model_inputTransformer/depth3_ffnAdd/scale/m","shape":[1,16],"dtype":"float32","group":"optimizer"},{"name":"policy-model_inputTransformer/depth5_ffn1/kernel/m","shape":[16,64],"dtype":"float32","group":"optimizer"},{"name":"policy-model_inputTransformer/depth5_ffn2/kernel/m","shape":[64,16],"dtype":"float32","group":"optimizer"},{"name":"policy-model_inputTransformer/depth5_KVNorm_policy-model_inputTransformer/depth4_ffnAdd/policy-model_inputTransformer/depth4_ffnAdd/scale/m","shape":[1,16],"dtype":"float32","group":"optimizer"},{"name":"policy-model_inputTransformer/depth5_ln2/scale/m","shape":[1,16],"dtype":"float32","group":"optimizer"},{"name":"policy-model_inputTransformer/depth5_MultiHeadAttentionLayer/wk/m","shape":[16,16],"dtype":"float32","group":"optimizer"},{"name":"policy-model_inputTransformer/depth5_MultiHeadAttentionLayer/wo/m","shape":[16,16],"dtype":"float32","group":"optimizer"},{"name":"policy-model_inputTransformer/depth5_MultiHeadAttentionLayer/wq/m","shape":[16,16],"dtype":"float32","group":"optimizer"},{"name":"policy-model_inputTransformer/depth5_MultiHeadAttentionLayer/wv/m","shape":[16,16],"dtype":"float32","group":"optimizer"},{"name":"policy-model_inputTransformer/depth5_QNorm_policy-model_inputTransformer/depth4_ffnAdd/policy-model_inputTransformer/depth4_ffnAdd/scale/m","shape":[1,16],"dtype":"float32","group":"optimizer"},{"name":"policy-model_inputTransformer/depth6_ffn1/kernel/m","shape":[16,64],"dtype":"float32","group":"optimizer"},{"name":"policy-model_inputTransformer/depth6_ffn2/kernel/m","shape":[64,16],"dtype":"float32","group":"optimizer"},{"name":"policy-model_inputTransformer/depth6_KVNorm_policy-model_inputTransformer/depth5_ffnAdd/policy-model_inputTransformer/depth5_ffnAdd/scale/m","shape":[1,16],"dtype":"float32","group":"optimizer"},{"name":"policy-model_inputTransformer/depth6_ln2/scale/m","shape":[1,16],"dtype":"float32","group":"optimizer"},{"name":"policy-model_inputTransformer/depth6_MultiHeadAttentionLayer/wk/m","shape":[16,16],"dtype":"float32","group":"optimizer"},{"name":"policy-model_inputTransformer/depth6_MultiHeadAttentionLayer/wo/m","shape":[16,16],"dtype":"float32","group":"optimizer"},{"name":"policy-model_inputTransformer/depth6_MultiHeadAttentionLayer/wq/m","shape":[16,16],"dtype":"float32","group":"optimizer"},{"name":"policy-model_inputTransformer/depth6_MultiHeadAttentionLayer/wv/m","shape":[16,16],"dtype":"float32","group":"optimizer"},{"name":"policy-model_inputTransformer/depth6_QNorm_policy-model_inputTransformer/depth5_ffnAdd/policy-model_inputTransformer/depth5_ffnAdd/scale/m","shape":[1,16],"dtype":"float32","group":"optimizer"},{"name":"policy-model_inputTransformer/depth7_ffn1/kernel/m","shape":[16,64],"dtype":"float32","group":"optimizer"},{"name":"policy-model_inputTransformer/depth7_ffn2/kernel/m","shape":[64,16],"dtype":"float32","group":"optimizer"},{"name":"policy-model_inputTransformer/depth7_KVNorm_policy-model_inputTransformer/depth6_ffnAdd/policy-model_inputTransformer/depth6_ffnAdd/scale/m","shape":[1,16],"dtype":"float32","group":"optimizer"},{"name":"policy-model_inputTransformer/depth7_ln2/scale/m","shape":[1,16],"dtype":"float32","group":"optimizer"},{"name":"policy-model_inputTransformer/depth7_MultiHeadAttentionLayer/wk/m","shape":[16,16],"dtype":"float32","group":"optimizer"},{"name":"policy-model_inputTransformer/depth7_MultiHeadAttentionLayer/wo/m","shape":[16,16],"dtype":"float32","group":"optimizer"},{"name":"policy-model_inputTransformer/depth7_MultiHeadAttentionLayer/wq/m","shape":[16,16],"dtype":"float32","group":"optimizer"},{"name":"policy-model_inputTransformer/depth7_MultiHeadAttentionLayer/wv/m","shape":[16,16],"dtype":"float32","group":"optimizer"},{"name":"policy-model_inputTransformer/depth7_QNorm_policy-model_inputTransformer/depth6_ffnAdd/policy-model_inputTransformer/depth6_ffnAdd/scale/m","shape":[1,16],"dtype":"float32","group":"optimizer"},{"name":"policy-model_inputTransformer/depth8_ffn1/kernel/m","shape":[16,64],"dtype":"float32","group":"optimizer"},{"name":"policy-model_inputTransformer/depth8_ffn2/kernel/m","shape":[64,16],"dtype":"float32","group":"optimizer"},{"name":"policy-model_inputTransformer/depth8_KVNorm_policy-model_inputTransformer/depth7_ffnAdd/policy-model_inputTransformer/depth7_ffnAdd/scale/m","shape":[1,16],"dtype":"float32","group":"optimizer"},{"name":"policy-model_inputTransformer/depth8_ln2/scale/m","shape":[1,16],"dtype":"float32","group":"optimizer"},{"name":"policy-model_inputTransformer/depth8_MultiHeadAttentionLayer/wk/m","shape":[16,16],"dtype":"float32","group":"optimizer"},{"name":"policy-model_inputTransformer/depth8_MultiHeadAttentionLayer/wo/m","shape":[16,16],"dtype":"float32","group":"optimizer"},{"name":"policy-model_inputTransformer/depth8_MultiHeadAttentionLayer/wq/m","shape":[16,16],"dtype":"float32","group":"optimizer"},{"name":"policy-model_inputTransformer/depth8_MultiHeadAttentionLayer/wv/m","shape":[16,16],"dtype":"float32","group":"optimizer"},{"name":"policy-model_inputTransformer/depth8_QNorm_policy-model_inputTransformer/depth7_ffnAdd/policy-model_inputTransformer/depth7_ffnAdd/scale/m","shape":[1,16],"dtype":"float32","group":"optimizer"},{"name":"policy-model_inputTransformer/depth9_ffn1/kernel/m","shape":[16,64],"dtype":"float32","group":"optimizer"},{"name":"policy-model_inputTransformer/depth9_ffn2/kernel/m","shape":[64,16],"dtype":"float32","group":"optimizer"},{"name":"policy-model_inputTransformer/depth9_KVNorm_policy-model_inputTransformer/depth8_ffnAdd/policy-model_inputTransformer/depth8_ffnAdd/scale/m","shape":[1,16],"dtype":"float32","group":"optimizer"},{"name":"policy-model_inputTransformer/depth9_ln2/scale/m","shape":[1,16],"dtype":"float32","group":"optimizer"},{"name":"policy-model_inputTransformer/depth9_MultiHeadAttentionLayer/wk/m","shape":[16,16],"dtype":"float32","group":"optimizer"},{"name":"policy-model_inputTransformer/depth9_MultiHeadAttentionLayer/wo/m","shape":[16,16],"dtype":"float32","group":"optimizer"},{"name":"policy-model_inputTransformer/depth9_MultiHeadAttentionLayer/wq/m","shape":[16,16],"dtype":"float32","group":"optimizer"},{"name":"policy-model_inputTransformer/depth9_MultiHeadAttentionLayer/wv/m","shape":[16,16],"dtype":"float32","group":"optimizer"},{"name":"policy-model_inputTransformer/depth9_QNorm_policy-model_inputTransformer/depth8_ffnAdd/policy-model_inputTransformer/depth8_ffnAdd/scale/m","shape":[1,16],"dtype":"float32","group":"optimizer"},{"name":"policy-model_tankInput_tokProj/kernel/m","shape":[10,16],"dtype":"float32","group":"optimizer"},{"name":"policy-model_tankInput_tokProj/policy-model_tankInput_tokProj_typeEmbedding/variable/m","shape":[16],"dtype":"float32","group":"optimizer"},{"name":"policy-model_turretRaysInput_tokProj/kernel/m","shape":[9,16],"dtype":"float32","group":"optimizer"},{"name":"policy-model_turretRaysInput_tokProj/policy-model_turretRaysInput_tokProj_typeEmbedding/variable/m","shape":[16],"dtype":"float32","group":"optimizer"},{"name":"rayHitType_sharedEmbedding/embeddings/m","shape":[4,16],"dtype":"float32","group":"optimizer"},{"name":"policy-model_alliesInput_tokProj/kernel/v","shape":[3,16],"dtype":"float32","group":"optimizer"},{"name":"policy-model_alliesInput_tokProj/policy-model_alliesInput_tokProj_typeEmbedding/variable/v","shape":[16],"dtype":"float32","group":"optimizer"},{"name":"policy-model_bulletsInput_tokProj/kernel/v","shape":[4,16],"dtype":"float32","group":"optimizer"},{"name":"policy-model_clsBulletsAttention_MultiHeadAttentionLayer/wk/v","shape":[16,16],"dtype":"float32","group":"optimizer"},{"name":"policy-model_clsBulletsAttention_MultiHeadAttentionLayer/wo/v","shape":[16,16],"dtype":"float32","group":"optimizer"},{"name":"policy-model_clsBulletsAttention_MultiHeadAttentionLayer/wq/v","shape":[16,16],"dtype":"float32","group":"optimizer"},{"name":"policy-model_clsBulletsAttention_MultiHeadAttentionLayer/wv/v","shape":[16,16],"dtype":"float32","group":"optimizer"},{"name":"policy-model_clsBulletsToken/variable/v","shape":[1,16],"dtype":"float32","group":"optimizer"},{"name":"policy-model_clsToken/variable/v","shape":[1,16],"dtype":"float32","group":"optimizer"},{"name":"policy-model_enemiesInput_tokProj/kernel/v","shape":[3,16],"dtype":"float32","group":"optimizer"},{"name":"policy-model_enemiesInput_tokProj/policy-model_enemiesInput_tokProj_typeEmbedding/variable/v","shape":[16],"dtype":"float32","group":"optimizer"},{"name":"policy-model_envRaysInput_tokProj/kernel/v","shape":[6,16],"dtype":"float32","group":"optimizer"},{"name":"policy-model_envRaysInput_tokProj/policy-model_envRaysInput_tokProj_typeEmbedding/variable/v","shape":[16],"dtype":"float32","group":"optimizer"},{"name":"policy-model_head_logits_0/biasMu/v","shape":[15],"dtype":"float32","group":"optimizer"},{"name":"policy-model_head_logits_0/biasSigma/v","shape":[15],"dtype":"float32","group":"optimizer"},{"name":"policy-model_head_logits_0/kernelMu/v","shape":[32,15],"dtype":"float32","group":"optimizer"},{"name":"policy-model_head_logits_0/kernelSigma/v","shape":[32,15],"dtype":"float32","group":"optimizer"},{"name":"policy-model_head_logits_1/biasMu/v","shape":[15],"dtype":"float32","group":"optimizer"},{"name":"policy-model_head_logits_1/biasSigma/v","shape":[15],"dtype":"float32","group":"optimizer"},{"name":"policy-model_head_logits_1/kernelMu/v","shape":[32,15],"dtype":"float32","group":"optimizer"},{"name":"policy-model_head_logits_1/kernelSigma/v","shape":[32,15],"dtype":"float32","group":"optimizer"},{"name":"policy-model_head_logits_2/biasMu/v","shape":[2],"dtype":"float32","group":"optimizer"},{"name":"policy-model_head_logits_2/biasSigma/v","shape":[2],"dtype":"float32","group":"optimizer"},{"name":"policy-model_head_logits_2/kernelMu/v","shape":[32,2],"dtype":"float32","group":"optimizer"},{"name":"policy-model_head_logits_2/kernelSigma/v","shape":[32,2],"dtype":"float32","group":"optimizer"},{"name":"policy-model_head_logits_3/biasMu/v","shape":[31],"dtype":"float32","group":"optimizer"},{"name":"policy-model_head_logits_3/biasSigma/v","shape":[31],"dtype":"float32","group":"optimizer"},{"name":"policy-model_head_logits_3/kernelMu/v","shape":[32,31],"dtype":"float32","group":"optimizer"},{"name":"policy-model_head_logits_3/kernelSigma/v","shape":[32,31],"dtype":"float32","group":"optimizer"},{"name":"policy-model_head0/LaN_branch1/bias/v","shape":[32],"dtype":"float32","group":"optimizer"},{"name":"policy-model_head0/LaN_branch1/kernel/v","shape":[32,32],"dtype":"float32","group":"optimizer"},{"name":"policy-model_head0/LaN_branch2/bias/v","shape":[32],"dtype":"float32","group":"optimizer"},{"name":"policy-model_head0/LaN_branch2/kernel/v","shape":[32,32],"dtype":"float32","group":"optimizer"},{"name":"policy-model_head0/LaN_preNorm/scale/v","shape":[32],"dtype":"float32","group":"optimizer"},{"name":"policy-model_head1/LaN_branch1/bias/v","shape":[32],"dtype":"float32","group":"optimizer"},{"name":"policy-model_head1/LaN_branch1/kernel/v","shape":[32,32],"dtype":"float32","group":"optimizer"},{"name":"policy-model_head1/LaN_branch2/bias/v","shape":[32],"dtype":"float32","group":"optimizer"},{"name":"policy-model_head1/LaN_branch2/kernel/v","shape":[32,32],"dtype":"float32","group":"optimizer"},{"name":"policy-model_head1/LaN_preNorm/scale/v","shape":[32],"dtype":"float32","group":"optimizer"},{"name":"policy-model_head2/LaN_branch1/bias/v","shape":[32],"dtype":"float32","group":"optimizer"},{"name":"policy-model_head2/LaN_branch1/kernel/v","shape":[32,32],"dtype":"float32","group":"optimizer"},{"name":"policy-model_head2/LaN_branch2/bias/v","shape":[32],"dtype":"float32","group":"optimizer"},{"name":"policy-model_head2/LaN_branch2/kernel/v","shape":[32,32],"dtype":"float32","group":"optimizer"},{"name":"policy-model_head2/LaN_preNorm/scale/v","shape":[32],"dtype":"float32","group":"optimizer"},{"name":"policy-model_head3/LaN_branch1/bias/v","shape":[32],"dtype":"float32","group":"optimizer"},{"name":"policy-model_head3/LaN_branch1/kernel/v","shape":[32,32],"dtype":"float32","group":"optimizer"},{"name":"policy-model_head3/LaN_branch2/bias/v","shape":[32],"dtype":"float32","group":"optimizer"},{"name":"policy-model_head3/LaN_branch2/kernel/v","shape":[32,32],"dtype":"float32","group":"optimizer"},{"name":"policy-model_head3/LaN_preNorm/scale/v","shape":[32],"dtype":"float32","group":"optimizer"},{"name":"policy-model_inputTransformer/depth0_ffn1/kernel/v","shape":[16,64],"dtype":"float32","group":"optimizer"},{"name":"policy-model_inputTransformer/depth0_ffn2/kernel/v","shape":[64,16],"dtype":"float32","group":"optimizer"},{"name":"policy-model_inputTransformer/depth0_KVNorm_policy-model_inputTransformer_contextToken0/policy-model_inputTransformer_contextToken0/scale/v","shape":[1,16],"dtype":"float32","group":"optimizer"},{"name":"policy-model_inputTransformer/depth0_ln2/scale/v","shape":[1,16],"dtype":"float32","group":"optimizer"},{"name":"policy-model_inputTransformer/depth0_MultiHeadAttentionLayer/wk/v","shape":[16,16],"dtype":"float32","group":"optimizer"},{"name":"policy-model_inputTransformer/depth0_MultiHeadAttentionLayer/wo/v","shape":[16,16],"dtype":"float32","group":"optimizer"},{"name":"policy-model_inputTransformer/depth0_MultiHeadAttentionLayer/wq/v","shape":[16,16],"dtype":"float32","group":"optimizer"},{"name":"policy-model_inputTransformer/depth0_MultiHeadAttentionLayer/wv/v","shape":[16,16],"dtype":"float32","group":"optimizer"},{"name":"policy-model_inputTransformer/depth0_QNorm_policy-model_inputTransformer_contextToken0/policy-model_inputTransformer_contextToken0/scale/v","shape":[1,16],"dtype":"float32","group":"optimizer"},{"name":"policy-model_inputTransformer/depth1_ffn1/kernel/v","shape":[16,64],"dtype":"float32","group":"optimizer"},{"name":"policy-model_inputTransformer/depth1_ffn2/kernel/v","shape":[64,16],"dtype":"float32","group":"optimizer"},{"name":"policy-model_inputTransformer/depth1_KVNorm_policy-model_inputTransformer/depth0_ffnAdd/policy-model_inputTransformer/depth0_ffnAdd/scale/v","shape":[1,16],"dtype":"float32","group":"optimizer"},{"name":"policy-model_inputTransformer/depth1_ln2/scale/v","shape":[1,16],"dtype":"float32","group":"optimizer"},{"name":"policy-model_inputTransformer/depth1_MultiHeadAttentionLayer/wk/v","shape":[16,16],"dtype":"float32","group":"optimizer"},{"name":"policy-model_inputTransformer/depth1_MultiHeadAttentionLayer/wo/v","shape":[16,16],"dtype":"float32","group":"optimizer"},{"name":"policy-model_inputTransformer/depth1_MultiHeadAttentionLayer/wq/v","shape":[16,16],"dtype":"float32","group":"optimizer"},{"name":"policy-model_inputTransformer/depth1_MultiHeadAttentionLayer/wv/v","shape":[16,16],"dtype":"float32","group":"optimizer"},{"name":"policy-model_inputTransformer/depth1_QNorm_policy-model_inputTransformer/depth0_ffnAdd/policy-model_inputTransformer/depth0_ffnAdd/scale/v","shape":[1,16],"dtype":"float32","group":"optimizer"},{"name":"policy-model_inputTransformer/depth10_ffn1/kernel/v","shape":[16,64],"dtype":"float32","group":"optimizer"},{"name":"policy-model_inputTransformer/depth10_ffn2/kernel/v","shape":[64,16],"dtype":"float32","group":"optimizer"},{"name":"policy-model_inputTransformer/depth10_KVNorm_policy-model_inputTransformer/depth9_ffnAdd/policy-model_inputTransformer/depth9_ffnAdd/scale/v","shape":[1,16],"dtype":"float32","group":"optimizer"},{"name":"policy-model_inputTransformer/depth10_ln2/scale/v","shape":[1,16],"dtype":"float32","group":"optimizer"},{"name":"policy-model_inputTransformer/depth10_MultiHeadAttentionLayer/wk/v","shape":[16,16],"dtype":"float32","group":"optimizer"},{"name":"policy-model_inputTransformer/depth10_MultiHeadAttentionLayer/wo/v","shape":[16,16],"dtype":"float32","group":"optimizer"},{"name":"policy-model_inputTransformer/depth10_MultiHeadAttentionLayer/wq/v","shape":[16,16],"dtype":"float32","group":"optimizer"},{"name":"policy-model_inputTransformer/depth10_MultiHeadAttentionLayer/wv/v","shape":[16,16],"dtype":"float32","group":"optimizer"},{"name":"policy-model_inputTransformer/depth10_QNorm_policy-model_inputTransformer/depth9_ffnAdd/policy-model_inputTransformer/depth9_ffnAdd/scale/v","shape":[1,16],"dtype":"float32","group":"optimizer"},{"name":"policy-model_inputTransformer/depth11_ffn1/kernel/v","shape":[16,64],"dtype":"float32","group":"optimizer"},{"name":"policy-model_inputTransformer/depth11_ffn2/kernel/v","shape":[64,16],"dtype":"float32","group":"optimizer"},{"name":"policy-model_inputTransformer/depth11_KVNorm_policy-model_inputTransformer/depth10_ffnAdd/policy-model_inputTransformer/depth10_ffnAdd/scale/v","shape":[1,16],"dtype":"float32","group":"optimizer"},{"name":"policy-model_inputTransformer/depth11_ln2/scale/v","shape":[1,16],"dtype":"float32","group":"optimizer"},{"name":"policy-model_inputTransformer/depth11_MultiHeadAttentionLayer/wk/v","shape":[16,16],"dtype":"float32","group":"optimizer"},{"name":"policy-model_inputTransformer/depth11_MultiHeadAttentionLayer/wo/v","shape":[16,16],"dtype":"float32","group":"optimizer"},{"name":"policy-model_inputTransformer/depth11_MultiHeadAttentionLayer/wq/v","shape":[16,16],"dtype":"float32","group":"optimizer"},{"name":"policy-model_inputTransformer/depth11_MultiHeadAttentionLayer/wv/v","shape":[16,16],"dtype":"float32","group":"optimizer"},{"name":"policy-model_inputTransformer/depth11_QNorm_policy-model_inputTransformer/depth10_ffnAdd/policy-model_inputTransformer/depth10_ffnAdd/scale/v","shape":[1,16],"dtype":"float32","group":"optimizer"},{"name":"policy-model_inputTransformer/depth2_ffn1/kernel/v","shape":[16,64],"dtype":"float32","group":"optimizer"},{"name":"policy-model_inputTransformer/depth2_ffn2/kernel/v","shape":[64,16],"dtype":"float32","group":"optimizer"},{"name":"policy-model_inputTransformer/depth2_KVNorm_policy-model_inputTransformer/depth1_ffnAdd/policy-model_inputTransformer/depth1_ffnAdd/scale/v","shape":[1,16],"dtype":"float32","group":"optimizer"},{"name":"policy-model_inputTransformer/depth2_ln2/scale/v","shape":[1,16],"dtype":"float32","group":"optimizer"},{"name":"policy-model_inputTransformer/depth2_MultiHeadAttentionLayer/wk/v","shape":[16,16],"dtype":"float32","group":"optimizer"},{"name":"policy-model_inputTransformer/depth2_MultiHeadAttentionLayer/wo/v","shape":[16,16],"dtype":"float32","group":"optimizer"},{"name":"policy-model_inputTransformer/depth2_MultiHeadAttentionLayer/wq/v","shape":[16,16],"dtype":"float32","group":"optimizer"},{"name":"policy-model_inputTransformer/depth2_MultiHeadAttentionLayer/wv/v","shape":[16,16],"dtype":"float32","group":"optimizer"},{"name":"policy-model_inputTransformer/depth2_QNorm_policy-model_inputTransformer/depth1_ffnAdd/policy-model_inputTransformer/depth1_ffnAdd/scale/v","shape":[1,16],"dtype":"float32","group":"optimizer"},{"name":"policy-model_inputTransformer/depth3_ffn1/kernel/v","shape":[16,64],"dtype":"float32","group":"optimizer"},{"name":"policy-model_inputTransformer/depth3_ffn2/kernel/v","shape":[64,16],"dtype":"float32","group":"optimizer"},{"name":"policy-model_inputTransformer/depth3_KVNorm_policy-model_inputTransformer/depth2_ffnAdd/policy-model_inputTransformer/depth2_ffnAdd/scale/v","shape":[1,16],"dtype":"float32","group":"optimizer"},{"name":"policy-model_inputTransformer/depth3_ln2/scale/v","shape":[1,16],"dtype":"float32","group":"optimizer"},{"name":"policy-model_inputTransformer/depth3_MultiHeadAttentionLayer/wk/v","shape":[16,16],"dtype":"float32","group":"optimizer"},{"name":"policy-model_inputTransformer/depth3_MultiHeadAttentionLayer/wo/v","shape":[16,16],"dtype":"float32","group":"optimizer"},{"name":"policy-model_inputTransformer/depth3_MultiHeadAttentionLayer/wq/v","shape":[16,16],"dtype":"float32","group":"optimizer"},{"name":"policy-model_inputTransformer/depth3_MultiHeadAttentionLayer/wv/v","shape":[16,16],"dtype":"float32","group":"optimizer"},{"name":"policy-model_inputTransformer/depth3_QNorm_policy-model_inputTransformer/depth2_ffnAdd/policy-model_inputTransformer/depth2_ffnAdd/scale/v","shape":[1,16],"dtype":"float32","group":"optimizer"},{"name":"policy-model_inputTransformer/depth4_ffn1/kernel/v","shape":[16,64],"dtype":"float32","group":"optimizer"},{"name":"policy-model_inputTransformer/depth4_ffn2/kernel/v","shape":[64,16],"dtype":"float32","group":"optimizer"},{"name":"policy-model_inputTransformer/depth4_KVNorm_policy-model_inputTransformer/depth3_ffnAdd/policy-model_inputTransformer/depth3_ffnAdd/scale/v","shape":[1,16],"dtype":"float32","group":"optimizer"},{"name":"policy-model_inputTransformer/depth4_ln2/scale/v","shape":[1,16],"dtype":"float32","group":"optimizer"},{"name":"policy-model_inputTransformer/depth4_MultiHeadAttentionLayer/wk/v","shape":[16,16],"dtype":"float32","group":"optimizer"},{"name":"policy-model_inputTransformer/depth4_MultiHeadAttentionLayer/wo/v","shape":[16,16],"dtype":"float32","group":"optimizer"},{"name":"policy-model_inputTransformer/depth4_MultiHeadAttentionLayer/wq/v","shape":[16,16],"dtype":"float32","group":"optimizer"},{"name":"policy-model_inputTransformer/depth4_MultiHeadAttentionLayer/wv/v","shape":[16,16],"dtype":"float32","group":"optimizer"},{"name":"policy-model_inputTransformer/depth4_QNorm_policy-model_inputTransformer/depth3_ffnAdd/policy-model_inputTransformer/depth3_ffnAdd/scale/v","shape":[1,16],"dtype":"float32","group":"optimizer"},{"name":"policy-model_inputTransformer/depth5_ffn1/kernel/v","shape":[16,64],"dtype":"float32","group":"optimizer"},{"name":"policy-model_inputTransformer/depth5_ffn2/kernel/v","shape":[64,16],"dtype":"float32","group":"optimizer"},{"name":"policy-model_inputTransformer/depth5_KVNorm_policy-model_inputTransformer/depth4_ffnAdd/policy-model_inputTransformer/depth4_ffnAdd/scale/v","shape":[1,16],"dtype":"float32","group":"optimizer"},{"name":"policy-model_inputTransformer/depth5_ln2/scale/v","shape":[1,16],"dtype":"float32","group":"optimizer"},{"name":"policy-model_inputTransformer/depth5_MultiHeadAttentionLayer/wk/v","shape":[16,16],"dtype":"float32","group":"optimizer"},{"name":"policy-model_inputTransformer/depth5_MultiHeadAttentionLayer/wo/v","shape":[16,16],"dtype":"float32","group":"optimizer"},{"name":"policy-model_inputTransformer/depth5_MultiHeadAttentionLayer/wq/v","shape":[16,16],"dtype":"float32","group":"optimizer"},{"name":"policy-model_inputTransformer/depth5_MultiHeadAttentionLayer/wv/v","shape":[16,16],"dtype":"float32","group":"optimizer"},{"name":"policy-model_inputTransformer/depth5_QNorm_policy-model_inputTransformer/depth4_ffnAdd/policy-model_inputTransformer/depth4_ffnAdd/scale/v","shape":[1,16],"dtype":"float32","group":"optimizer"},{"name":"policy-model_inputTransformer/depth6_ffn1/kernel/v","shape":[16,64],"dtype":"float32","group":"optimizer"},{"name":"policy-model_inputTransformer/depth6_ffn2/kernel/v","shape":[64,16],"dtype":"float32","group":"optimizer"},{"name":"policy-model_inputTransformer/depth6_KVNorm_policy-model_inputTransformer/depth5_ffnAdd/policy-model_inputTransformer/depth5_ffnAdd/scale/v","shape":[1,16],"dtype":"float32","group":"optimizer"},{"name":"policy-model_inputTransformer/depth6_ln2/scale/v","shape":[1,16],"dtype":"float32","group":"optimizer"},{"name":"policy-model_inputTransformer/depth6_MultiHeadAttentionLayer/wk/v","shape":[16,16],"dtype":"float32","group":"optimizer"},{"name":"policy-model_inputTransformer/depth6_MultiHeadAttentionLayer/wo/v","shape":[16,16],"dtype":"float32","group":"optimizer"},{"name":"policy-model_inputTransformer/depth6_MultiHeadAttentionLayer/wq/v","shape":[16,16],"dtype":"float32","group":"optimizer"},{"name":"policy-model_inputTransformer/depth6_MultiHeadAttentionLayer/wv/v","shape":[16,16],"dtype":"float32","group":"optimizer"},{"name":"policy-model_inputTransformer/depth6_QNorm_policy-model_inputTransformer/depth5_ffnAdd/policy-model_inputTransformer/depth5_ffnAdd/scale/v","shape":[1,16],"dtype":"float32","group":"optimizer"},{"name":"policy-model_inputTransformer/depth7_ffn1/kernel/v","shape":[16,64],"dtype":"float32","group":"optimizer"},{"name":"policy-model_inputTransformer/depth7_ffn2/kernel/v","shape":[64,16],"dtype":"float32","group":"optimizer"},{"name":"policy-model_inputTransformer/depth7_KVNorm_policy-model_inputTransformer/depth6_ffnAdd/policy-model_inputTransformer/depth6_ffnAdd/scale/v","shape":[1,16],"dtype":"float32","group":"optimizer"},{"name":"policy-model_inputTransformer/depth7_ln2/scale/v","shape":[1,16],"dtype":"float32","group":"optimizer"},{"name":"policy-model_inputTransformer/depth7_MultiHeadAttentionLayer/wk/v","shape":[16,16],"dtype":"float32","group":"optimizer"},{"name":"policy-model_inputTransformer/depth7_MultiHeadAttentionLayer/wo/v","shape":[16,16],"dtype":"float32","group":"optimizer"},{"name":"policy-model_inputTransformer/depth7_MultiHeadAttentionLayer/wq/v","shape":[16,16],"dtype":"float32","group":"optimizer"},{"name":"policy-model_inputTransformer/depth7_MultiHeadAttentionLayer/wv/v","shape":[16,16],"dtype":"float32","group":"optimizer"},{"name":"policy-model_inputTransformer/depth7_QNorm_policy-model_inputTransformer/depth6_ffnAdd/policy-model_inputTransformer/depth6_ffnAdd/scale/v","shape":[1,16],"dtype":"float32","group":"optimizer"},{"name":"policy-model_inputTransformer/depth8_ffn1/kernel/v","shape":[16,64],"dtype":"float32","group":"optimizer"},{"name":"policy-model_inputTransformer/depth8_ffn2/kernel/v","shape":[64,16],"dtype":"float32","group":"optimizer"},{"name":"policy-model_inputTransformer/depth8_KVNorm_policy-model_inputTransformer/depth7_ffnAdd/policy-model_inputTransformer/depth7_ffnAdd/scale/v","shape":[1,16],"dtype":"float32","group":"optimizer"},{"name":"policy-model_inputTransformer/depth8_ln2/scale/v","shape":[1,16],"dtype":"float32","group":"optimizer"},{"name":"policy-model_inputTransformer/depth8_MultiHeadAttentionLayer/wk/v","shape":[16,16],"dtype":"float32","group":"optimizer"},{"name":"policy-model_inputTransformer/depth8_MultiHeadAttentionLayer/wo/v","shape":[16,16],"dtype":"float32","group":"optimizer"},{"name":"policy-model_inputTransformer/depth8_MultiHeadAttentionLayer/wq/v","shape":[16,16],"dtype":"float32","group":"optimizer"},{"name":"policy-model_inputTransformer/depth8_MultiHeadAttentionLayer/wv/v","shape":[16,16],"dtype":"float32","group":"optimizer"},{"name":"policy-model_inputTransformer/depth8_QNorm_policy-model_inputTransformer/depth7_ffnAdd/policy-model_inputTransformer/depth7_ffnAdd/scale/v","shape":[1,16],"dtype":"float32","group":"optimizer"},{"name":"policy-model_inputTransformer/depth9_ffn1/kernel/v","shape":[16,64],"dtype":"float32","group":"optimizer"},{"name":"policy-model_inputTransformer/depth9_ffn2/kernel/v","shape":[64,16],"dtype":"float32","group":"optimizer"},{"name":"policy-model_inputTransformer/depth9_KVNorm_policy-model_inputTransformer/depth8_ffnAdd/policy-model_inputTransformer/depth8_ffnAdd/scale/v","shape":[1,16],"dtype":"float32","group":"optimizer"},{"name":"policy-model_inputTransformer/depth9_ln2/scale/v","shape":[1,16],"dtype":"float32","group":"optimizer"},{"name":"policy-model_inputTransformer/depth9_MultiHeadAttentionLayer/wk/v","shape":[16,16],"dtype":"float32","group":"optimizer"},{"name":"policy-model_inputTransformer/depth9_MultiHeadAttentionLayer/wo/v","shape":[16,16],"dtype":"float32","group":"optimizer"},{"name":"policy-model_inputTransformer/depth9_MultiHeadAttentionLayer/wq/v","shape":[16,16],"dtype":"float32","group":"optimizer"},{"name":"policy-model_inputTransformer/depth9_MultiHeadAttentionLayer/wv/v","shape":[16,16],"dtype":"float32","group":"optimizer"},{"name":"policy-model_inputTransformer/depth9_QNorm_policy-model_inputTransformer/depth8_ffnAdd/policy-model_inputTransformer/depth8_ffnAdd/scale/v","shape":[1,16],"dtype":"float32","group":"optimizer"},{"name":"policy-model_tankInput_tokProj/kernel/v","shape":[10,16],"dtype":"float32","group":"optimizer"},{"name":"policy-model_tankInput_tokProj/policy-model_tankInput_tokProj_typeEmbedding/variable/v","shape":[16],"dtype":"float32","group":"optimizer"},{"name":"policy-model_turretRaysInput_tokProj/kernel/v","shape":[9,16],"dtype":"float32","group":"optimizer"},{"name":"policy-model_turretRaysInput_tokProj/policy-model_turretRaysInput_tokProj_typeEmbedding/variable/v","shape":[16],"dtype":"float32","group":"optimizer"},{"name":"rayHitType_sharedEmbedding/embeddings/v","shape":[4,16],"dtype":"float32","group":"optimizer"}]}],"userDefinedMetadata":{"curriculumState":{"iteration":11766570,"mapScenarioIndexToSuccessRatio":{"0":0.7642305746075292,"1":0.1562274653254077,"2":-0.19499710409998486,"3":0.004101966163694536}},"lr":0.00003673368477540138,"expIteration":11783368,"emaStdReturns":1.5288827770550169,"rewardRatio":0.2558519145071813},"trainingConfig":{"loss":"mean_squared_error","metrics":{},"optimizer_config":{"class_name":"AdamW","config":{"learningRate":0.00003673368477540138,"beta1":0.9,"beta2":0.999,"epsilon":1e-7,"weightDecay":0.0001}}}}